codes/Weights/wv3/weight-780.pth (torch, 92405 bytes, 80 tensors)

head_conv.0.point_wise_1.weight f4 [9, 9, 1, 1]
0	0x3ea8f079	0.32995966
1	0xbf571a32	-0.84024346
2	0x3f7456aa	0.9544474
3	0xbed2fa5c	-0.41206634
4	0xbce50716	-0.02795748
5	0xbf676b18	-0.9039779
6	0x3d73354b	0.059376996
7	0xbf35db82	-0.7103807
8	0x3e889e46	0.26683253
9	0xbad788c5	-0.0016443959
10	0xbd8d2185	-0.06891159
11	0xbea8ee8b	-0.32994494
12	0x3e835d85	0.25657287
13	0xbf069aa3	-0.52579707
14	0x3fe09eb4	1.7548432
15	0xc01e384a	-2.4721856
16	0xbf948e4f	-1.1605929
17	0x400cbf70	2.1991844
18	0x3dc28465	0.094979085
19	0xc00b4846	-2.1762862
20	0xc009e312	-2.1544843
21	0x3fe6a9b1	1.8020536
22	0xbf88f60f	-1.0700091
23	0xbec6a8a1	-0.3880053
24	0xbd0eb2ef	-0.034838613
25	0x3ef3f5e6	0.47648543
26	0xbeb1952b	-0.3468412
27	0xbc108789	-0.008821377
28	0xbfba723d	-1.4566113
29	0xbf902d43	-1.1263813
30	0xbea06b14	-0.31331694
31	0xbf028120	-0.5097828
32	0xbfa2c578	-1.2716513
33	0xbf51ca40	-0.81949234
34	0x402fb3ca	2.7453485
35	0x3fde2d28	1.735753
36	0xbf2530a2	-0.6452733
37	0xbfc6e596	-1.5538814
38	0x3f96952d	1.1764275
39	0x3f2c6b71	0.6735144
40	0xbfb399eb	-1.4031347
41	0xc00bfb0a	-2.1871972
42	0x3fcce9c5	1.6008841
43	0xbf2b3f44	-0.6689341
44	0xbe0ade14	-0.13561279
45	0xc0154ca5	-2.332803
46	0x3f1b226b	0.6059939
47	0xbeabc8fe	-0.33551782
48	0xbede5b84	-0.43429196
49	0x3fdbd2c1	1.7173692
50	0x3e0481a4	0.12940079
51	0x3dd84397	0.10559767
52	0x3ef42de7	0.4769127
53	0x3f2ab410	0.66681004
54	0x3d5bf1a8	0.05369726
55	0xbff6cb38	-1.9280767
56	0xbfdd6a32	-1.7298033
57	0xbf9eeb58	-1.2415571
58	0x3f150454	0.5820973
59	0x3f680c4c	0.90643764
60	0x401e12ce	2.4698977
61	0xbfacd3a9	-1.3502094
62	0x3e912421	0.28347877
63	0x3c9161f1	0.017746897
64	0xbf6790b9	-0.90455204
65	0xbedb877d	-0.42876807
66	0x3fb874b3	1.4410614
67	0x3eaf4117	0.34229347
68	0xbedcc426	-0.431184
69	0xc0056a36	-2.0846076
70	0xbfcb59ae	-1.5886743
71	0x40824b8e	4.071723
72	0xbd295579	-0.04134128
73	0x3eddb861	0.43304732
74	0xbf89e5f1	-1.0773298
75	0xbd1f1fb4	-0.038848594
76	0x4029d831	2.6538203
77	0xc0276b79	-2.6159346
78	0xbe32db54	-0.1746648
79	0xbf7103c0	-0.9414635
80	0x3fca5bd3	1.5809273

head_conv.0.point_wise_1.bias f4 [9]
0	0x3e228035	0.1586922
1	0x3e1529d5	0.14566739
2	0x3ea04fbd	0.31310835
3	0x3cfc38a0	0.03078872
4	0x3e75f0dd	0.24017663
5	0x3c8bfc32	0.01708803
6	0x3edfda91	0.4372144
7	0xbc7e5446	-0.015523022
8	0x3d4de239	0.05026457

head_conv.0.depth_wise_1.weight f4 [9, 1, 3, 3]
0	0x3eea99d7	0.45820495
1	0x3e3b664d	0.18300743
2	0x3e5fb5ed	0.21846743
3	0xbc7d2bac	-0.015452307
4	0xbfa987a7	-1.3244523
5	0x3e170e52	0.14751557
6	0xbd306877	-0.043068375
7	0xbcecc56b	-0.02890273
8	0x3e6d67d1	0.23184134
9	0x3e5decfe	0.21672437
10	0xbf3cb367	-0.73711246
11	0x3ee5cb13	0.44881496
12	0xbf362ae1	-0.7115918
13	0xbfd9683c	-1.6984935
14	0xbd927697	-0.071515255
15	0x3de11822	0.10990931
16	0xbece1171	-0.40247682
17	0x3e5f861d	0.21828504
18	0x3e38e40c	0.18055743
19	0x3f1f6861	0.62268645
20	0xbda2fac1	-0.07957984
21	0x3f5a146f	0.8518743
22	0x3f0c1cd5	0.54731494
23	0x3f2b9f5f	0.67040056
24	0xbd12dde1	-0.03585613
25	0x3f02b483	0.5105669
26	0xbf0b98d8	-0.54530096
27	0x3f248acc	0.6427429
28	0xbf8f35d7	-1.1188306
29	0xbe84991f	-0.25898072
30	0xbfa6c886	-1.3029945
31	0x4011d1bb	2.278426
32	0x3f1c6fd7	0.61108154
33	0xbecf477b	-0.40484223
34	0x3f1ba479	0.6079784
35	0xbdd8dd37	-0.105890684
36	0xbd2c9191	-0.04213101
37	0x3db6194b	0.08891543
38	0xbe1e75dc	-0.15474647
39	0x3d37f953	0.04491551
40	0x400f99de	2.2437663
41	0x3d993aba	0.07481904
42	0xbd832eb4	-0.06405392
43	0x3e3dc448	0.18531907
44	0xbdc3e6a7	-0.09565478
45	0xbe5f6328	-0.21815169
46	0xbf07d7c6	-0.5306362
47	0xbe75a71a	-0.23989525
48	0xbef04a56	-0.46931714
49	0x3d9f0bc8	0.07765919
50	0xbf078e26	-0.52951276
51	0xbe792153	-0.24329118
52	0xbeed8c19	-0.4639595
53	0xbe8e77d8	-0.2782581
54	0x3d9b8517	0.07593744
55	0xbf88a1f2	-1.0674422
56	0x3f2c4636	0.67294633
57	0x3f109f73	0.564933
58	0x40468e34	3.1024294
59	0xbf8a3df4	-1.0800157
60	0xbea507c4	-0.32232487
61	0x3da159d9	0.07878465
62	0x3ec5f5bf	0.38664052
63	0x3de45d83	0.111506484
64	0xbd88347f	-0.06650638
65	0x3ed9efc6	0.42565745
66	0xbf48ff5d	-0.78514653
67	0xc02577e3	-2.5854423
68	0x3fe29b22	1.7703593
69	0x3e73f07c	0.23822206
70	0x3ee79681	0.45232013
71	0x3edc17c2	0.42986876
72	0xbf16b1cb	-0.5886504
73	0x3dca5ee5	0.09881381
74	0xbead8036	-0.3388688
75	0xbebef31e	-0.3729486
76	0xbf20170c	-0.62535167
77	0xbeb8b80c	-0.36077917
78	0x3e3c2b41	0.18375875
79	0xbebc2c31	-0.36752465
80	0x3e2d5cd3	0.16929941

head_conv.0.depth_wise_1.bias f4 [9]
0	0x3e3b6a88	0.18302357
1	0xbccd9e91	-0.025100024
2	0xbd12e9ef	-0.035867628
3	0xbd8fe6de	-0.07026456
4	0x3dd17356	0.10227077
5	0xbcec6da5	-0.028860876
6	0x3c493eaa	0.012283007
7	0xbabf8cba	-0.0014614083
8	0x3d043152	0.032273598

head_conv.0.point_wise_2.weight f4 [9, 9, 1, 1]
0	0xbfdb51f9	-1.7134391
1	0x3d8f77b8	0.070052564
2	0x3dd4c028	0.103882134
3	0x3e88d598	0.2672546
4	0x3f01cbb1	0.50701433
5	0x3fae5092	1.3618338
6	0xbdf8b1d4	-0.12143293
7	0x3ebe9128	0.3722012
8	0xbf1009de	-0.56265056
9	0xbbccdbb5	-0.006251777
10	0xbf497ce7	-0.7870621
11	0xbf58c18b	-0.84670323
12	0x3e87042d	0.26370373
13	0xbee05506	-0.43814868
14	0x3fdcb280	1.7241974
15	0xbfdf1d7a	-1.743087
16	0xbf883078	-1.0639791
17	0x40278985	2.6177685
18	0xbd2e7c2d	-0.042598892
19	0x4032920c	2.790164
20	0x3f8f8a79	1.1214134
21	0xc02fa7ea	-2.7446237
22	0x3f16b0e4	0.58863664
23	0x3eb555fe	0.3541717
24	0xbdb873a8	-0.09006435
25	0x3e7bc636	0.2458733
26	0xbeb5102d	-0.35363904
27	0x3cb9dc8b	0.02268817
28	0xbf1bd3e6	-0.60870206
29	0x3f1f24cc	0.6216552
30	0x3f67da6a	0.9056765
31	0xbdba8d51	-0.09108985
32	0xbfdcec93	-1.7259697
33	0x3f5085d0	0.8145418
34	0x3f6cda2a	0.9252039
35	0xbff6d883	-1.9284824
36	0x3cd947d6	0.026523512
37	0xbe97b45d	-0.29629794
38	0x3f8e91c4	1.1138234
39	0x3ea675c2	0.32511717
40	0xbe7b5f95	-0.2454818
41	0xbfaf1fc9	-1.3681575
42	0x3ff2b73f	1.8962172
43	0xbf584019	-0.84472805
44	0xbf03d133	-0.5149109
45	0xbe879669	-0.2648194
46	0xbe215ddf	-0.15758465
47	0x3f6e2576	0.9302591
48	0x3e8ab584	0.2709161
49	0xbe323d80	-0.17406273
50	0x3f3f1513	0.7464153
51	0xbf59629b	-0.84916085
52	0x3fc4e51a	1.5382416
53	0xbff9f0f1	-1.9526654
54	0xbd42a029	-0.047516022
55	0xbfe74d58	-1.8070478
56	0xbf5af26e	-0.8552617
57	0xbfaa68ad	-1.3313195
58	0x3e1ddd04	0.15416342
59	0x402154cb	2.5208004
60	0x3f89ed84	1.0775609
61	0xbec8d283	-0.39223108
62	0xbed245b7	-0.41068813
63	0x3dca2fe7	0.09872418
64	0x401fbb70	2.4958153
65	0xbfdbca16	-1.7171047
66	0xbebcc11a	-0.36866075
67	0x3fdcb741	1.7243425
68	0xbeaa942d	-0.33316174
69	0xbfee68da	-1.8625748
70	0x3f9c0167	1.2187928
71	0xbf9771ee	-1.1831644
72	0xbca1dfad	-0.019759977
73	0x3f7eb077	0.99488014
74	0xbf1295a0	-0.5725956
75	0x3e87ab11	0.264977
76	0x405466b8	3.3187695
77	0xc03ed39e	-2.981666
78	0x3ea3f8c5	0.32025734
79	0xbf9288a9	-1.1447955
80	0x3fcff94c	1.6247954

head_conv.0.point_wise_2.bias f4 [9]
0	0xbdb50ca7	-0.08840304
1	0x3de27613	0.11057677
2	0xbde4d771	-0.11173905
3	0xbd1d2f50	-0.0383752
4	0xbcc5382d	-0.024074638
5	0xbdc7d74c	-0.097578615
6	0x3e8b6c0f	0.2723088
7	0x3c6d3488	0.014477856
8	0xbe0a5361	-0.13508369

head_conv.0.depth_wise_2.weight f4 [9, 1, 3, 3]
0	0x3e8c6eaa	0.2742818
1	0x3e8d4642	0.27592665
2	0x3e11e3f4	0.14247113
3	0x3e331460	0.17488241
4	0x400de854	2.2173052
5	0x3e21316f	0.15741514
6	0x3dbcb4c9	0.092141695
7	0x3e0ad7a8	0.13558829
8	0x3de5162a	0.11185868
9	0x3f264fe4	0.64965653
10	0xbf420ed0	-0.7580385
11	0x3f1eca88	0.6202779
12	0xbf4658ed	-0.7747944
13	0xc0390beb	-2.8913524
14	0x3f7ce3c8	0.98785067
15	0x3f0a2be4	0.5397322
16	0xbf8896f2	-1.0671065
17	0x3e8def74	0.2772175
18	0x3e685f8d	0.226927
19	0xbf62a5a6	-0.8853401
20	0x3f04d6a9	0.51890045
21	0xbf54c653	-0.8311512
22	0xbd84edac	-0.06490645
23	0xbf858abf	-1.0432967
24	0xbdf8cd13	-0.1214849
25	0xbf9bceaf	-1.217245
26	0x3e269436	0.16267475
27	0xbf065358	-0.5247092
28	0xbdfaa624	-0.1223872
29	0x3f4b6499	0.79450375
30	0x3f0a5c58	0.54047155
31	0xbf3be89e	-0.7340182
32	0x3e50bdfe	0.20384976
33	0x3eba7c32	0.36422879
34	0xbe585ba7	-0.21128713
35	0xbe3dcca0	-0.1853509
36	0x3e7212ff	0.23640059
37	0xbe182543	-0.14857964
38	0x3ec5abe6	0.3860771
39	0xbe469b0a	-0.1939508
40	0xbdf0bced	-0.11754785
41	0xbea50379	-0.32229212
42	0x3f1b8390	0.60747623
43	0xbf152909	-0.5826574
44	0x3ed51406	0.4161684
45	0xbf01675d	-0.50548345
46	0xbe0ad42e	-0.13557503
47	0xbf2e9d0f	-0.682084
48	0x3ece80b9	0.40332583
49	0x3f9e465f	1.2365226
50	0x3f0b1d1b	0.54341286
51	0xbe9ce552	-0.30643708
52	0xbe85273b	-0.26006493
53	0xbf15d3d3	-0.58526343
54	0xbf069a53	-0.5257923
55	0x3dc52ec9	0.09628064
56	0xbe519e4c	-0.20470542
57	0x3f22bcb3	0.6356918
58	0x3f8b0edb	1.0863909
59	0xbf1b8d27	-0.60762256
60	0xbeb9e7c3	-0.36309633
61	0x3f2a9de5	0.6664718
62	0xbee3792f	-0.44428393
63	0xbd9dea8a	-0.077107504
64	0x3f2ae54c	0.6675613
65	0xbd0ef0d7	-0.03489765
66	0x3f1d8a45	0.6153911
67	0x4030f35e	2.764854
68	0x3f162afc	0.5865934
69	0xbccf22b1	-0.025285097
70	0x3ea32e5f	0.31871316
71	0xbe94cb5d	-0.29061404
72	0x3f72f265	0.94901115
73	0xbdc68e89	-0.09695155
74	0xbe9c86b9	-0.30571535
75	0xbf2db593	-0.67855185
76	0xc027da8f	-2.6227148
77	0xbe558be0	-0.2085414
78	0xbdb2c5f2	-0.08729161
79	0xbfc54553	-1.5411781
80	0x3e7bcd46	0.24590024

head_conv.0.depth_wise_2.bias f4 [9]
0	0x3e3b6a88	0.18302357
1	0xbccd9e91	-0.025100024
2	0xbd12e9ef	-0.035867628
3	0xbd8fe6de	-0.07026456
4	0x3dd17356	0.10227077
5	0xbcec6da5	-0.028860876
6	0x3c493eaa	0.012283007
7	0xbabf8cba	-0.0014614083
8	0x3d043152	0.032273598

head_conv.1.point_wise_1.weight f4 [20, 9, 1, 1]
0	0x3ebea453	0.37234744
1	0xbf47451c	-0.7783983
2	0x3fb1f232	1.3902037
3	0x3e26ff8d	0.16308422
4	0xbead314c	-0.33826673
5	0x3f2812cd	0.6565369
6	0x3e04b84c	0.12960929
7	0x3f5759b8	0.84121275
8	0xbf1cd0e1	-0.61256224
9	0xbde7f18d	-0.11325369
10	0x3ec2dca4	0.3805896
11	0x3e9fe47f	0.31229016
12	0x3fc5579e	1.5417364
13	0x3ed0d090	0.4078412
14	0xbca2eda9	-0.019888716
15	0xbd8fde85	-0.07024864
16	0xbe80796c	-0.25092638
17	0xbe332bff	-0.17497252
18	0xbe47f8d5	-0.19528516
19	0x3f53fc35	0.8280671
20	0xbebda12c	-0.37037027
21	0xbe325756	-0.17416129
22	0x3ede738f	0.4344754
23	0x3d8ac5f7	0.0677604
24	0xc00b985f	-2.181175
25	0xbe9fb079	-0.31189325
26	0xbed95091	-0.4244428
27	0xbe9b7051	-0.30359128
28	0x3fa7bcde	1.3104513
29	0xbebe2ed2	-0.37145096
30	0xbe7dcd05	-0.2478524
31	0x3f85dded	1.0458351
32	0x3dda5e78	0.1066255
33	0x3f8de4bd	1.108543
34	0xbd8ab477	-0.06772702
35	0x3e26a0f4	0.16272336
36	0xbe1c774b	-0.15279882
37	0xbd099752	-0.033591576
38	0x3e73e320	0.2381711
39	0xbe3389d1	-0.17533042
40	0x3edb9cdb	0.4289311
41	0xbc8754c2	-0.016519908
42	0xbcb3b43b	-0.021936527
43	0x3e587118	0.21136892
44	0x3f10bdd0	0.5653963
45	0x3e4af697	0.19820629
46	0xbf1cb768	-0.61217356
47	0xbf1b9878	-0.60779524
48	0x3f4d3ee3	0.8017408
49	0xbf119cbe	-0.56879795
50	0xbd5687b6	-0.052375518
51	0xbef10dd6	-0.47080868
52	0x3fb0ca64	1.3811765
53	0x3dc30cef	0.09523951
54	0xbe7fdb68	-0.2498604
55	0xbfaed361	-1.3658258
56	0x3e03bd83	0.12865262
57	0xbdfb01df	-0.12256216
58	0x3edacf03	0.42736062
59	0xbdc2c4ea	-0.095102146
60	0xbe8974c8	-0.2684691
61	0xbf4b0d31	-0.79317003
62	0xbef2e97c	-0.4744376
63	0x3efac4a0	0.48978138
64	0x3eceaaa6	0.4036457
65	0x3f90314e	1.1265047
66	0xbf38c811	-0.7218028
67	0xbf08079a	-0.531366
68	0xbd121fee	-0.03567498
69	0xbf23dff7	-0.6401362
70	0x3f7fad52	0.9987384
71	0xbdcb0e82	-0.099148765
72	0x3e8656b8	0.26238036
73	0x3d7d7c87	0.061886337
74	0x3f75c70a	0.96006835
75	0x3b0af74c	0.002120453
76	0xbf6bf51d	-0.9217089
77	0xbd9ccb1a	-0.07655926
78	0xbe3f1984	-0.18662077
79	0xbc8ca3ca	-0.017167944
80	0xbdc0e4cf	-0.09418642
81	0xbe3287ec	-0.17434663
82	0x3e05e953	0.13077287
83	0xbed0ee29	-0.40806702
84	0xbe32ac3f	-0.17448519
85	0xbc337b6c	-0.010954719
86	0xbe9613f7	-0.29312107
87	0xbe7fb488	-0.24971211
88	0xbd457020	-0.048202634
89	0xbc7fbe33	-0.015609312
90	0x3d599983	0.053124916
91	0xbd1eb751	-0.038749043
92	0xbebfe8a7	-0.37482187
93	0x3e859b0c	0.26094854
94	0x3e94674b	0.28985056
95	0x3dca8892	0.0988933
96	0x3d9ce9bf	0.07661771
97	0x3d062bfb	0.032756787
98	0xbefe066e	-0.4961428
99	0xbe781ba4	-0.24229294
100	0xbdf57387	-0.11984926
101	0xbea9ce33	-0.3316513
102	0xbd549495	-0.05189951
103	0x3dede7a2	0.11616446
104	0x3c825bb9	0.015912877
105	0xbe554c6d	-0.20829935
106	0xbf1af79c	-0.6053407
107	0xbdaf76c3	-0.08567574
108	0xbd7154cb	-0.058918756
109	0xbef4c903	-0.4780961
110	0x3f0cc68f	0.54990476
111	0xbe9fae39	-0.3118761
112	0x3c1f5976	0.009725919
113	0x3ba4be01	0.005027533
114	0xbeb85c03	-0.360077
115	0xbf1dae8c	-0.6159446
116	0xbef6a4b5	-0.48172536
117	0x3e6d731d	0.23188443
118	0x3f0d8d47	0.552937
119	0x3f7ad5f8	0.9798274
120	0xbef1ed4c	-0.47251356
121	0xbeb133a0	-0.346097
122	0xbd8e9952	-0.06962837
123	0x3e9bd090	0.30432558
124	0x3e9a6341	0.3015385
125	0xbfb2eeef	-1.3979167
126	0x3d2ec806	0.042671226
127	0xbe585621	-0.21126606
128	0xbf375cc1	-0.71625906
129	0xbd8a1795	-0.06742779
130	0xbe2be472	-0.16786364
131	0xbecfa3ef	-0.4055476
132	0xbe9ad376	-0.30239457
133	0x3eacf058	0.33777118
134	0x3c1da298	0.009621285
135	0xbd911aaa	-0.07085164
136	0x3f1d57c0	0.6146202
137	0xbf86761a	-1.0504792
138	0xbbdfa9c1	-0.006825656
139	0x3ddeb076	0.10873501
140	0xbcd36d13	-0.025808847
141	0x3ea752eb	0.3268045
142	0x3e9d8cc3	0.30771455
143	0xc01bdec1	-2.4354708
144	0xbdd420f3	-0.10357847
145	0x40201b05	2.5016491
146	0xbf75c51f	-0.9600391
147	0xbe05f10b	-0.13080232
148	0x3ef8dd55	0.48606363
149	0xbcb6c1ee	-0.02230927
150	0x3f7699ce	0.9632844
151	0x3faa7e2a	1.3319752
152	0x3f0f92b1	0.5608321
153	0xbdc47a42	-0.09593631
154	0x3e492305	0.19642265
155	0xbd5a0516	-0.053227507
156	0xbe9548da	-0.29157144
157	0x3e8a1afd	0.26973715
158	0xbe699d32	-0.22813872
159	0xbd93ca5a	-0.0721633
160	0x3f0259d7	0.50918335
161	0x3eb06886	0.34454745
162	0xbf727348	-0.94707155
163	0xbe25fe20	-0.16210222
164	0xbe1bbbaf	-0.15208314
165	0xbed28c4d	-0.41122666
166	0xbf0c6555	-0.5484212
167	0xbf418a78	-0.7560191
168	0xbe7081fe	-0.23487088
169	0x3f125e4d	0.5717514
170	0x3d14c806	0.03632357
171	0x3ec4a3cc	0.38406217
172	0x3c4a0b35	0.0123317735
173	0x3e23c84f	0.1599438
174	0xbd3df368	-0.04637471
175	0xbe17928e	-0.14802
176	0x3f0c9673	0.5491707
177	0xbdbc51d5	-0.09195296
178	0xbde6dd99	-0.11272735
179	0xbdd08bfe	-0.101829514

head_conv.1.point_wise_1.bias f4 [20]
0	0xbdfd1ed2	-0.12359394
1	0x3ed86bc8	0.4226973
2	0x3e092db0	0.13396335
3	0x3cb961da	0.022629667
4	0xbdc1e383	-0.094672225
5	0x3ddb0767	0.10694771
6	0xbe422bbb	-0.18961994
7	0x3e12e812	0.1434634
8	0x3ed3a0c2	0.41333586
9	0xbd9f385e	-0.07774423
10	0xbdc155f0	-0.094402194
11	0xbde601bb	-0.11230799
12	0x3ecef9a5	0.4042484
13	0x3e4e0e8f	0.20122741
14	0xbe284938	-0.1643418
15	0xbdf6d701	-0.120527275
16	0xbcdc7831	-0.02691278
17	0xbe50b9a3	-0.20383315
18	0xbcc53034	-0.024070837
19	0x3d665220	0.056230664

head_conv.1.depth_wise_1.weight f4 [20, 1, 3, 3]
0	0x3ed19d04	0.40940106
1	0xbeb4ccda	-0.3531254
2	0x3e553e58	0.20824564
3	0xbed76d61	-0.42075637
4	0x3fd2c304	1.6465764
5	0xbf22202e	-0.6333035
6	0xbe1c6e61	-0.15276481
7	0xbe9d3ccb	-0.30710444
8	0x3d8dcada	0.069234565
9	0x3b4dd7a3	0.0031409047
10	0x3eb52e22	0.3538676
11	0x3e9b2807	0.30303976
12	0x3ba31343	0.0049766614
13	0x3f31a5b9	0.693935
14	0xbdf4da68	-0.1195572
15	0xbe8fcd9f	-0.28086564
16	0xbe2d70f4	-0.1693762
17	0x3c650589	0.01397837
18	0x3eee82b2	0.46584088
19	0xbefafeca	-0.49022514
20	0xbe697b42	-0.22800925
21	0x3f6baf14	0.92064023
22	0xbf883963	-1.0642513
23	0xbf39ccdd	-0.7257822
24	0xbf1ea4aa	-0.6197001
25	0x3f3b3b7c	0.7313764
26	0x3f0ed12a	0.5578791
27	0x3ee7c121	0.45264533
28	0xbf694291	-0.911172
29	0xba42e34c	-0.00074343826
30	0xbe57666f	-0.21035169
31	0xbd4b8907	-0.049691226
32	0xbe56b2db	-0.20966665
33	0xbe9a44e2	-0.30130678
34	0x3fa0237a	1.2510827
35	0x3e9524b5	0.29129568
36	0x3efed87a	0.49774534
37	0x3eb5d7bc	0.35516155
38	0xbf717447	-0.9431805
39	0x3f344d08	0.7043004
40	0x3f501a9b	0.81290597
41	0xbf795e82	-0.9740983
42	0xbf8e6e42	-1.1127398
43	0x3e2a728d	0.1664526
44	0x3ef05a86	0.46944064
45	0x3e7e0aa3	0.24808745
46	0xbda1c4e6	-0.078988835
47	0x3e7613c5	0.24030979
48	0xbe491546	-0.19637021
49	0xbda60741	-0.08106852
50	0xbd5ea972	-0.054360814
51	0x3edba0a3	0.42895994
52	0x3eac9f84	0.3371545
53	0x3e860ad7	0.26180145
54	0x3f7c7aa5	0.9862464
55	0xbcdb265d	-0.026751691
56	0xbeb35b00	-0.35030365
57	0xbe1c9c1f	-0.1529393
58	0x3f44d85a	0.76892626
59	0xbf0af223	-0.5427572
60	0x3cef610f	0.029221086
61	0xbda465b7	-0.08027213
62	0xbefb58f3	-0.490913
63	0x3bb2510d	0.005441791
64	0x3e39a90a	0.1813089
65	0x3e0fd803	0.14047246
66	0x3e0e63b9	0.13905229
67	0x3f35e7b0	0.7105665
68	0xbc3eabf9	-0.011637681
69	0xbd9e33cb	-0.077247225
70	0xbe2e9380	-0.17048454
71	0xbd6fc2b7	-0.058535304
72	0xbf621a55	-0.8832143
73	0x3f042530	0.51619244
74	0xbf4bae29	-0.7956262
75	0x3ed6209b	0.4182175
76	0x3faaecf0	1.3353558
77	0x3e13f01d	0.14447065
78	0xbf1817a4	-0.5941107
79	0x3f0437dd	0.5164774
80	0xbf65621c	-0.8960283
81	0xbef64847	-0.48102018
82	0x3e54ac1b	0.20768778
83	0xbea97e2e	-0.3310408
84	0x3dcb2fd9	0.099212356
85	0x3f514685	0.8174823
86	0xbda6e027	-0.081482224
87	0xbe57de95	-0.21081002
88	0x3e975f2f	0.29564807
89	0xbebc13be	-0.36733812
90	0x3d7cb45e	0.06169545
91	0x3ef9584c	0.48700178
92	0xbe0d5bc0	-0.13804531
93	0x3ed6019a	0.41798097
94	0x3ed8a063	0.42309865
95	0xbf1738a0	-0.5907078
96	0xbe5d886f	-0.21634077
97	0xbec8e0e7	-0.39234087
98	0x3cae0d49	0.02124657
99	0x3edb2e0d	0.4280857
100	0x3e8f2645	0.27958885
101	0x3e4a9669	0.1978394
102	0xbf199522	-0.59993184
103	0xbe9951cd	-0.29945222
104	0xbee362b9	-0.44411257
105	0x3edfdfb6	0.43725365
106	0xbe865a5a	-0.26240808
107	0x3e52656b	0.205465
108	0xbe62cf89	-0.22149481
109	0x3e1ee7ff	0.15518187
110	0x3ec42af3	0.38314018
111	0xbe5f00e6	-0.21777686
112	0x3f2aa74b	0.6666152
113	0x3ea7effc	0.3280028
114	0x3ec243aa	0.3794225
115	0xbf679023	-0.9045431
116	0xbda354e7	-0.07975178
117	0xbecebff6	-0.4038083
118	0xbe25ba36	-0.16184315
119	0x3e316260	0.17322683
120	0xbf2a3455	-0.664861
121	0xbf423fd3	-0.7587864
122	0x3f0c30d7	0.54762024
123	0x3e611ac0	0.2198286
124	0x3f0dcf77	0.5539469
125	0x3da8341e	0.082130656
126	0xbf51541d	-0.8176897
127	0x3e07c05e	0.13256976
128	0xbed232da	-0.41054422
129	0x3f154b30	0.5831785
130	0xbe326f36	-0.17425236
131	0x3f938c39	1.1527168
132	0xbe82922f	-0.25502154
133	0x3ef2115b	0.47278866
134	0xbf6ac40e	-0.91705406
135	0x3eaccb4b	0.3374885
136	0x3d081777	0.033225503
137	0xbe651127	-0.22369824
138	0xbe9b8f60	-0.30382824
139	0x3f90dd4b	1.1317533
140	0x3f0ce523	0.55037135
141	0xbdd4276a	-0.1035908
142	0xbf19c3e4	-0.6006453
143	0xbe3ae592	-0.18251637
144	0x3f58f9ce	0.8475617
145	0xbfa157d2	-1.2604926
146	0x3ef245d2	0.47318894
147	0x3e790bcc	0.24320906
148	0x3e27f7e5	0.16403158
149	0xbe4dc684	-0.20095259
150	0xbf801384	-1.0005956
151	0x3fb453fb	1.4088129
152	0xbf4f5d82	-0.81002057
153	0x3e9032b3	0.2816368
154	0xbe35187e	-0.17685124
155	0xbeabfb7b	-0.33590302
156	0x3f6b6afa	0.9196011
157	0x3e8741d6	0.26417416
158	0x3f263f6c	0.64940524
159	0xbd03fa5f	-0.032221194
160	0xbf080488	-0.53131914
161	0xbfa40dcb	-1.2816709
162	0xbed9506e	-0.42444175
163	0xbed40d35	-0.41416326
164	0xbeb130af	-0.34607455
165	0xbebf9f6f	-0.37426326
166	0x3f2f5ee1	0.6850415
167	0xbe9712ce	-0.29506534
168	0xbed7bd1f	-0.42136475
169	0xbe9578d7	-0.29193756
170	0xbf062910	-0.52406406
171	0xbe431384	-0.19050413
172	0xbecc26b6	-0.39873284
173	0xbe204ca6	-0.15654239
174	0xbef0b953	-0.4701639
175	0x3fe62d59	1.7982589
176	0xbe9f1310	-0.3106923
177	0xbdca8e80	-0.09890461
178	0xbedf2f7c	-0.43590915
179	0xbd5dcdf2	-0.054151483

head_conv.1.depth_wise_1.bias f4 [20]
0	0x3ccd395c	0.025051765
1	0xbdfacc5f	-0.12246012
2	0x3ca2628e	0.019822385
3	0xbc2e826f	-0.010651215
4	0x3d040233	0.03222866
5	0xbdf63bc5	-0.12023119
6	0x3c394e37	0.011310152
7	0xbd0464fb	-0.032322865
8	0x3d8ec98b	0.06972035
9	0x3c5f5a6f	0.013632401
10	0x3dfdfd8e	0.12401877
11	0xbdb59342	-0.08865978
12	0xbc8a0632	-0.016848657
13	0x3cd83d99	0.02639656
14	0x3c817066	0.015800666
15	0x3cc0f8b0	0.023556083
16	0xbb866a48	-0.004102025
17	0xbcb35687	-0.021891845
18	0x3dd2b3c9	0.102881975
19	0x3e180a12	0.14847592

head_conv.1.point_wise_2.weight f4 [20, 9, 1, 1]
0	0xbd7858f0	-0.060631692
1	0x3ecca8ea	0.3997262
2	0x3d3d032f	0.046145614
3	0xbe18d425	-0.14924677
4	0xbe6636ad	-0.22481795
5	0xbee0b59a	-0.4388855
6	0xbe9aafb9	-0.3021219
7	0xbe64ee91	-0.22356631
8	0x3f88e54d	1.0694977
9	0x3e202475	0.15638907
10	0xbe91a1ab	-0.28443655
11	0xbe4a71ae	-0.19769928
12	0x3e8ce81a	0.2752083
13	0xbe614a54	-0.2200101
14	0x3e03e744	0.1288119
15	0xbc487dd0	-0.012237027
16	0x3e66a83d	0.22525115
17	0xbd6556be	-0.055990927
18	0x3edc9478	0.43082023
19	0xbe986d87	-0.29771063
20	0x3f0204f8	0.5078883
21	0x3e57b16d	0.21063776
22	0xbef08faa	-0.46984607
23	0xbc3bf6f2	-0.011472451
24	0x3f4b6b9b	0.7946107
25	0x3f74063b	0.95322007
26	0xbeba493a	-0.36383992
27	0x3e5f44e8	0.2180363
28	0x3f58fd6b	0.84761685
29	0x3e84e310	0.25954485
30	0x3dee8b0a	0.11647613
31	0xbea8d630	-0.32975912
32	0xbe190318	-0.14942586
33	0x3dde8ff7	0.10867303
34	0x3fc67666	1.5504882
35	0x3f1ab934	0.6043885
36	0x3e4133ea	0.1886746
37	0xbe81ca0d	-0.25349465
38	0xbf0bba42	-0.5458108
39	0xbecd31c2	-0.40077025
40	0x3dd613d4	0.10453001
41	0x3e51d0b4	0.2048977
42	0x3e86bc14	0.26315367
43	0x3e9738b2	0.29535443
44	0xbecd7123	-0.4012538
45	0xbdf6551d	-0.12027953
46	0x3f59e897	0.8512053
47	0x3f2da8c2	0.6783563
48	0xbe68fcb6	-0.22752652
49	0x3f4dbf77	0.8037028
50	0x3ef1667d	0.47148505
51	0x3ebee2e3	0.37282476
52	0xbf97eafc	-1.1868587
53	0xbef68f99	-0.4815643
54	0x3e70b7f4	0.23507673
55	0xbf984ab6	-1.18978
56	0xbedc5eec	-0.4304117
57	0x3f1cb2b7	0.612102
58	0xbf08a6ba	-0.53379405
59	0x3e81e007	0.25366232
60	0xbdfa071b	-0.122083865
61	0x3e7de137	0.24792944
62	0xbe7cf267	-0.24701844
63	0xbdce6481	-0.10077763
64	0xbe516612	-0.20449093
65	0x3eb50e6e	0.3536257
66	0xbd32504f	-0.04353362
67	0x3e178e2b	0.14800327
68	0xbdc90fc9	-0.09817464
69	0xbd70db45	-0.05880286
70	0xbf20c1b5	-0.62795573
71	0x3eb92c4a	0.36166602
72	0x3ed60df6	0.41807526
73	0xbed09c3b	-0.40744194
74	0x3f8b24e2	1.0870631
75	0x3d7c78e3	0.061638724
76	0xbdd33323	-0.10312488
77	0x3e061695	0.13094552
78	0x3e1d3f85	0.15356262
79	0x3e8f5383	0.27993402
80	0xbe1db320	-0.15400362
81	0xbe844661	-0.25834945
82	0xbe2beb83	-0.1678906
83	0xbdbb8474	-0.09156123
84	0x3d11fc06	0.03564074
85	0x3f6793a7	0.90459675
86	0xbe64db1a	-0.22349206
87	0x3dcff41e	0.101539835
88	0x3e96cc07	0.29452536
89	0x3e2dd5a6	0.16976032
90	0x3f26d60a	0.6517035
91	0x3c987c7b	0.018614044
92	0xbf116223	-0.5679037
93	0x3c1e029a	0.009644175
94	0xbf9f22b4	-1.2432466
95	0x3cb8724e	0.022515442
96	0xbdd8b99b	-0.105822764
97	0xbddce338	-0.10785526
98	0xbb6855ed	-0.0035451606
99	0xbf64545c	-0.8919122
100	0xbdbd0d4d	-0.092310525
101	0xbc6646d4	-0.014054973
102	0x3e83dfb5	0.25756612
103	0x3d301e7d	0.042997826
104	0x3fd234c2	1.642235
105	0x3e96fdaf	0.2949042
106	0x3e821804	0.25408947
107	0x3d220cbc	0.039562926
108	0xbca7bd83	-0.020476108
109	0xc00700ae	-2.1094165
110	0xbdebc26a	-0.11511691
111	0x3e6302d1	0.22169043
112	0xbd488312	-0.048953123
113	0xbc6a6dad	-0.014308375
114	0xbf1fdd26	-0.6244682
115	0xbe78255e	-0.24233004
116	0xbf21d8ad	-0.63221246
117	0x3d6990bc	0.057022795
118	0xbd8149b0	-0.06312883
119	0x3fb5be36	1.4198673
120	0xbe80ec33	-0.25180206
121	0x3eeb835f	0.45998666
122	0xbe0f3cf5	-0.13988097
123	0xbdd22d3d	-0.10262535
124	0x3f2fe452	0.68707764
125	0xbcb403e3	-0.02197451
126	0x3e814970	0.2525134
127	0x3e0be783	0.13662533
128	0xbe88aacf	-0.26692817
129	0x3fc5bd13	1.5448326
130	0xbf1b1046	-0.60571706
131	0xbd62c3bc	-0.055362448
132	0xbe5615f2	-0.20906809
133	0x3e59ac70	0.21257186
134	0xbe95e0b8	-0.2927301
135	0xbe8cbaf0	-0.27486372
136	0x3e4e4f44	0.20147425
137	0x3dc13139	0.094332166
138	0xbdbc34e7	-0.09189778
139	0x3e6b308f	0.22967742
140	0xbe980170	-0.29688597
141	0xbe611b85	-0.21983154
142	0xbd8459f2	-0.06462468
143	0x3e3df9ca	0.18552318
144	0xbecbeee6	-0.39830703
145	0xc0247f5d	-2.5702736
146	0x3efad657	0.48991653
147	0x3e476cfc	0.19475168
148	0x3f19fd22	0.60151875
149	0xbd3d37df	-0.04619586
150	0xbf0e878f	-0.55675596
151	0xc00e758d	-2.2259247
152	0xbeabe81e	-0.3357553
153	0xbe3f31aa	-0.18671289
154	0x3e91578c	0.28387105
155	0xbf111d1d	-0.5668505
156	0x3d24a8cf	0.04020005
157	0x3e247274	0.16059285
158	0xbde99288	-0.11404902
159	0x3f336077	0.7006907
160	0x3c1abbb4	0.009444166
161	0xbf97e7e8	-1.1867647
162	0x3beeb686	0.007284942
163	0xbedfc04b	-0.43701395
164	0x3f004173	0.5009987
165	0xbebda948	-0.37043214
166	0xbf0204b3	-0.5078842
167	0xbf629d51	-0.88521296
168	0x3d3185d8	0.043340534
169	0x3eaa2c31	0.3323684
170	0xbe84be49	-0.25926426
171	0xbf171e63	-0.5903074
172	0xbd010d8c	-0.03150706
173	0x3cce66ae	0.025195446
174	0xbd42de10	-0.047575057
175	0xbf2d85aa	-0.6778208
176	0x3e861b47	0.26192686
177	0xbd7ff300	-0.062487602
178	0x3ce2369b	0.027613929
179	0x3d149d74	0.03628297

head_conv.1.point_wise_2.bias f4 [20]
0	0xbd442f97	-0.047896948
1	0xbce193a7	-0.027536226
2	0x3df6a060	0.12042308
3	0xbdcb7f2d	-0.09936366
4	0xbe0e062e	-0.13869545
5	0x3de81711	0.113325246
6	0xbd517da1	-0.0511452
7	0xbcbafcf8	-0.022825703
8	0xbd42d4b3	-0.047566127
9	0xbedb372e	-0.42815536
10	0x3ecf4552	0.40482575
11	0x3df74f40	0.120756626
12	0xbe942150	-0.28931665
13	0xbe81a168	-0.25318456
14	0x3e7df18b	0.24799173
15	0xbdeedc89	-0.116631575
16	0xbe1f23f6	-0.15541062
17	0xbc1087e2	-0.0088214595
18	0x3df03536	0.11728899
19	0x3def8dff	0.116970055

head_conv.1.depth_wise_2.weight f4 [20, 1, 3, 3]
0	0x3f28ac18	0.65887594
1	0xbdfa518f	-0.12222587
2	0x3e80503d	0.25061217
3	0x3ed71ad3	0.42012653
4	0xbf0a6346	-0.5405773
5	0xbe8b5196	-0.27210683
6	0xbeaeb74a	-0.34124213
7	0xbe509005	-0.20367439
8	0x3da6a3a2	0.08136679
9	0x3ed99c2c	0.42501962
10	0xbf137c98	-0.5761199
11	0x3d8a84c1	0.06763602
12	0x3ef889ed	0.4854273
13	0xbeac9aff	-0.33712003
14	0x3ecf974f	0.40545127
15	0xbe1b4f91	-0.15167071
16	0xbedfdd65	-0.43723598
17	0x3dfd62ed	0.12372384
18	0x3ea7fab1	0.3280845
19	0x3d0bb6e0	0.03410995
20	0xbd820ce8	-0.06350118
21	0xbd33391a	-0.04375563
22	0x3def5216	0.116855785
23	0xbe1cf5a1	-0.15328075
24	0xbc35cf9b	-0.01109686
25	0xbc87f399	-0.016595649
26	0x3e7ead6c	0.24870843
27	0x3f8514cb	1.039697
28	0xbf610dee	-0.8791188
29	0xbe76d228	-0.24103606
30	0x3f13736b	0.5759799
31	0xbeb2c4a5	-0.34915653
32	0xbe714808	-0.23562634
33	0xbf6ef2a4	-0.9333899
34	0x3f3fa982	0.74868023
35	0xbd4cac9b	-0.049969297
36	0x3ee2d10f	0.44300124
37	0xbf171471	-0.59015566
38	0xbef90f3e	-0.4864444
39	0xbb204d09	-0.002445998
40	0xbd5c49cf	-0.053781327
41	0xbe981c80	-0.29709244
42	0x3ec0e976	0.37678117
43	0x3f18ef25	0.59739906
44	0x3e7eb99d	0.24875493
45	0x3ee09b38	0.43868423
46	0xbe881f20	-0.26586246
47	0x3e2d83ef	0.1694486
48	0xbe049235	-0.12946399
49	0xbf51e11d	-0.8198412
50	0xbe91ed11	-0.2850118
51	0x3ec0d9d7	0.376662
52	0x3e106851	0.14102294
53	0x3e913bad	0.28365842
54	0xbdf1ed54	-0.11812845
55	0xbee38e4b	-0.44444498
56	0xbe8afef1	-0.2714763
57	0x3f47ee60	0.78098106
58	0x3e71ba24	0.23606163
59	0x3f740c5e	0.9533137
60	0x3df421a6	0.119204804
61	0xbf11da74	-0.5697396
62	0xbf19d4ba	-0.6009022
63	0xbdc22812	-0.09480299
64	0xbe51240e	-0.2042391
65	0xbe4d554c	-0.2005207
66	0x3c29c006	0.010360723
67	0x3eb5880e	0.35455364
68	0x3eee367d	0.46525946
69	0xbe89cf82	-0.26916128
70	0x3edd639b	0.43240055
71	0xbf142636	-0.57870805
72	0xbe7d1ccd	-0.24718018
73	0x3f0df95b	0.5545861
74	0x3d12695b	0.035745006
75	0x3f4d25b5	0.8013566
76	0xbfb65b96	-1.42467
77	0x3f1d85c3	0.6153223
78	0xbed42d76	-0.41440934
79	0x3f39cc41	0.7257729
80	0xbc95b4e4	-0.018274732
81	0xbf14ba3d	-0.5809668
82	0x3f5dcc85	0.866402
83	0x3f074f5e	0.5285548
84	0xbf87a84c	-1.0598235
85	0x3f8751fb	1.0571893
86	0x3e2176b7	0.15767942
87	0xbe8ceb66	-0.27523345
88	0xbf0cb4cb	-0.5496337
89	0xbd9a51b2	-0.075351134
90	0x3e659282	0.2241917
91	0xbdadf746	-0.08494429
92	0x3e96daa6	0.2946369
93	0xbde34b83	-0.11098387
94	0xbfd5d16a	-1.6704533
95	0xbcb66835	-0.022266487
96	0x3eb5e8ef	0.35529277
97	0x3e0c8fac	0.13726681
98	0x3e285f95	0.16442712
99	0x3f58a73e	0.8463019
100	0xbee856a1	-0.45378593
101	0x3f50b2f4	0.8152306
102	0xbef18595	-0.47172228
103	0xbe1cb7ce	-0.15304491
104	0xbed4b626	-0.41545218
105	0x3f4f7de3	0.8105146
106	0xbee832ec	-0.4535135
107	0x3f50aa85	0.8151019
108	0xbf20006b	-0.6250064
109	0x3f1f84b5	0.6231187
110	0x3ede2fb2	0.43395764
111	0xbe2b40d2	-0.16723946
112	0xbe4dd824	-0.20101982
113	0xbf07d5fb	-0.53060883
114	0xbde4036b	-0.111334644
115	0x3f1937d9	0.5985084
116	0x3f1e0d0f	0.61738676
117	0x3f6381a0	0.8886967
118	0x3e1392ee	0.14411518
119	0x3e288a45	0.16458996
120	0x3f5e14b2	0.8675033
121	0xbf74cb62	-0.9562284
122	0xbf12a53b	-0.5728337
123	0xbed81833	-0.42205963
124	0x3d216525	0.0394031
125	0xbe5e254b	-0.21693914
126	0x3e6f44dc	0.23366112
127	0x3f41e37b	0.7573773
128	0xbf464426	-0.77447736
129	0x3efbd858	0.49188495
130	0x3fc50559	1.5392257
131	0xbf8d4470	-1.103651
132	0xbf3bdea9	-0.7338663
133	0xbfac81aa	-1.347707
134	0x3f4ce6d7	0.80039734
135	0xbf159ccb	-0.5844237
136	0x3d54c9fc	0.05195044
137	0xbdfa3bde	-0.1221845
138	0x3c957097	0.018242164
139	0x3f3c0ddd	0.73458654
140	0x3e57bfef	0.2106931
141	0xbe734f66	-0.23760757
142	0x3d032c1b	0.032024484
143	0xbeaa8f90	-0.33312654
144	0xbf7a1673	-0.97690505
145	0x3fb54f78	1.4164877
146	0x3ece738f	0.4032254
147	0x3f11bc58	0.56928015
148	0xbe14fd3e	-0.14549729
149	0xbe97b433	-0.2962967
150	0x3ef5530a	0.47914916
151	0xbfa4bc15	-1.2869898
152	0xbeb7b9a8	-0.35883832
153	0x3ee54059	0.44775656
154	0x3de4b3de	0.111671194
155	0xbdb0611f	-0.086122744
156	0x3f32dcd0	0.69868183
157	0x3e0810ba	0.1328763
158	0xbf961055	-1.1723734
159	0x3eac5256	0.33656567
160	0xbe612bc7	-0.21989356
161	0xbd6c109e	-0.057633035
162	0x3dceed2e	0.10103832
163	0x3dc204fe	0.094736084
164	0x3ea8513b	0.32874474
165	0xbdc4fcdb	-0.09618541
166	0xbfb8d00e	-1.4438493
167	0x3e337dec	0.17528504
168	0x3ecce830	0.40020895
169	0xbd9f6730	-0.07783353
170	0x3ed9ffe6	0.42578048
171	0x3d5cdc0e	0.053920798
172	0xbcb01e50	-0.02149883
173	0x3e0f8312	0.14014843
174	0x3e234343	0.15943627
175	0xc018e5a1	-2.3890154
176	0xbddd9132	-0.108187094
177	0x3d5b1aa1	0.053492192
178	0x3d8926c5	0.06696848
179	0x3dc61a46	0.0967298

head_conv.1.depth_wise_2.bias f4 [20]
0	0x3ccd395c	0.025051765
1	0xbdfacc5f	-0.12246012
2	0x3ca2628e	0.019822385
3	0xbc2e826f	-0.010651215
4	0x3d040233	0.03222866
5	0xbdf63bc5	-0.12023119
6	0x3c394e37	0.011310152
7	0xbd0464fb	-0.032322865
8	0x3d8ec98b	0.06972035
9	0x3c5f5a6f	0.013632401
10	0x3dfdfd8e	0.12401877
11	0xbdb59342	-0.08865978
12	0xbc8a0632	-0.016848657
13	0x3cd83d99	0.02639656
14	0x3c817066	0.015800666
15	0x3cc0f8b0	0.023556083
16	0xbb866a48	-0.004102025
17	0xbcb35687	-0.021891845
18	0x3dd2b3c9	0.102881975
19	0x3e180a12	0.14847592

head_conv.2.point_wise_1.weight f4 [32, 20, 1, 1]
0	0x3f4de73a	0.8043095
1	0x3e1062c0	0.1410017
2	0xbe52422d	-0.20533057
3	0xbf6e7188	-0.93141985
4	0xbf1f2f4e	-0.62181556
5	0xbf3a9da8	-0.72896814
6	0xbedd5edc	-0.43236434
7	0xbe525089	-0.20538534
8	0x3d0dd723	0.034629
9	0xbf964262	-1.1739008
10	0xbcc05b28	-0.023480967
11	0x40086d8d	2.1316864
12	0x3f097c0a	0.53704894
13	0x3fe7a02d	1.8095757
14	0xbf02786f	-0.5096502
15	0xbf9aeb08	-1.2102976
16	0x3f3bd8e5	0.7337783
17	0xbfbdd9d2	-1.4832098
18	0x3ea219e3	0.31660375
19	0xbeb499cf	-0.35273597
20	0x3f06de35	0.5268281
21	0x3f9f0dac	1.2426047
22	0x3b04cfeb	0.002026553
23	0x3e540acb	0.20707242
24	0xbf1729da	-0.59048235
25	0x3f4af9b8	0.7928729
26	0xbd59b8f3	-0.053154897
27	0xbcfeb6ae	-0.031092968
28	0xbe8deeed	-0.27721348
29	0xbdc270cd	-0.09494171
30	0xbeebc5b3	-0.4604927
31	0x3d89272d	0.06696925
32	0xbe51f046	-0.20501813
33	0xbbbe47ed	-0.005806914
34	0xbf669834	-0.90075994
35	0x3dbe99db	0.09306689
36	0xbd859024	-0.06521633
37	0x3e489fd6	0.19592223
38	0x3f03aed8	0.51438665
39	0x3dc4dd42	0.09612514
40	0x3c51925f	0.012791245
41	0xc049ad7a	-3.1512132
42	0x3f4ba990	0.79555607
43	0x3e835edb	0.25658306
44	0xbdaafb86	-0.083487555
45	0x3f494d4f	0.7863359
46	0x3eaf9f20	0.3430109
47	0xbf1056f4	-0.5638268
48	0xbea303b1	-0.31838754
49	0x3c95154f	0.018198637
50	0xbf0326de	-0.5123118
51	0x3e198eaf	0.14995836
52	0x3e25a51a	0.16176262
53	0xbe346120	-0.17615175
54	0xbf133691	-0.57505137
55	0x3e8ddedc	0.2770909
56	0xbded29dd	-0.115802504
57	0x3e9e7e74	0.3095585
58	0x3f3a79da	0.7284218
59	0xbda7f633	-0.08201256
60	0xbe454980	-0.1926632
61	0x3ea3b5eb	0.3197473
62	0x3fa13722	1.259495
63	0x3d14367e	0.03618478
64	0x3e09572e	0.13412163
65	0x3e88d32b	0.26723608
66	0xbd36b270	-0.044603765
67	0xbf3c3cc6	-0.7353023
68	0x3c94763c	0.018122785
69	0x3e939c10	0.28830004
70	0x3eb93e10	0.36180162
71	0xbdb7a9b9	-0.08967919
72	0xbdf1d96c	-0.11809048
73	0x3e0a80d7	0.13525711
74	0x3eb69832	0.3566299
75	0xbe323fcb	-0.17407148
76	0xbd2ae3a3	-0.041720998
77	0xbcd3692a	-0.025806982
78	0xbf119834	-0.5687287
79	0x3eec0eeb	0.46105132
80	0xbf1225fa	-0.570892
81	0x3dfdd3f0	0.123939395
82	0x3dfc3c1d	0.12316153
83	0xbd937c17	-0.07201403
84	0x3d28e277	0.0412316
85	0xbe841bc5	-0.25802436
86	0x3e30b8ae	0.1725795
87	0x3a98b2cd	0.0011649966
88	0xbe300062	-0.17187646
89	0x3ea26ba1	0.3172274
90	0xbf188cb9	-0.59589726
91	0x3f816ef1	1.0111982
92	0x3e044631	0.12917401
93	0x3de3ff02	0.11132623
94	0x3e78b1ef	0.24286626
95	0x3eab5e52	0.33470398
96	0x3dc52b83	0.0962744
97	0x3f8eb20b	1.1148084
98	0x3e639fdb	0.22228949
99	0xbeb16873	-0.3465
100	0x3de35120	0.11099458
101	0xbe3b6f6a	-0.1830422
102	0x3e24575b	0.16048948
103	0xbda1a4b3	-0.07892742
104	0xbe55f9cc	-0.20896071
105	0x3e99ad63	0.30015096
106	0xbf8b1b24	-1.0867658
107	0xbf25b6cb	-0.64732045
108	0x3d6295ac	0.05531852
109	0x3f1f77a4	0.6229193
110	0xbe4ff1a5	-0.20307024
111	0x3e251479	0.16121091
112	0xbe822783	-0.2542077
113	0xbfa29241	-1.2700883
114	0x3e6bae1b	0.23015635
115	0x3fc5d8e7	1.5456818
116	0xbf45a2b6	-0.772014
117	0xbf868233	-1.0508484
118	0xbe3379fc	-0.17527002
119	0x3d4c7d77	0.04992434
120	0xbe892605	-0.2678682
121	0x3e840518	0.25785136
122	0xbd7945a3	-0.060857426
123	0x3f3d1d73	0.7387306
124	0x3d8ffc16	0.070305035
125	0xbb09dbba	-0.0021035508
126	0x3e185c6a	0.14879003
127	0x3e12b581	0.14327051
128	0x3e1a81a5	0.15088518
129	0x3e038835	0.12844928
130	0x3d6e5301	0.058184627
131	0xbd631514	-0.055440024
132	0xbd907e69	-0.07055361
133	0x3e448505	0.19191368
134	0xbe34ccea	-0.17656294
135	0x3e1f7ebb	0.15575688
136	0xbeb49617	-0.3527076
137	0x3e060259	0.13086833
138	0xbe81f2ef	-0.25380656
139	0xbd9d8258	-0.07690877
140	0x3e063c98	0.13109052
141	0xbeed25c1	-0.46317866
142	0xbe2c23f0	-0.16810584
143	0x3d9a75eb	0.07542022
144	0xbdac8a71	-0.08424843
145	0xbdfd0a95	-0.12355534
146	0xbdd19579	-0.10233588
147	0xbe427495	-0.18989785
148	0x3e9b27b8	0.3030374
149	0xbe258bc7	-0.16166602
150	0x3d1bbaa1	0.03801978
151	0x3cc095cd	0.02350893
152	0xbead7aa5	-0.33882633
153	0xbed130be	-0.408575
154	0x3e0f61e8	0.14002192
155	0xbda0af6c	-0.07845959
156	0xbdd12d28	-0.10213691
157	0xbe2fdc30	-0.17173839
158	0x3e875011	0.26428273
159	0x3cab9830	0.020946592
160	0x3c83234f	0.016008047
161	0x3c600984	0.013674144
162	0xbc88cc9f	-0.016699133
163	0x3df9f5e8	0.12205106
164	0x3d392135	0.045197684
165	0x3e8fb6ed	0.2806925
166	0x3e442423	0.1915441
167	0xbdc558c1	-0.09636069
168	0x3f0a2032	0.53955376
169	0x3d960dd0	0.07326853
170	0x3f2f914b	0.68581074
171	0xbe5054ec	-0.20344895
172	0x3e4c6684	0.19960982
173	0x3cbc7ddf	0.023009239
174	0x3e75ee0a	0.24016586
175	0xbd35efe8	-0.044418246
176	0xbd51ae8b	-0.051191848
177	0xbd91ee9e	-0.07125591
178	0xbda0486b	-0.07826313
179	0x3e13b351	0.14423873
180	0x3f37985a	0.71716845
181	0xbed25e1f	-0.41087434
182	0xbe1efcb0	-0.1552608
183	0xbeb717f4	-0.35760462
184	0xbed55b6d	-0.41671315
185	0xbf89494e	-1.0725496
186	0x3c9f4404	0.019441612
187	0xbe9c8900	-0.30573273
188	0x3f37c5a9	0.7178598
189	0x3ed76dbc	0.42075908
190	0xbd596a37	-0.05307981
191	0xc03b722b	-2.9288433
192	0xbe21dd4e	-0.15807077
193	0x3f9a02cc	1.2032104
194	0xbf48b56f	-0.78401846
195	0x3ecb2611	0.3967748
196	0xbedbacd4	-0.42905295
197	0x3ead1106	0.3380205
198	0x3e974053	0.29541263
199	0x3f1094bc	0.5647695
200	0x3f312736	0.69200456
201	0x3e93835b	0.28811154
202	0xbe326dd3	-0.17424707
203	0xbed42911	-0.4143758
204	0xbfb30de2	-1.3988612
205	0x3ee6630d	0.44997445
206	0x3db49469	0.088173695
207	0xbf0d2448	-0.55133486
208	0x3e8f0279	0.27931574
209	0xbf126368	-0.5718293
210	0x3c1eb207	0.009686
211	0x3f43b650	0.7645006
212	0x3e4270d1	0.18988349
213	0x3e6aaa1f	0.22916459
214	0x3eda3464	0.42618096
215	0x3d644e4e	0.05573874
216	0x4005bc76	2.0896277
217	0xbc44aea3	-0.012004527
218	0x3f116db8	0.5680804
219	0xbe88c6f0	-0.26714277
220	0xbf56a833	-0.838504
221	0x3ef2748f	0.47354552
222	0x3e8ef0f9	0.27918223
223	0x3f316551	0.6929522
224	0xbebfc777	-0.37456867
225	0xbf444cd3	-0.76679724
226	0xbf98effa	-1.1948235
227	0x3eb0633e	0.34450716
228	0xbefe8418	-0.49710155
229	0xbca5ad3b	-0.020224204
230	0xbd1d26a2	-0.03836692
231	0xbd75bcd9	-0.059994552
232	0xbdbf934a	-0.09354265
233	0x3f123c4d	0.5712326
234	0xbe5a5f62	-0.21325448
235	0xbe475b87	-0.19468509
236	0xbe992325	-0.29909626
237	0x3c23e7b0	0.010003969
238	0x3dbcc04d	0.09216366
239	0xbd7f57c9	-0.062339578
240	0xbf3f7db9	-0.7480121
241	0x3f008ff4	0.50219655
242	0x3eaaed8b	0.33384356
243	0x3ef74882	0.48297507
244	0x3e2c2b1b	0.16813318
245	0x3eef4ae2	0.4673682
246	0xbcb2db5c	-0.021833114
247	0xbfffc76b	-1.9982733
248	0x3dcb53f4	0.09928122
249	0xbe576019	-0.21032752
250	0x3fcedd65	1.6161314
251	0xbebc3bfe	-0.3676452
252	0x3c9c5b81	0.019086601
253	0x3e393e3d	0.18090148
254	0x3f0d40ad	0.5517681
255	0xbd4834e3	-0.04887856

head_conv.2.point_wise_1.bias f4 [32]
0	0x3dccf4cd	0.100076295
1	0x3e00ee7f	0.12590979
2	0xbfab8a1f	-1.3401526
3	0x3d1b6376	0.03793665
4	0x3e373c63	0.1789413
5	0x3e8379ee	0.25678962
6	0xbdfa8141	-0.122316845
7	0x3e460476	0.19337639
8	0xbdf90cd1	-0.12160648
9	0x3efd0057	0.49414322
10	0x3e4aa7f3	0.1979063
11	0xbcd815b3	-0.026377534
12	0x3f96be5c	1.1776843
13	0xbf55b17c	-0.83473945
14	0xbe6422b6	-0.22278866
15	0x3dd514d3	0.104043625
16	0x3ec2cf88	0.3804896
17	0xbf2daf7b	-0.67845887
18	0x3f8f0301	1.1172792
19	0x3ed1f368	0.41006017
20	0x3f36947f	0.7132034
21	0xbe37a4c9	-0.17933954
22	0x3f4fb350	0.81132984
23	0xbe86254e	-0.26200336
24	0x3be55853	0.0069990545
25	0xbe8ecee1	-0.2789221
26	0xbde2af1f	-0.11068558
27	0xbe85aa47	-0.26106474
28	0xbcb3ebb1	-0.021962972
29	0x3e66a41f	0.22523545
30	0xc0718562	-3.773766
31	0x3ccc3bc4	0.024930842

head_conv.2.depth_wise_1.weight f4 [32, 1, 3, 3]
0	0x3ec2c889	0.3804362
1	0x3e1ff62e	0.15621254
2	0x3cfa54fe	0.030558106
3	0xbf1e6ff1	-0.6188956
4	0x3dd27661	0.10276485
5	0xbdaeaaaa	-0.08528645
6	0x3d89efd3	0.06735196
7	0xbed7468b	-0.42046008
8	0xbe8417b2	-0.25799328
9	0x3ec976a0	0.39348316
10	0x3e537efa	0.20653906
11	0x3dc10e2a	0.0942653
12	0x3de0bac9	0.109731264
13	0xbf2ca6cc	-0.6744201
14	0xbea6b92e	-0.32563156
15	0x3ee03966	0.43793792
16	0x3e9d6417	0.30740425
17	0xbadf5f21	-0.00170419
18	0xbe77722d	-0.24164648
19	0xbe3e98bc	-0.18612951
20	0xbe8ef93c	-0.27924526
21	0x3d2d7684	0.042349353
22	0x3fb4ed4b	1.4134916
23	0xbe1863e9	-0.14881863
24	0x3e1d20d9	0.15344562
25	0x3e5e59ce	0.21713945
26	0xbd4efef7	-0.050536122
27	0x3e7523b8	0.23939407
28	0x3e89d682	0.2692147
29	0xbd23128a	-0.039812602
30	0xbec37e89	-0.38182476
31	0xbf8f64a0	-1.1202583
32	0x3e90e73c	0.28301418
33	0xbdc7ff05	-0.09765438
34	0xbe08806b	-0.13330238
35	0x3db6f6c0	0.089337826
36	0x3e4c257b	0.19936173
37	0x3d03132f	0.032000717
38	0x3f0ab53c	0.5418279
39	0xbd31e5d0	-0.043432057
40	0xbc91f9eb	-0.017819365
41	0x3bb8e481	0.005642474
42	0x3e8a112e	0.26966232
43	0x3e157890	0.14596772
44	0x3e9dd1b3	0.3082405
45	0x3e5c60f3	0.21521358
46	0x3d716f5d	0.058944095
47	0xbd311261	-0.043230418
48	0x3d1be0fa	0.03805635
49	0xbe118055	-0.14209111
50	0xbeadc645	-0.3394033
51	0xbf3ad266	-0.7297729
52	0xbdadd5f2	-0.084880725
53	0x3f061270	0.52371883
54	0xbeb636df	-0.35588738
55	0xbdeb1de2	-0.11480309
56	0x3db77bd9	0.08959169
57	0xbd95858c	-0.07300863
58	0x3ee91235	0.45521703
59	0xbe2975c3	-0.16548829
60	0xbd19f639	-0.03758833
61	0xbdf4d02b	-0.119537674
62	0x3e8ba2cf	0.2727265
63	0xbd8db48f	-0.069192044
64	0xbee70ea4	-0.45128357
65	0x3dab22af	0.08356225
66	0xbe684b82	-0.22685054
67	0x3e9ae916	0.30255955
68	0x3d96caac	0.07362875
69	0x3c937e99	0.018004702
70	0x3ed06e08	0.40708947
71	0xbd845c1c	-0.06462881
72	0xbde85cd2	-0.11345829
73	0xbea68f01	-0.32530978
74	0xbdf204d5	-0.11817328
75	0xbea6ee00	-0.32603455
76	0x3f909252	1.1294653
77	0xbe9f9614	-0.31169188
78	0xbe6c5c57	-0.230821
79	0xbe17cfd7	-0.14825378
80	0xbe4a4bec	-0.19755524
81	0xbf80f172	-1.0073683
82	0x3f2b21aa	0.6684824
83	0x3f01dc8a	0.5072714
84	0xbf72309b	-0.94605416
85	0xbe74b1a7	-0.23895894
86	0x3f6d1ec7	0.9262509
87	0x3e80e288	0.2517283
88	0xbe9c74e3	-0.30557927
89	0xbe1449f2	-0.14481333
90	0xbea5a40e	-0.32351726
91	0xbf2831b0	-0.6570082
92	0xbf30f9c9	-0.6913114
93	0xbddc4051	-0.10754455
94	0xbee74902	-0.45172888
95	0xbeb1e9a3	-0.34748563
96	0x3ed457e6	0.4147331
97	0x3f7e5704	0.99351525
98	0x3f401296	0.7502836
99	0x3ee87f1e	0.45409483
100	0xbcb770a9	-0.022392588
101	0xbd8d686f	-0.06904685
102	0xbcbe7de3	-0.023253387
103	0xbea3c22c	-0.3198408
104	0xbde6b579	-0.11265082
105	0x3f00fd27	0.5038628
106	0xbe2a9f94	-0.16662437
107	0xbedfc1bf	-0.43702504
108	0x3fa74adc	1.306972
109	0xbf6912fd	-0.910446
110	0x3db3e98c	0.0878478
111	0xbf3a4770	-0.72765255
112	0xbed7b8ba	-0.42133123
113	0xbf361785	-0.7112964
114	0x3f490907	0.785294
115	0xbeffcc6b	-0.49960646
116	0x3f8c9f4c	1.0986114
117	0x3eb81cca	0.35959464
118	0x3e83169f	0.25603196
119	0x3db0ff21	0.08642412
120	0x3ee0d5ec	0.4391321
121	0x3f3d123f	0.73855966
122	0xbd773fa7	-0.060363438
123	0xbdaebeb9	-0.08532471
124	0xbdc8bbdb	-0.098014556
125	0xbd0b1931	-0.03395957
126	0x3d6d120c	0.05787854
127	0xbd98775b	-0.0744464
128	0xbe048bab	-0.12943904
129	0x3df8a8a1	0.121415384
130	0x3d014c1a	0.031566717
131	0x3d92e3a5	0.07172326
132	0xbcf6af5d	-0.030112917
133	0x3d6b5846	0.05745723
134	0x3c8031c1	0.015648725
135	0xbe7b3c0c	-0.24534625
136	0xbdceb66a	-0.100933865
137	0xbcec958d	-0.028879905
138	0xbaf4351b	-0.0018631549
139	0x3f832d57	1.0248212
140	0xbe2cab10	-0.1686213
141	0xbe9a5a1b	-0.3014687
142	0xbd1ea5d8	-0.03873238
143	0xbe0d284d	-0.13784905
144	0x3e52521a	0.20539132
145	0x3d289222	0.041154988
146	0x3e148b25	0.14506204
147	0xbd8e9228	-0.06961471
148	0x3f59d6f1	0.850936
149	0xbbb2a3e8	-0.005451668
150	0x3d9599e1	0.07304741
151	0x3a1b326a	0.0005920293
152	0x3e4e249c	0.20131153
153	0xbe05e051	-0.13073851
154	0xbeaedf00	-0.3415451
155	0x3d16ae92	0.036787577
156	0xbceaf3b7	-0.028680665
157	0x40085d56	2.1306968
158	0xbe8925a4	-0.2678653
159	0xbd573496	-0.052540384
160	0xbe7f3899	-0.24923934
161	0x3d6b7642	0.057485826
162	0xc0c869ba	-6.262906
163	0x3d9a3986	0.07530503
164	0x3ed4a435	0.4153153
165	0xc0b4b631	-5.64724
166	0x3ecda05a	0.401614
167	0x3e565aca	0.20933071
168	0xc077237a	-3.8615403
169	0xbdbbb723	-0.0916579
170	0x3ef79197	0.48353264
171	0xbd9b36be	-0.075788006
172	0xbdd5a9f7	-0.10432809
173	0xbe8bb83a	-0.2728899
174	0x3ecdf8a1	0.4022875
175	0xbeec323a	-0.4613207
176	0x3e94c0b6	0.29053277
177	0xbec7cbba	-0.3902262
178	0x3ddbd31d	0.10733626
179	0xc0c391c0	-6.1115417
180	0x3f30fff3	0.6914055
181	0x3e99514d	0.2994484
182	0xbe251ea8	-0.16124976
183	0xbefeac62	-0.49740893
184	0xbe7942ff	-0.24341963
185	0x3e91d0f5	0.28479734
186	0xbe28daf9	-0.16489781
187	0xbda95ee4	-0.08270052
188	0xbeafa138	-0.34302688
189	0xbf1c3ecf	-0.6103334
190	0xbe5de642	-0.21669868
191	0xbe06b513	-0.13155012
192	0xbd207cd0	-0.03918153
193	0x3e43f055	0.19134648
194	0xbdcba495	-0.09943501
195	0xbea7a98d	-0.32746544
196	0x3c77953f	0.015111267
197	0xbcc86eb6	-0.024466854
198	0xbde74978	-0.1129331
199	0x3e56e9a3	0.20987563
200	0xbdee65bd	-0.11640499
201	0x3ea1d192	0.31605202
202	0xbf9dbd00	-1.2323303
203	0x3d2c1fd7	0.042022552
204	0xbd8d8fa2	-0.069121614
205	0x3df07331	0.11740721
206	0xbc9a230f	-0.018815545
207	0x3da7afb2	0.08187808
208	0xbcff777b	-0.031184902
209	0x3df14297	0.11780279
210	0x3d831efe	0.06402396
211	0x3e4439a8	0.19162619
212	0xbd5caf9c	-0.05387841
213	0x3d767baf	0.060176548
214	0x3c65d631	0.014028118
215	0xbd7edd60	-0.06222284
216	0x3cc8a312	0.02449182
217	0xbc85d229	-0.016335564
218	0xbeae4f69	-0.3404496
219	0x3e057d9e	0.130362
220	0xbe5737ac	-0.21017331
221	0xbc7d5a04	-0.015463356
222	0x3dcff855	0.101547875
223	0xbd24c6a3	-0.040228497
224	0xbe156389	-0.14588751
225	0x3de226e2	0.110425726
226	0x3cd0df8d	0.025497222
227	0x3de781bd	0.113040425
228	0x3d164968	0.0366911
229	0x3cf2395c	0.029568367
230	0xbd84bd38	-0.06481403
231	0xbca1c4fd	-0.019747252
232	0xbd1d3a96	-0.03838595
233	0x3d00a99f	0.031411763
234	0xbcda91e1	-0.026680889
235	0x3eb0018f	0.3437619
236	0x3d69253b	0.05692027
237	0xbd6d343a	-0.057911135
238	0xbe6aa7b7	-0.2291554
239	0xbe6c93fc	-0.23103327
240	0x3ed3d62d	0.4137434
241	0xbde0fe2d	-0.1098598
242	0x3e77c0a6	0.24194583
243	0xbf98c3ff	-1.1934813
244	0xbf9369cd	-1.1516663
245	0x3f2a88f1	0.66615206
246	0x3f4a85bf	0.7911033
247	0xbe89202d	-0.2678236
248	0x3e325825	0.17416437
249	0x3edab0ce	0.42713016
250	0x3f314d63	0.6925871
251	0x3eadc113	0.33936366
252	0x3e258e60	0.16167593
253	0xbd9d7858	-0.076889694
254	0x3e5b9652	0.21444061
255	0xbe0f927c	-0.14020723

head_conv.2.depth_wise_1.bias f4 [32]
0	0x3d6adde4	0.057340518
1	0x3e41fe62	0.18944696
2	0x3b6eaf85	0.0036420536
3	0x3e97edcb	0.2967361
4	0x3f0c9b59	0.5492454
5	0x3c9970f7	0.018730624
6	0x3e4ccfc1	0.20001127
7	0x3eab2897	0.33429405
8	0x3f323041	0.6960488
9	0x3d153824	0.036430493
10	0xbbb3b6df	-0.0054844464
11	0x3dce59d9	0.10075731
12	0x3e89df45	0.26928154
13	0x3c41ef50	0.011836842
14	0xbe8b0f98	-0.27160335
15	0x3f281cce	0.6566895
16	0x3da1e57d	0.079050995
17	0xbdc88f9b	-0.097930156
18	0x3ef27752	0.4735666
19	0x3eac3de1	0.3364096
20	0xbdc8e3e3	-0.09809091
21	0x3f19af14	0.60032773
22	0x3e1c8a3d	0.15287109
23	0xbf0f250e	-0.55915916
24	0x3f0a19a9	0.53945404
25	0xbf03803f	-0.51367563
26	0xbd446161	-0.04794443
27	0x3d6c910f	0.057755526
28	0x3f48ec95	0.78485996
29	0xbcee7a75	-0.029111126
30	0xc01914c1	-2.3918917
31	0x3c73766a	0.014859775
