codes/Weights/wv3/weight-740.pth (torch, 92405 bytes, 80 tensors)

head_conv.0.point_wise_1.weight f4 [9, 9, 1, 1]
000000 34 84 b2 3e ae 20 50 bf 71 d8 70 3f da 17 da be
       0.34866488 -0.81299865 0.94080263 -0.42596322
000010 54 8c 03 bd 39 20 69 bf 51 88 44 3d a2 27 35 bf
       -0.03211625 -0.9106479 0.047981564 -0.707636
000020 c7 6d 89 3e c6 fa 0c 3a 8b 96 a6 bd f4 48 a6 be
       0.26841566 0.00053779443 -0.081341825 -0.32477534
000030 4c 14 7b 3e 71 54 07 bf 77 f5 de 3f ca 25 1e c0
       0.24519461 -0.5286322 1.741866 -2.4710565
000040 4b ea 92 bf cf c3 0c 40 43 43 c9 3d 42 19 0b c0
       -1.147775 2.1994512 0.09827282 -2.1734166
000050 53 9a 09 c0 4b 74 e5 3f 63 19 88 bf 51 92 c2 be
       -2.1500442 1.7926115 -1.0632747 -0.38002256
000060 6c 17 e9 bc 4d d0 f3 3e 87 fa af be c5 dc f9 bb
       -0.028453551 0.47619858 -0.34370825 -0.0076251947
000070 df 87 ba bf 52 71 91 bf 99 c1 a3 be 7d 78 00 bf
       -1.4572715 -1.1362708 -0.3198364 -0.5018385
000080 bd 57 a1 bf 0f 53 52 bf fd a8 2f 40 94 b3 dc 3f
       -1.2604901 -0.8215799 2.7446892 1.7242303
000090 c7 b4 25 bf 63 88 c6 bf 76 1a 97 3f c0 fc 2c 3f
       -0.6472897 -1.5510372 1.180495 0.67573166
0000a0 0d c1 b2 bf 86 d4 0b c0 1e a8 cb 3f 68 3f 29 bf
       -1.3965164 -2.1848464 1.591068 -0.66112375
0000b0 a4 64 09 be dc c8 14 c0 9f e2 1d 3f dc eb b0 be
       -0.13417298 -2.3247595 0.6167392 -0.34554946
0000c0 c7 b9 db be 8e 90 da 3f c4 10 09 3e 68 b2 f5 3d
       -0.42915174 1.7075365 0.13385302 0.11996919
0000d0 51 d9 f1 3e f2 b5 2b 3f 07 81 5a 3d af 52 f4 bf
       0.47236112 0.670745 0.053345706 -1.9087733
0000e0 02 81 dc bf 4d 3d 9d bf 83 82 14 3f 03 ce 66 3f
       -1.722687 -1.2284333 0.58011645 0.901581
0000f0 43 89 1e 40 0a cc ad bf 31 01 8f 3e 60 50 aa 3c
       2.4771278 -1.3577893 0.27930596 0.020790279
000100 a8 81 5a bf f7 47 c7 be f2 df b3 3f 0a cf af 3e
       -0.8535409 -0.38922092 1.4052718 0.34337646
000110 41 b9 d3 be a7 98 06 c0 bd af c8 bf d2 11 82 40
       -0.41352275 -2.1030672 -1.5678631 4.0646753
000120 25 e6 27 bd 5f af df 3e 20 f3 89 bf 82 bd 36 bd
       -0.040990967 0.43688485 -1.0777321 -0.044614322
000130 9f 28 29 40 17 a6 26 c0 4b a7 22 be b2 29 72 bf
       2.6431043 -2.6038873 -0.1588413 -0.9459487
000140 ad ae c9 3f
       1.5756432

head_conv.0.point_wise_1.bias f4 [9]
000000 68 18 24 3e c8 0d 17 3e 98 fc 9f 3e b1 f3 05 3d
       0.16024935 0.14751351 0.312474 0.032703105
000010 61 a3 76 3e ca b8 81 3c eb c0 dc 3e 3f 5c b8 bc
       0.24085762 0.015835185 0.43115935 -0.022504924
000020 ce c8 4d 3d
       0.05024033

head_conv.0.depth_wise_1.weight f4 [9, 1, 3, 3]
000000 20 89 e8 3e 90 19 39 3e f2 00 64 3e 78 4c 9b bc
       0.45417118 0.18076158 0.22265986 -0.018957362
000010 55 54 aa bf bf 1d 18 3e 89 5e 1e bd 4c fe d7 bc
       -1.3306986 0.14855097 -0.038664375 -0.026366375
000020 aa 1d 72 3e b0 a2 5d 3e aa 35 39 bf 78 c5 e0 3e
       0.23644128 0.21644092 -0.7234751 0.43900657
000030 88 0a 36 bf 60 e7 da bf 28 bc 97 bd 81 cb df 3d
       -0.7110982 -1.710186 -0.07408935 0.10927487
000040 59 e6 c9 be 08 bf 5f 3e 7e e3 41 3e 44 38 1c 3f
       -0.39433554 0.21850216 0.18934438 0.61023355
000050 67 7e 9c bd ca 7b 5a 3f c8 74 06 3f 77 67 2d 3f
       -0.07641297 0.8534514 0.52521944 0.67736
000060 aa da 46 bd 31 39 05 3f e0 c5 0c bf 29 88 23 3f
       -0.048548378 0.5204039 -0.54989433 0.6387964
000070 d9 2f 8e bf 1d 0c 86 be 1e ee a6 bf 67 66 11 40
       -1.1108352 -0.26181117 -1.3041418 2.2718751
000080 0e b6 1f 3f 18 4c d2 be 8b 12 1e 3f a5 22 e6 bd
       0.6238717 -0.4107368 0.61747044 -0.11237077
000090 e9 11 2c bd b5 a7 b2 3d a4 3b 1d be 13 70 53 3d
       -0.042009268 0.08723394 -0.15354782 0.051620554
0000a0 4a 60 0f 40 ed 04 a0 3d db 2a 8c bd 8d f7 41 3e
       2.240252 0.078134395 -0.068441115 0.1894209
0000b0 ce 7c c5 bd e0 86 5e be 83 53 08 bf 24 6a 75 be
       -0.09642945 -0.21731138 -0.5325243 -0.2396627
0000c0 1c 0d f2 be 08 30 a4 3d 0b 70 08 bf 1d f1 76 be
       -0.47275627 0.08016974 -0.53295964 -0.24115415
0000d0 5f 7a ec be 27 1d 8f be 37 c5 8e 3d 78 bb 88 bf
       -0.46187112 -0.2795193 0.069712095 -1.0682211
0000e0 56 63 2c 3f a3 00 17 3f 61 30 46 40 f1 67 89 bf
       0.67339075 0.58985347 3.0967028 -1.0734845
0000f0 59 f1 a6 be b3 bd ce 3d f6 1b ca 3e c4 e0 de 3d
       -0.3260601 0.10094776 0.39474458 0.108827144
000100 3a b0 62 bd e4 3f de 3e 9d 80 45 bf 0e 6c 25 c0
       -0.055343844 0.4340812 -0.77149373 -2.5847201
000110 9c ab de 3f 60 c7 6e 3e 11 0d e2 3e f6 dc e7 3e
       1.7396121 0.23318243 0.44150594 0.45285767
000120 d9 86 15 bf dc 3c c8 3d aa ac a7 be 7a a4 bf be
       -0.58408886 0.09777233 -0.3274892 -0.37430173
000130 ef d2 1e bf d2 b8 c1 be 19 4d 2e 3e c4 f3 c0 be
       -0.6204061 -0.3783632 0.17021598 -0.37685978
000140 00 45 31 3e
       0.17311478

head_conv.0.depth_wise_1.bias f4 [9]
000000 1f 81 3a 3e a2 ec d0 bc f7 b8 14 bd b1 0a 8b bd
       0.18213318 -0.02550346 -0.03630921 -0.067891486
000010 84 da cd 3d b0 48 e5 bc 03 17 4c 3c d7 2f 78 ba
       0.10051444 -0.027988762 0.012456658 -0.0009467578
000020 80 93 09 3d
       0.033587933

head_conv.0.point_wise_2.weight f4 [9, 9, 1, 1]
000000 9c a7 da bf aa 7c 7c 3d 32 63 df 3d ac 86 86 3e
       -1.70824 0.061642326 0.10907592 0.2627462
000010 fe 09 03 3f 6e 06 ae 3f a9 d4 09 be 88 3d c0 3e
       0.5118712 1.3595712 -0.1346003 0.37546945
000020 44 35 11 bf f6 e5 24 bc 0c 6b 4b bf 7f ee 59 bf
       -0.567219 -0.010064593 -0.79460216 -0.8512954
000030 2c d3 83 3e fe 70 dc be fc 46 dd 3f 7b 4e de bf
       0.2574705 -0.43054956 1.7287288 -1.73677
000040 e2 10 88 bf aa 69 26 40 56 fe 34 bd 2a dd 31 40
       -1.0630152 2.6001992 -0.044187866 2.7791238
000050 d4 23 8e 3f 02 98 2f c0 c2 4d 16 3f bf c1 b4 3e
       1.1104684 -2.7436528 0.587124 0.35304067
000060 43 58 b9 bd 11 c2 81 3e fe f1 b0 be 9b 06 ba 3c
       -0.09050038 0.25343373 -0.34559625 0.022708228
000070 cf ce 0e bf d5 09 1f 3f 5a be 67 3f 93 80 c3 bd
       -0.55784315 0.6212438 0.9052483 -0.09546008
000080 07 18 db bf de 14 4a 3f 59 84 6d 3f 7b a7 f6 bf
       -1.7116708 0.7893809 0.9278007 -1.9269861
000090 e4 14 be 3c 36 29 97 be 3b 9e 8b 3f 75 88 af 3e
       0.02320332 -0.2952363 1.0907663 0.34283796
0000a0 d2 dc 6b be 0a 8c ad bf 23 4e f0 3f 06 68 56 bf
       -0.23033455 -1.3558362 1.8773845 -0.8375248
0000b0 6a 4d 0e bf c1 f3 85 be 75 34 0b be 26 cf 6e 3f
       -0.55586874 -0.26162532 -0.1359423 0.93284833
0000c0 be 3f 92 3e ec 10 40 be 9b 3b 3e 3f 3c 7e 5d bf
       0.28564256 -0.18756455 0.743097 -0.86520743
0000d0 03 a8 c4 3f 5b 54 f7 bf a6 0e 3c bd 3f 32 e1 bf
       1.5363773 -1.9322618 -0.045912407 -1.7593459
0000e0 c0 7a 5d bf 6f 8a aa bf 13 2f 2b 3e a6 e4 20 40
       -0.86515427 -1.3323497 0.16717176 2.5139556
0000f0 b1 c0 8a 3f 57 48 c9 be 4c 7a d2 be b4 87 c2 3d
       1.0840055 -0.39313003 -0.4110893 0.094985396
000100 b5 a1 1e 40 3f e5 da bf be ee bc be ed 9f dc 3f
       2.4786198 -1.710121 -0.36900896 1.7236305
000110 af 30 ac be 5b e8 ed bf c8 95 9c 3f fb dc 96 bf
       -0.33630893 -1.8586534 1.223321 -1.1786188
000120 cf d6 85 bc 2f ac 7f 3f 13 0a 12 bf 76 97 8d 3e
       -0.01633778 0.99872106 -0.5704662 0.27654618
000130 6d 5e 53 40 a0 29 3e c0 4e f7 9d 3e 79 82 92 bf
       3.3026383 -2.9712906 0.3085274 -1.1446067
000140 16 46 d0 3f
       1.6271389

head_conv.0.point_wise_2.bias f4 [9]
000000 29 09 ae bd 85 fd e8 3d 93 00 e4 bd 5e d8 2b bd
       -0.08497841 0.1137648 -0.11132922 -0.04195439
000010 cf e5 c0 bc f0 d7 cc bd 25 8c 8a 3e 34 d8 59 3c
       -0.023547081 -0.10002124 0.27060047 0.013296176
000020 e5 51 0b be
       -0.13605459

head_conv.0.depth_wise_2.weight f4 [9, 1, 3, 3]
000000 70 bb 8e 3e 6e f3 89 3e bc ec 13 3e 45 2c 33 3e
       0.27877378 0.26943535 0.14445776 0.17497356
000010 20 82 0d 40 2a f2 26 3e 0d 6c c1 3d 1e da 0d 3e
       2.2110672 0.16303316 0.09444437 0.13852736
000020 88 be ed 3d 42 4b 26 3f 74 34 43 bf c3 dc 28 3f
       0.116086066 0.64958584 -0.7625191 0.65961856
000030 9f b1 43 bf 7f c8 39 c0 d1 9f 76 3f 68 d7 09 3f
       -0.76442903 -2.9028623 0.9633761 0.5384431
000040 1b 8f 86 bf a4 1c 99 3e 5e 06 6a 3e 2c f0 64 bf
       -1.0512422 0.29904664 0.22853991 -0.89428973
000050 27 50 06 3f 7f 18 53 bf e6 db a1 bd 84 45 88 bf
       0.5246605 -0.82459253 -0.079032704 -1.0646214
000060 42 72 dc bd fd 31 9e bf 8f 08 2e 3e 50 ad 03 bf
       -0.107639804 -1.2359005 0.16995452 -0.5143633
000070 c6 44 e8 bd 71 6a 4e 3f 79 ba 03 3f c9 2f 3a bf
       -0.113412425 0.80631167 0.5145641 -0.72729164
000080 4d 66 47 3e 63 99 b3 3e 4b ce 30 be 10 a4 54 be
       0.19472618 0.35077962 -0.17266195 -0.2076571
000090 7d 7d 69 3e 2a c2 16 be 82 d3 bf 3e 2f 15 4c be
       0.22801776 -0.14722505 0.37466055 -0.19929956
0000a0 d6 33 e3 bd e9 6b 9e be 31 39 18 3f 6b 43 14 bf
       -0.11093871 -0.30941704 0.5946227 -0.5791537
0000b0 1f 14 ca 3e 5a e2 00 bf 62 96 12 be 3b c4 2b bf
       0.39468476 -0.50345385 -0.14315179 -0.670963
0000c0 0c 29 d2 3e 60 bb 9d 3f 7d 97 0a 3f af a7 99 be
       0.4104694 1.2322807 0.541374 -0.30010745
0000d0 b6 62 82 be fb 5f 14 bf 00 60 05 bf c9 e5 cd 3d
       -0.25465935 -0.57958955 -0.5209961 0.10053594
0000e0 ef bf 53 be 3f 15 23 3f 32 a9 88 3f 37 da 18 bf
       -0.20678686 0.63704294 1.0676634 -0.5970797
0000f0 45 4c b6 be 13 04 2d 3f 45 94 e9 be c7 d0 a1 bd
       -0.35605064 0.6758434 -0.45620933 -0.07901149
000100 b2 ff 28 3f 50 72 c6 bc 3b 4d 1e 3f 75 0c 31 40
       0.6601516 -0.02422443 0.61836594 2.7663853
000110 14 73 19 3f a3 74 69 bc dd 84 ae 3e ef 0a 93 be
       0.5994122 -0.014249 0.34085742 -0.2871928
000120 e5 f3 74 3f b5 04 ae bd 54 28 9d be e8 cb 34 bf
       0.95684654 -0.084969915 -0.3069483 -0.70623636
000130 07 5f 27 c0 3f 37 51 be 9f e7 91 bd bd 65 c6 bf
       -2.615175 -0.20431231 -0.07124256 -1.5499798
000140 f7 30 85 3e
       0.2601392

head_conv.0.depth_wise_2.bias f4 [9]
000000 1f 81 3a 3e a2 ec d0 bc f7 b8 14 bd b1 0a 8b bd
       0.18213318 -0.02550346 -0.03630921 -0.067891486
000010 84 da cd 3d b0 48 e5 bc 03 17 4c 3c d7 2f 78 ba
       0.10051444 -0.027988762 0.012456658 -0.0009467578
000020 80 93 09 3d
       0.033587933

head_conv.1.point_wise_1.weight f4 [20, 9, 1, 1]
000000 2e 56 c1 3e 76 78 47 bf 80 a7 b2 3f 49 65 2d 3e
       0.37761062 -0.77918184 1.3957367 0.16933168
000010 d2 43 aa be 1d 3f 29 3f 79 3c df 3d 96 b5 52 3f
       -0.33254868 0.6611193 0.10900206 0.8230833
000020 6d 6a 1d bf eb 1c eb bd 71 02 c7 3e ef 73 a3 3e
       -0.6149052 -0.11480125 0.3886905 0.31924388
000030 d7 bf c5 3f c4 af d0 3e 5d 35 ca bc 6f cf 92 bd
       1.544917 0.407591 -0.024683649 -0.07168471
000040 fe d3 7a be 7d e9 38 be 86 bc 4d be 25 36 57 3f
       -0.24494931 -0.18057819 -0.20091447 0.84066993
000050 62 e1 b4 be 9b c3 35 be a8 6f e3 3e 39 d6 90 3d
       -0.35328203 -0.17750399 0.44421124 0.0707211
000060 de 90 0a c0 4d 58 a8 be 54 60 d7 be 9a 6c 9f be
       -2.165092 -0.32879868 -0.4206568 -0.31137544
000070 21 5d a8 3f 26 e7 b4 be 24 4b 82 be ce af 86 3f
       1.3153421 -0.35332602 -0.25447953 1.0522401
000080 4b db cd 3d b4 33 8e 3f a5 62 65 bd 08 c4 3c 3e
       0.100515924 1.1109529 -0.056002278 0.18434155
000090 fa ff 22 be ce 84 f5 bc c0 fb 68 3e 88 9a 33 be
       -0.1591796 -0.029970553 0.22752285 -0.17539418
0000a0 88 a0 db 3e 82 c3 b9 bc 83 4d 18 bd 0c ec 5d 3e
       0.42895913 -0.022676233 -0.037183296 0.21672076
0000b0 18 f5 0e 3f 37 49 4d 3e 67 82 1f bf f4 5c 18 bf
       0.55842733 0.2004746 -0.62308353 -0.59516835
0000c0 d5 cd 47 3f 25 1a 12 bf 73 44 57 bd a8 5c f7 be
       0.7804845 -0.57071143 -0.052555513 -0.4831288
0000d0 92 74 b0 3f 85 1a d4 3d 9d cf 83 be 8e 52 ae bf
       1.3785574 0.10356621 -0.25744334 -1.3618944
0000e0 6b 35 00 3e 88 68 e4 bd 90 81 d9 3e 10 5e cf bd
       0.12520377 -0.1115275 0.4248166 -0.10125363
0000f0 98 2a 85 be 62 cd 4d bf 30 e6 f9 be f4 ae f8 3e
       -0.2600906 -0.80391514 -0.48808432 0.4857098
000100 64 84 d4 3e 8a 22 90 3f 50 4f 37 bf 4c 02 09 bf
       0.41507256 1.126054 -0.71605396 -0.5351913
000110 96 c4 17 bd 78 11 29 bf f4 45 80 3f 64 20 e3 bd
       -0.037052713 -0.6604228 1.0021348 -0.110901624
000120 cc 03 8a 3e 24 38 7c 3d 2b 54 78 3f 3e d6 21 3c
       0.26956022 0.061576977 0.9700343 0.0098777395
000130 ec 6d 6c bf d3 d9 9c bd 35 7c 42 be 5f 66 b1 bc
       -0.9235523 -0.07658734 -0.18992694 -0.02165526
000140 7e 95 b7 bd 6f 6c 2d be c6 ed ef 3d 4d 5f cc be
       -0.0896406 -0.16935895 0.117152736 -0.3991646
000150 d6 6b 38 be 39 0c 7b bc 75 a8 93 be 65 c0 85 be
       -0.18009886 -0.015322738 -0.2883946 -0.26123348
000160 eb 38 f4 bc 53 f8 d9 bc ff 13 46 3d 90 cb 1e bd
       -0.029812297 -0.026607668 0.048358914 -0.03876835
000170 1d 71 bf be 9d f5 86 3e 87 fd 96 3e a2 02 c5 3d
       -0.37390986 0.26359263 0.294903 0.09619643
000180 7a eb a9 3d 6c bc 23 3d d8 ca 00 bf d3 84 80 be
       0.08296867 0.039974615 -0.50309515 -0.25101337
000190 49 a5 ef bd d5 eb b4 be fd fd 4c bd 90 d0 ee 3d
       -0.117014475 -0.35336176 -0.05004691 0.11660874
0001a0 22 c5 96 3c 99 76 47 be ed 52 1a bf c3 b4 d4 bd
       0.018404547 -0.19478835 -0.60282785 -0.1038604
0001b0 5f 59 80 bd 9c 17 ee be 53 1d 0d 3f c9 7f 9b be
       -0.06267046 -0.46502388 0.5512287 -0.3037093
0001c0 65 55 cc 3c 14 d6 12 3b f1 7d c8 be 8f 88 20 bf
       0.024943063 0.0022405433 -0.39158586 -0.6270837
0001d0 5f dc fd be 79 a5 6c 3e 0f ea 0f 3f 0a a0 7d 3f
       -0.49582192 0.23109998 0.5621652 0.99072325
0001e0 8e 69 f5 be 5b 8c ae be a5 32 88 bd c8 6e 9d 3e
       -0.47932094 -0.34091458 -0.06650285 0.30748582
0001f0 b5 ee 9c 3e 1f c3 b0 bf 9e 1c 4a 3d c5 34 5a be
       0.3065087 -1.3809546 0.049343698 -0.21309192
000200 f8 ab 3a bf e7 6b 90 bd 25 6e 25 be 5a f5 cf be
       -0.72918653 -0.07051831 -0.16155298 -0.40616876
000210 57 32 9f be 03 1e ad 3e d3 2e 89 3b 14 ab 86 bd
       -0.31093094 0.3381196 0.00418649 -0.06575599
000220 17 29 1e 3f 0a 10 86 bf f6 80 d7 bb 92 31 e0 3d
       0.6178145 -1.0473645 -0.0065766526 0.10946955
000230 e4 8d f6 bc 2a ed aa 3e 72 02 a7 3e 80 88 1c c0
       -0.030096956 0.33384067 0.32619053 -2.4458313
000240 c8 f5 bc bd d5 80 21 40 d5 4c 7b bf 13 21 0c be
       -0.092265666 2.5234883 -0.9816411 -0.13684492
000250 a8 de f4 3e d8 f9 05 bc 5a 69 77 3f bf b0 ab 3f
       0.47826123 -0.008177243 0.9664513 1.3413314
000260 51 11 12 3f b5 ac b7 bd 18 81 3f 3e d4 7a 59 bd
       0.5705767 -0.08968488 0.18701589 -0.053095654
000270 ad 5f 9a be b1 21 85 3e e3 28 70 be eb c5 96 bd
       -0.3015112 0.26002267 -0.23453097 -0.073619686
000280 d7 e3 02 3f 7e a7 ae 3e b0 6c 6f bf c8 73 26 be
       0.51128906 0.3411216 -0.9352522 -0.16255105
000290 9a f9 14 be 1f 8e d4 be 45 71 0a bf cf 77 3f bf
       -0.1454834 -0.4151468 -0.54079086 -0.7479219
0002a0 58 b1 78 be e6 b9 12 3f 4b 9d 2d 3d 76 49 c5 3e
       -0.24286401 0.5731491 0.042386334 0.3853261
0002b0 1e 1a 30 3c 7c 8e 26 3e 59 87 34 bd fe d1 12 be
       0.010748414 0.16265291 -0.04407439 -0.14337918
0002c0 96 cf 0c 3f 07 94 c0 bd 18 86 d7 bd 13 80 c6 bd
       0.5500425 -0.09403234 -0.10523623 -0.09692397

head_conv.1.point_wise_1.bias f4 [20]
000000 77 ac eb bd 80 0c d7 3e a3 06 06 3e af f8 79 3c
       -0.115075044 0.42001724 0.13088469 0.015257045
000010 de ac c2 bd a3 4a da 3d b3 d5 3d be 64 7c 0d 3e
       -0.09505628 0.10658767 -0.18538551 0.13816983
000020 48 26 d4 3e ba 7e a1 bd c4 41 c5 bd 2f ad f6 bd
       0.41435456 -0.07885499 -0.096316844 -0.12044751
000030 04 8a cf 3e 93 ec 50 3e f0 7e 27 be e3 d3 03 be
       0.40534985 0.20402746 -0.16357017 -0.12873797
000040 4c 64 a0 bc d4 b0 4f be 09 53 ce bc 34 11 5f 3d
       -0.019579075 -0.20282298 -0.025186079 0.054459766

head_conv.1.depth_wise_1.weight f4 [20, 1, 3, 3]
000000 ca df d1 3e ec 17 b2 be 3f c0 53 3e 6f fc d9 be
       0.4099105 -0.34783876 0.20678805 -0.42575404
000010 84 80 d2 3f 6f c8 22 bf 3a 8a 18 be 9c a3 9e be
       1.644547 -0.6358709 -0.14896479 -0.309842
000020 91 6b 6e 3d c5 24 16 3c d2 05 b7 3e 10 a2 9c 3e
       0.058208052 0.00916404 0.35746628 0.30592394
000030 db 4e ab 3b b3 5e 30 3f 54 97 eb bd 65 04 91 be
       0.005227906 0.688945 -0.11503473 -0.28323665
000040 88 1b 2f be 5f d9 a0 3c dd e1 ed 3e b4 e6 f9 be
       -0.17100346 0.0196349 0.46461383 -0.48808825
000050 1b 35 69 be b2 ac 69 3f 66 94 87 bf 75 d4 3d bf
       -0.22774164 0.9127914 -1.0592163 -0.7415231
000060 3c 4e 1e bf 75 0b 38 3f 4d 46 11 3f 89 36 e8 3e
       -0.61838126 0.7189248 0.56747895 0.45354107
000070 2c f9 69 bf 2b 4f 60 bc 42 01 62 be a6 45 86 bd
       -0.9139583 -0.01369075 -0.22070792 -0.06556253
000080 aa 91 5a be c3 4d 9a be a1 6b a0 3f 7d cc 95 3e
       -0.21344629 -0.30137452 1.2532846 0.29257575
000090 0e 83 fb 3e 1b a4 b5 3e 1c ee 70 bf 30 e6 2f 3f
       0.49123424 0.35476765 -0.94113326 0.68710613
0000a0 ea 18 53 3f e0 0c 79 bf b6 24 8f bf 73 a4 2a 3e
       0.8245989 -0.9728527 -1.1183078 0.16664295
0000b0 5a 4e f1 3e ad b2 7b 3e 54 cd b6 bd 4c 2a 7b 3e
       0.4713009 0.24579878 -0.08925882 0.24527854
0000c0 e7 ca 53 be bd 36 99 bd b1 ec 57 bd f8 40 de 3e
       -0.2068287 -0.074811436 -0.05271596 0.43408942
0000d0 19 bf a5 3e ba ef 8a 3e eb ca 7c 3f 0b e3 d7 bc
       0.32372358 0.27136022 0.9874713 -0.02635338
0000e0 55 2a b0 be d7 f7 1b be e8 ab 40 3f 6e 9e 0a bf
       -0.34407297 -0.15231262 0.7526231 -0.54147995
0000f0 f5 06 42 3d 65 14 bd bd ea 06 f8 be 13 8c 00 3b
       0.047369916 -0.092324056 -0.48442775 0.001961474
000100 dc ab 3b 3e af f2 08 3e 37 8b 04 3e 57 29 39 3f
       0.18327278 0.13373826 0.12943731 0.72328705
000110 33 08 1a bc 1a 45 9e bd 83 a4 3c be 1b 7d 61 bd
       -0.009401369 -0.07728024 -0.18422131 -0.05505095
000120 73 be 60 bf 1a 2c 06 3f f5 8d 4d bf 96 f3 d4 3e
       -0.877906 0.52411044 -0.80294734 0.4159209
000130 47 cb aa 3f 0e 27 1f 3e 2c 6f 18 bf 22 5b ff 3e
       1.3343285 0.15542242 -0.59544635 0.49874216
000140 7b 7d 64 bf 88 91 fa be fe fa 64 3e 5b c9 ac be
       -0.8925397 -0.48939157 0.22361371 -0.33747372
000150 77 f0 e3 3d 64 60 4b 3f 32 57 b0 bd 5b 4c 63 be
       0.111298494 0.79443955 -0.08610381 -0.22197096
000160 6c f0 9e 3e 8c 41 c0 be a7 1f 6f 3d a4 3c fa 3e
       0.31042802 -0.37550008 0.058379795 0.4887439
000170 fc ab 17 be dc 05 d4 3e 44 7e da 3e b7 54 19 bf
       -0.148117 0.4141072 0.42674458 -0.5989489
000180 c3 c2 5a be 99 be c4 be ce 5d 56 3c 4a a8 d3 3e
       -0.21363358 -0.38426664 0.013083888 0.41339332
000190 42 c4 98 3e 41 3f 48 3e b1 a7 1b bf e3 3a 9b be
       0.29837233 0.1955538 -0.6080275 -0.30318365
0001a0 82 b8 e2 be 52 b2 e1 3e 6c 34 83 be 99 c5 4b 3e
       -0.44281393 0.4408136 -0.25625932 0.19899596
0001b0 17 0b 66 be 99 34 24 3e 79 dc bb 3e 4d c0 65 be
       -0.22465168 0.1603569 0.36691645 -0.22436638
0001c0 a4 d1 2f 3f 98 2c a7 3e 51 26 c4 3e 06 b2 64 bf
       0.6867926 0.3265121 0.38310483 -0.8933414
0001d0 df 3c 89 bd 3c 89 d0 be da e9 25 be 44 e9 37 3e
       -0.06701063 -0.40729702 -0.16202489 0.17960078
0001e0 d8 72 28 bf c6 88 43 bf fb 63 09 3f f1 aa 6b 3e
       -0.6580024 -0.76380575 0.53668183 0.23014428
0001f0 e9 0c 0d 3f 43 ca a6 3d 15 68 50 bf 00 d8 08 3e
       0.55097824 0.08144047 -0.81408817 0.13363647
000200 5f a0 cc be a8 4a 1a 3f 19 08 36 be 75 b5 92 3f
       -0.39966103 0.60270166 -0.17776527 1.1461626
000210 47 e2 87 be 2e ac f0 3e cf d0 69 bf bd fd ac 3e
       -0.26539823 0.47006363 -0.9133424 0.33787337
000220 9e 64 0f 3d ed 56 61 be 69 d9 9b be 18 c6 91 3f
       0.035008065 -0.22005816 -0.30439308 1.1388578
000230 95 a1 0e 3f 0e bb d2 bd 5e 35 19 bf 1d 45 39 be
       0.55715305 -0.10289584 -0.59847057 -0.18092771
000240 84 a7 58 3f 91 8f a0 bf 26 57 f0 3e 81 d7 78 3e
       0.8463061 -1.2543813 0.4694149 0.24300958
000250 e8 76 30 3e a5 01 41 be fd d3 7e bf ad f5 b3 3f
       0.17232859 -0.18848284 -0.9954222 1.4059349
000260 a8 fc 4f bf 81 29 8a 3e 4c 0e 33 be 29 07 a9 be
       -0.812449 0.2698479 -0.17485923 -0.33013275
000270 8f 03 70 3f 27 f5 82 3e 6e af 25 3f cc 1b 02 bd
       0.9375543 0.2557766 0.6472081 -0.03176479
000280 43 f9 07 bf d9 1e a2 bf ac 84 d9 be 75 0a d0 be
       -0.5311472 -1.2665664 -0.42484033 -0.40632978
000290 58 fb b2 be ad ba bb be 27 3f 30 3f a4 69 97 be
       -0.34957385 -0.3666586 0.6884636 -0.29572785
0002a0 29 8b d6 be d8 9e 92 be d5 b2 05 bf dc 0f 40 be
       -0.41903046 -0.28636813 -0.52226 -0.1875605
0002b0 85 88 cb be 84 6f 24 be 78 aa f0 be 36 63 e5 3f
       -0.39752594 -0.16058165 -0.47005057 1.7920902
0002c0 c4 e1 9d be 36 9c d1 bd 54 5d de be 4c 79 68 bd
       -0.30836308 -0.10234873 -0.4343058 -0.056756303

head_conv.1.depth_wise_1.bias f4 [20]
000000 fa ab ad 3c 6e 92 fc bd fa b7 a3 3c 62 c0 0a bc
       0.021200169 -0.12332617 0.019985188 -0.008468719
000010 cc 45 e9 3c ed 4f f3 bd 1f 6a 1f 3c d5 51 03 bd
       0.028475665 -0.11880479 0.009729891 -0.032060463
000020 1a 37 91 3d 89 2e 75 3c 40 54 fd 3d be 5d b1 bd
       0.07090588 0.014964708 0.12369585 -0.08660458
000030 3a 4e 8c bc c1 e6 d9 3c 1d 76 70 3c 11 38 e7 3c
       -0.017127145 0.02659929 0.014676598 0.028224977
000040 32 37 00 bc d1 b9 ba bc 0d fb c2 3d c3 9e 16 3e
       -0.00782566 -0.022793682 0.095205404 0.14709

head_conv.1.point_wise_2.weight f4 [20, 9, 1, 1]
000000 83 b0 70 bd bc 7d cd 3e 8c 30 0f 3d 5d 26 18 be
       -0.058762085 0.4013499 0.034958407 -0.14858384
000010 4a 4d 63 be 6b 18 dd be aa 55 99 be 7f 3c 87 be
       -0.22197452 -0.43182692 -0.2994817 -0.26413342
000020 1f 12 88 3f 9c 17 1e 3e 6c 16 8c be 48 15 49 be
       1.063053 0.15438694 -0.27360857 -0.19637024
000030 f5 8a 89 3e 05 5d 65 be 6a d5 06 3e 65 3f 82 bc
       0.26863828 -0.22398765 0.13167349 -0.01589937
000040 1a 77 66 3e 21 5b 4f bd df fa d9 3e 3b 5a 9e be
       0.22506371 -0.050624017 0.42574212 -0.30928215
000050 74 51 03 3f 45 28 55 3e be 65 f3 be 81 4e a9 bc
       0.5129616 0.20816143 -0.4753856 -0.020667316
000060 e0 6c 4b 3f 5f 47 76 3f ff 83 c0 be 8f 35 61 3e
       0.79463005 0.96202654 -0.37600705 0.21993087
000070 3a 10 59 3f 76 91 8c 3e 4a 1b f8 3d 75 4f a1 be
       0.84790385 0.27454728 0.1211458 -0.31505933
000080 49 9e 13 be 4c 50 ec 3d cc 56 c5 3f 83 88 15 3f
       -0.1441585 0.11538753 1.5417113 0.58411425
000090 be d4 43 3e 46 a4 84 be 94 bb 0c bf d9 dd d1 be
       0.19124123 -0.2590658 -0.5497372 -0.4098957
0000a0 d7 70 df 3d 90 71 58 3e 16 ef 86 3e 20 31 8d 3e
       0.10910194 0.2113707 0.26354283 0.27576542
0000b0 29 36 d0 be 13 c6 01 be 95 72 5d 3f 4b 25 32 3f
       -0.4066632 -0.12673216 0.86502963 0.69588155
0000c0 9f 68 69 be b1 71 51 3f 71 62 eb 3e ce 0d c1 3e
       -0.22793816 0.81814104 0.45973542 0.37705845
0000d0 fd 11 99 bf ca 78 ec be d9 35 74 3e b4 a3 96 bf
       -1.1958615 -0.46185905 0.23848666 -1.1768708
0000e0 50 b3 de be 5a b8 1a 3f 27 4f 09 bf c8 18 87 3e
       -0.4349618 0.6043755 -0.536364 0.26386094
0000f0 2c 70 fb bd c2 8b 7e 3e 07 cb 75 be 63 fa c3 bd
       -0.122772545 0.24858001 -0.2400323 -0.09569242
000100 2d f7 54 be 85 9b 96 3e 72 61 c2 bc 0c 15 0a 3e
       -0.20797415 0.29415527 -0.023728106 0.13484591
000110 d6 a7 c6 bd 91 b3 7f bd e4 a6 1d bf e9 ca b1 3e
       -0.09699981 -0.062427107 -0.6158278 0.3472512
000120 c4 e5 d3 3e 83 ef d7 be 71 c2 8c 3f 8f ca 6f 3d
       0.41386235 -0.4217492 1.0996839 0.058542784
000130 c2 28 bf bd 08 fa 02 3e e7 df 22 3e 34 30 90 3e
       -0.09333946 0.12790692 0.15905724 0.28161776
000140 91 f0 0f be c6 32 84 be 57 b9 2a be ef 43 c7 bd
       -0.14056613 -0.25819987 -0.16672264 -0.09729754
000150 d7 00 20 3d da b0 65 3f da 7d 61 be 12 24 c0 3d
       0.0390633 0.8972298 -0.22020665 0.0938188
000160 f8 e1 96 3e ee cd 2f 3e 10 e9 26 3f c8 73 c8 3c
       0.29469275 0.171684 0.65199375 0.024469271
000170 df 3d 17 bf ca 25 2d 3c 36 7d 9e bf 1e e6 84 3c
       -0.5907878 0.010568092 -1.2381961 0.01622301
000180 df 96 d7 bd be 06 ef bd 99 7a ac 3b f8 93 66 bf
       -0.10526823 -0.11671208 0.005263638 -0.9006953
000190 da 4d bf bd 18 38 21 bc 2d 1d 81 3e 31 1c 23 3d
       -0.09341021 -0.009840034 0.25217572 0.039821807
0001a0 c8 73 d3 3f c0 55 99 3e 34 3b 7d 3e 70 eb 17 3d
       1.6519709 0.29948235 0.24729615 0.037089765
0001b0 18 de c7 bc be cc 06 c0 18 e0 f6 bd 97 13 68 3e
       -0.024397895 -2.1062465 -0.12054461 0.22663723
0001c0 28 19 74 bd 3d 0c 73 bc 95 05 22 bf de cd 6f be
       -0.059594303 -0.014834461 -0.6328977 -0.23418376
0001d0 24 a4 22 bf 87 03 48 3d 90 d1 77 bd a6 5c b7 3f
       -0.6353171 0.04883149 -0.06050259 1.4325149
0001e0 d7 3b 80 be cb 37 e5 3e ba 56 0d be a4 41 d9 bd
       -0.25045654 0.4476913 -0.13802615 -0.10608223
0001f0 eb b1 31 3f d5 94 fa bc 4b 56 80 3e 02 7e 02 3e
       0.69412106 -0.030588547 0.25065836 0.1274338
000200 82 43 85 be 54 0a c6 3f cd 7e 19 bf a7 c8 51 bd
       -0.26028067 1.5471902 -0.5995911 -0.051216748
000210 5b 1b 59 be e1 df 52 3e 3b 59 9a be ea ce 8c be
       -0.21201842 0.20593216 -0.30146202 -0.27501613
000220 09 b0 50 3e d1 f4 bb 3d e0 07 c5 bd 8e 2d 64 3e
       0.20379652 0.091775544 -0.09620643 0.22283003
000230 9b 77 97 be eb dd 56 be 78 fd b1 bd fc eb 33 3e
       -0.2958344 -0.20983092 -0.086909235 0.1757049
000240 dd 82 cd be 48 d6 22 c0 33 aa f7 3e 62 c6 4b 3e
       -0.40138903 -2.5443287 0.4837204 0.19899896
000250 02 bd 1b 3f 58 e8 52 bd 2d 52 0e bf aa 5e 0e c0
       0.6083528 -0.05149111 -0.5559414 -2.2245278
000260 99 84 aa be c9 cf 3f be 8d 8c 96 3e a6 b9 10 bf
       -0.3330429 -0.18731607 0.29404107 -0.5653328
000270 be f8 23 3d f3 b9 2d 3e 7e 4d e1 bd 84 fe 33 3f
       0.04003214 0.16965465 -0.110011086 0.70310235
000280 ca 9b 25 3c b3 b5 95 bf 4f 92 ea 3b f0 31 d9 be
       0.010107944 -1.1696075 0.0071585546 -0.42420912
000290 e0 99 fb 3e 94 cb bc be dd a3 01 bf 75 d0 60 bf
       0.49140835 -0.36874068 -0.5064066 -0.8781808
0002a0 63 23 be 3c 01 96 af 3e 0f 1e 84 be f5 5b 17 bf
       0.023210233 0.3429413 -0.25804183 -0.5912469
0002b0 0e 97 f6 bc f0 92 00 3d 8d 87 42 bd 01 c0 2d bf
       -0.030101325 0.03139013 -0.047492553 -0.678711
0002c0 fb 68 88 3e 2a f4 85 bd 82 39 d1 3c 1b 09 06 3d
       0.26642594 -0.06540711 0.025540117 0.032723527

head_conv.1.point_wise_2.bias f4 [20]
000000 ca aa 2e bd 95 3e dc bc bc dc ef 3d c2 c7 b8 bd
       -0.042643346 -0.02688531 0.117120236 -0.09022476
000010 94 d9 07 be 2a 05 d7 3d 5e 15 47 bd 70 86 00 bd
       -0.13266593 0.10499032 -0.04860436 -0.03137821
000020 63 87 42 bd d4 99 d9 be cf 17 d0 3e cd c8 f9 3d
       -0.047492396 -0.42500174 0.40643165 0.12196503
000030 b2 ab 93 be d4 20 81 be a7 56 7b 3e 21 34 ee bd
       -0.2884193 -0.25220358 0.24544774 -0.116310365
000040 30 af 24 be 7c 3c 0d bb b1 02 e1 3d c9 0e ee 3d
       -0.16082454 -0.0021550944 0.109868415 0.11623914

head_conv.1.depth_wise_2.weight f4 [20, 1, 3, 3]
000000 9c f6 29 3f d0 2e e3 bd e4 39 84 3e bd 41 d7 3e
       0.6639192 -0.11092913 0.25825417 0.42042342
000010 b9 b3 09 bf a4 12 92 be f2 a2 aa be 74 bd 32 be
       -0.5378986 -0.28529847 -0.33327442 -0.17455083
000020 54 2b 85 3d 8f 6a dc 3e 48 c1 13 bf 76 65 39 3d
       0.06502405 0.43050048 -0.577168 0.045262776
000030 86 f1 f6 3e 6c c3 a2 be 51 d8 d5 3e 68 27 19 be
       0.48231143 -0.3178972 0.417666 -0.14956439
000040 94 3c e5 be e8 97 01 3e 6b 8b a5 3e b6 c9 47 3d
       -0.4477278 0.12655604 0.3233293 0.04877635
000050 87 17 72 bd 1f f6 66 bd 06 42 02 3e f6 46 22 be
       -0.05910447 -0.056387063 0.12720498 -0.15847382
000060 60 5d ad bb 1b a8 b3 bc d0 4e 81 3e 98 b7 84 3f
       -0.005290672 -0.021930745 0.25255442 1.0368528
000070 2d 36 63 bf 23 9d 6d be e5 ab 11 3f f6 c2 b0 be
       -0.8875454 -0.23204474 0.56902915 -0.34523743
000080 ba 1c 66 be 71 01 6e bf af d7 3f 3f 72 c3 68 bd
       -0.22471896 -0.9297095 0.7493848 -0.056827016
000090 aa fe e1 3e 1d 05 18 bf b8 2a f9 be b2 36 ed ba
       0.44139606 -0.593828 -0.48665404 -0.0018097966
0000a0 9e bc 23 bd 99 44 96 be a1 67 ca 3e 03 9f 17 3f
       -0.0399748 -0.2934921 0.39532188 0.5922701
0000b0 4a 57 7d 3e 99 98 dd 3e fe e9 88 be 7a ce 28 3e
       0.2474033 0.43280485 -0.26741022 0.16485015
0000c0 11 ab 06 be 9e 4e 50 bf fd da 8c be cf af c3 3e
       -0.13151194 -0.8136996 -0.27510825 0.3822007
0000d0 1d 1f 10 3e 7d 6b 92 3e 1a 9b f0 bd e4 6b df be
       0.14074369 0.28597632 -0.11748333 -0.43637002
0000e0 da 17 8f be 1f 49 4a 3f 46 2b 78 3e 87 85 6e 3f
       -0.27947885 0.79017824 0.24235258 0.93172497
0000f0 3c e7 ef 3d ee 69 11 bf fd 7f 16 bf 12 64 ab bd
       0.11714026 -0.5680226 -0.58789045 -0.08368696
000100 14 ba 46 be c0 34 61 be 9b 59 4b 3c 33 b1 ae 3e
       -0.1940692 -0.21992779 0.0124115 0.34119567
000110 72 cf ec 3e c0 2c 7a be 29 85 d1 3e 23 ba 15 bf
       0.46252018 -0.24431133 0.40921906 -0.5848715
000120 b5 e7 72 be e6 07 0e 3f ff 03 04 3d 2d dd 4d 3f
       -0.23721202 0.554808 0.032230373 0.8041561
000130 af 49 b5 bf 4f 7c 1f 3f 88 c7 ce be 58 ba 3c 3f
       -1.4163111 0.62299055 -0.40386605 0.7372184
000140 3d 52 8f bc fa 44 15 bf aa 77 5c 3f ae 76 09 3f
       -0.017495269 -0.58308375 0.8612009 0.53696716
000150 17 9a 85 bf 97 61 86 3f 5c 59 24 3e 79 6a 8f be
       -1.043765 1.0498532 0.16049713 -0.2801092
000160 bd fd 0c bf 37 ac 92 bd 33 60 62 3e 73 5a b8 bd
       -0.55074674 -0.071617536 0.2210701 -0.09001627
000170 5f 79 97 3e 15 65 e1 bd a2 84 d5 bf c3 22 d3 bc
       0.29584786 -0.11005608 -1.6681101 -0.025773412
000180 e5 a9 b4 3e 45 35 08 3e 71 89 2b 3e 1d 06 59 3f
       0.3528587 0.1330157 0.16751648 0.84774953
000190 32 e1 e6 be b7 66 51 3f 13 92 f0 be ed 98 2e be
       -0.45093685 0.81797355 -0.46986446 -0.17050524
0001a0 6e c1 d4 be 64 2e 50 3f 06 a1 e7 be 10 d7 50 3f
       -0.41553825 0.81320786 -0.4524004 0.8157816
0001b0 d5 05 1e bf 5d 60 1e 3f 13 5f e1 3e 44 48 3f be
       -0.6172765 0.6186579 0.44017848 -0.18679911
0001c0 96 40 48 be cf 0d 08 bf 0e 84 dc bd 7e 1f 19 3f
       -0.19555888 -0.5314607 -0.10767375 0.5981368
0001d0 cb 30 1c 3f 12 1b 64 3f 46 71 0c 3e 91 e9 20 3e
       0.6101195 0.89103806 0.13715085 0.15714099
0001e0 8a 6b 5a 3f e6 17 75 bf 03 2a 10 bf be 88 de be
       0.8532034 -0.9573959 -0.56314105 -0.434637
0001f0 2f 86 36 3d ab 52 57 be ad 82 68 3e d2 5b 44 3f
       0.04456156 -0.21027629 0.22706099 0.76702607
000200 8c c8 47 bf cd 38 ff 3e 29 28 c3 3f dd 58 8c bf
       -0.78040385 0.49848023 1.5246631 -1.0964619
000210 c0 e9 3b bf 46 d5 ab bf 94 ee 4d 3f 6b 44 10 bf
       -0.7340355 -1.3424461 0.80442166 -0.563544
000220 96 66 2b 3d da 8d fc bd bc a8 81 3c 75 f4 3f 3f
       0.04184588 -0.123317435 0.01582753 0.74982387
000230 dd 72 49 3e c5 3f 70 be 54 b6 d4 3c 52 f2 9e be
       0.19672723 -0.23461826 0.025965847 -0.3104425
000240 33 94 7a bf 7e 55 b6 3f 0b 8e c5 3e e3 5d 11 3f
       -0.97882384 1.424484 0.38584933 0.56783885
000250 f4 0b 13 be 5b 1d 96 be 41 3a f3 3e 67 e1 a3 bf
       -0.14360029 -0.2931927 0.47505382 -1.2803162
000260 d3 ad b4 be 8d 1c e4 3e 5a af e1 3d df 69 c0 bd
       -0.35288867 0.44553033 0.11019774 -0.09395193
000270 6e 00 32 3f 5c 06 06 3e 54 c9 94 bf 6c 0f ac 3e
       0.69531906 0.13088363 -1.162394 0.33605516
000280 ad 53 52 be 4e 4f 83 bd 66 65 dc 3d 35 db b0 3d
       -0.20539732 -0.064116105 0.10761528 0.086355604
000290 59 ce ae 3e 16 d9 aa bd c2 60 b7 bf f0 e0 2b 3e
       0.34141806 -0.08342187 -1.4326403 0.16785026
0002a0 d8 19 ce 3e f9 65 9d bd 79 e9 da 3e e7 53 57 3d
       0.40254092 -0.07685465 0.4275625 0.05257025
0002b0 a1 1a ec bc 98 ef 0c 3e 2a e6 21 3e 9e 31 18 c0
       -0.028821291 0.13763273 0.15810457 -2.3780284
0002c0 e3 40 e2 bd 95 f3 51 3d ec b0 87 3d 2d 8d c1 3d
       -0.110475324 0.05125769 0.06625542 0.09450755

head_conv.1.depth_wise_2.bias f4 [20]
000000 fa ab ad 3c 6e 92 fc bd fa b7 a3 3c 62 c0 0a bc
       0.021200169 -0.12332617 0.019985188 -0.008468719
000010 cc 45 e9 3c ed 4f f3 bd 1f 6a 1f 3c d5 51 03 bd
       0.028475665 -0.11880479 0.009729891 -0.032060463
000020 1a 37 91 3d 89 2e 75 3c 40 54 fd 3d be 5d b1 bd
       0.07090588 0.014964708 0.12369585 -0.08660458
000030 3a 4e 8c bc c1 e6 d9 3c 1d 76 70 3c 11 38 e7 3c
       -0.017127145 0.02659929 0.014676598 0.028224977
000040 32 37 00 bc d1 b9 ba bc 0d fb c2 3d c3 9e 16 3e
       -0.00782566 -0.022793682 0.095205404 0.14709

head_conv.2.point_wise_1.weight f4 [32, 20, 1, 1]
000000 1d 28 4d 3f b4 a0 11 3e 2c 71 51 be b0 d7 72 bf
       0.80139333 0.1422146 -0.20453328 -0.94860363
000010 39 2c 20 bf 7a 1c 38 bf 90 1c d7 be 32 c1 32 be
       -0.6256748 -0.7191845 -0.4201398 -0.1745651
000020 20 e0 c4 3c 74 2b 96 bf 79 c2 f3 bc f1 be 07 40
       0.024032652 -1.1732011 -0.029755818 2.1210291
000030 1f 23 0a 3f c9 9e e6 3f a5 0e 09 bf 49 af 9b bf
       0.5395984 1.8017207 -0.5353797 -1.2162868
000040 b2 98 3e 3f 63 f8 c0 bf 76 ad 96 3e 21 08 b3 be
       0.74451745 -1.5075802 0.29429215 -0.3496714
000050 c8 8b 09 3f fd b4 9e 3f dc 90 3c bc 17 81 4b 3e
       0.53728914 1.2398983 -0.011509147 0.19873463
000060 04 bd 14 bf aa 03 4a 3f 96 e3 73 bd 1a 3a 23 bd
       -0.58100915 0.7891184 -0.059543215 -0.03985033
000070 1a 9f 87 be fa c1 a4 bd 45 48 e9 be 3f 88 89 3d
       -0.26488572 -0.080448106 -0.4556295 0.0671544
000080 13 6c 60 be d6 1e 4b bc da 55 67 bf c9 a3 c3 3d
       -0.21916227 -0.012397489 -0.90365374 0.09552724
000090 dd 64 72 bd 78 fb 54 3e e1 6c 05 3f 73 df b4 3d
       -0.059178222 0.20799053 0.5211926 0.08831682
0000a0 e9 bb 97 3c 29 af 49 c0 89 f6 4d 3f 3b 82 79 3e
       0.01852222 -3.151316 0.8045431 0.24366085
0000b0 ec 2e 5e bd 86 99 47 3f c4 d8 ad 3e 5a 95 0c bf
       -0.054243967 0.77968633 0.33954442 -0.5491539
0000c0 4d 85 a1 be 4c b5 a5 3c a8 46 01 bf 9e 98 12 3e
       -0.31547013 0.02022805 -0.5049844 0.14316031
0000d0 49 60 1f 3e 14 e7 32 be aa b2 0f bf ca 19 91 3e
       0.15564074 -0.17470962 -0.56131995 0.28339988
0000e0 bd 7c e8 bd 10 d2 a1 3e dd df 3a 3f 94 9c a4 bd
       -0.11351917 0.31605577 0.7299784 -0.080376774
0000f0 ae c1 44 be ec 24 a6 3e 1b aa a0 3f 28 66 1c 3d
       -0.19214508 0.32450044 1.2551912 0.03818336
000100 6e 88 0a 3e e5 8d 8c 3e e6 88 29 bd 94 09 3d bf
       0.13528606 0.27452007 -0.041390322 -0.7384274
000110 15 78 d0 3c 07 4c 9c 3e 81 aa ba 3e 1d f8 b7 bd
       0.025447885 0.30526754 0.3645821 -0.08982871
000120 84 27 f7 bd bf c8 0d 3e db 23 b5 3e ef 7e 2b be
       -0.12068084 0.1384611 0.35378918 -0.1674764
000130 86 a5 16 bd 1c 22 ef bc 30 f4 11 bf 0a 24 e9 3e
       -0.03677895 -0.02919107 -0.57013226 0.45535308
000140 22 35 17 bf 17 f0 f0 3d 44 cd 05 3e c2 fb a2 bd
       -0.5906545 0.117645435 0.13066584 -0.07958175
000150 15 55 68 3d ed 80 88 be ba 3c 3c 3e a3 bf 1a 3c
       0.056721766 -0.26660863 0.1838254 0.009445104
000160 d8 cd 3b be 21 ef 9f 3e 64 9e 14 bf 4c e4 82 3f
       -0.18340242 0.31237128 -0.58054185 1.0225921
000170 5a 3d 0a 3e 2d 7b ca 3d b9 5a 7c 3e f0 71 a9 3e
       0.13499966 0.09886775 0.24643983 0.3309474
000180 97 45 c9 3d 04 24 8e 3f 65 35 63 3e d3 48 b4 be
       0.09827726 1.1104741 0.22188337 -0.3521181
000190 fb 92 d9 3d 72 d8 2c be e4 dd 27 3e 04 fb b0 bd
       0.106237374 -0.16879442 0.16393238 -0.086416274
0001a0 1c ce 60 be 8e d3 9b 3e 16 60 8e bf b6 4a 24 bf
       -0.21953624 0.3043484 -1.1123073 -0.641765
0001b0 0e 4a d8 3c 5f c7 1f 3f ad e1 49 be 28 0d 1f 3e
       0.0264025 0.6241359 -0.19714995 0.15532362
0001c0 cd ec 74 be 3f 42 a1 bf 2f 12 60 3e 94 30 c4 3f
       -0.23918457 -1.2598342 0.21881936 1.5327325
0001d0 86 93 4a bf 25 c7 85 bf 04 33 23 be 3a 00 0d 3d
       -0.7913135 -1.0451399 -0.1593743 0.034424044
0001e0 2f eb 84 be 1a 28 86 3e ef 65 99 bd 13 db 3d 3f
       -0.2596068 0.2620247 -0.074901454 0.74162406
0001f0 8e 25 62 3d c0 c1 59 bc 50 b9 25 3e 07 34 e7 3d
       0.055211596 -0.0132908225 0.16183972 0.1128922
000200 b6 5a 0b 3e 9e 89 0c 3e 8b c9 37 3d 87 5d 54 bd
       0.13608822 0.13724372 0.04486994 -0.051847007
000210 ea 74 96 bd 4d a1 4d 3e b1 6e 3b be e4 bb 20 3e
       -0.07346518 0.20081063 -0.18303944 0.15696675
000220 fc cb b4 be 94 c6 0b 3e fe 3b 6f be ec 80 98 bd
       -0.35311878 0.1364997 -0.23362729 -0.07446465
000230 6a af 05 3e a5 04 ee be 5a e1 31 be 8e c5 a4 3d
       0.13055196 -0.46487918 -0.17371121 0.08045493
000240 f5 9e b2 bd 62 97 03 be 50 a6 d3 bd 3a b5 5f be
       -0.08721725 -0.12850717 -0.10334456 -0.21846476
000250 0e d8 94 3e 35 b6 24 be 24 a3 fc 3c 6e 82 fd 3c
       0.29071087 -0.16085131 0.03083951 0.030945983
000260 f9 b4 ac be 5f 5a ce be cf 7c 12 3e f0 b0 a4 bd
       -0.3373182 -0.40303323 0.14305423 -0.08041561
000270 29 33 e1 bd 3b 56 29 be cf 7b 87 3e ce 04 ad 3c
       -0.10996086 -0.165368 0.26461646 0.021120455
000280 fa 1c 8b 3c 78 12 9b 3c bf d4 4c bc ad 6f fa 3d
       0.01698159 0.018929705 -0.0125018945 0.12228332
000290 c3 9d 21 3d 2d 24 91 3e db b9 3f 3e 16 a3 b9 bd
       0.039457094 0.28347912 0.18723242 -0.09064309
0002a0 b0 12 0c 3f 4e 01 a4 3d d9 5e 2e 3f 4f 1f 50 be
       0.54716015 0.08008061 0.68113476 -0.20324443
0002b0 91 1a 4b 3e b9 d5 0c 3d 78 4f 6e 3e 5c 9f 0c bd
       0.19834353 0.03438351 0.23272502 -0.034331664
0002c0 26 62 59 bd 2e 1e 95 bd 9a 37 97 bd 7f 50 10 3e
       -0.053072117 -0.07281147 -0.07383652 0.14093207
0002d0 1f 3d 3c 3f 11 fb ce be c5 d9 24 be 59 2c ba be
       0.73530763 -0.40425923 -0.16098697 -0.3636196
0002e0 f6 d2 e4 be ed 90 86 bf 4d cf bc 3c bc 0c 95 be
       -0.446922 -1.0512978 0.023048067 -0.29111278
0002f0 a1 47 3a 3f 73 c5 df 3e 43 c6 65 bd 88 92 3b c0
       0.7276555 0.4370533 -0.05609728 -2.9308186
000300 84 63 07 be 43 19 99 3f 3a c1 44 bf c2 47 c6 3e
       -0.13221556 1.1960834 -0.7685734 0.38726622
000310 d8 84 d5 be 71 17 bc 3e f5 65 9a 3e 09 23 0d 3f
       -0.41702914 0.36736634 0.30155912 0.55131584
000320 4f 07 30 3f e7 79 95 3e fb d5 28 be 4e 95 c0 be
       0.6876115 0.29194567 -0.16487877 -0.3761391
000330 1a a1 b4 bf 25 f8 de 3e 30 fa c9 3d ab ec 08 bf
       -1.4111664 0.43548694 0.098621726 -0.53486127
000340 1d c7 88 3e 32 22 0d bf 5e f0 30 3c 64 c9 45 3f
       0.2671441 -0.551303 0.0107994955 0.7726042
000350 8c aa 45 3e c3 08 80 3e 6f 5f d4 3e 4a 20 4a 3d
       0.1930334 0.25006685 0.4147906 0.0493472
000360 55 52 05 40 38 21 7d 3b d5 16 10 3f 03 ed 8a be
       2.0831501 0.0038624536 0.5628484 -0.2713395
000370 bc ee 59 bf 37 8f ed 3e b6 e7 89 3e d3 7c 2a 3f
       -0.85129905 0.46398327 0.26934594 0.66596717
000380 cf ee c4 be 47 44 45 bf 2a 73 9c bf d3 fb a5 3e
       -0.38463446 -0.7705731 -1.2222645 0.3241869
000390 34 3a f6 be b4 b8 1c bd 10 d4 52 bd 41 df 80 bd
       -0.4809128 -0.038262084 -0.05147177 -0.06292582
0003a0 b8 5a b4 bd a3 e1 10 3f ea 97 5a be 52 82 3b be
       -0.08806366 0.56594294 -0.21347013 -0.18311432
0003b0 dd ca 94 be 16 88 44 3b 72 97 6e 3d c9 62 6a bd
       -0.29061022 0.002998834 0.0582499 -0.057223115
0003c0 09 6e 3a bf 43 1d fa 3e 36 de a5 3e 66 b1 ee 3e
       -0.7282415 0.4885045 0.32396096 0.4661972
0003d0 99 54 25 3e 88 4b f0 3e 48 db f9 bc 1f 21 02 c0
       0.16145553 0.46932626 -0.03050007 -2.0332716
0003e0 53 9f a5 3d 58 91 63 be aa 0a cd 3f a1 65 b2 be
       0.08087029 -0.22223413 1.601888 -0.34843162
0003f0 6c 64 de 3b 32 15 34 3e 4a 8b 0e 3f 24 70 86 bd
       0.0067868736 0.1758621 0.5568129 -0.06564358

head_conv.2.point_wise_1.bias f4 [32]
000000 7f 8b cd 3d a0 e1 f6 3d 19 c2 aa bf 35 2e 1a 3d
       0.100363724 0.12054753 -1.3340484 0.037641723
000010 f3 b8 2a 3e b6 29 83 3e 7a 0f 01 be fb 7a 41 3e
       0.16672115 0.2561776 -0.1260356 0.1889457
000020 8e ae f1 bd bb fc fd 3e 18 70 47 3e 2e b0 b4 bc
       -0.11800872 0.4960688 0.19476354 -0.022056665
000030 95 07 97 3f 4e ee 56 bf b6 22 64 be fb 51 d7 3d
       1.1799189 -0.83957374 -0.22278866 0.105136834
000040 09 0e c1 3e 74 af 2c bf 94 e3 8f 3f 8f ca d7 3e
       0.3770602 -0.6745522 1.1241326 0.42146727
000050 30 bc 33 3f 5f b0 37 be 85 98 4e 3f 4e 25 86 be
       0.70209026 -0.17938374 0.80701476 -0.26200336
000060 6c 0c 03 3c e1 ce 8e be fb 0f e8 bd f3 83 86 be
       0.007998567 -0.2789221 -0.11331173 -0.26272544
000070 48 c4 fa bc c4 f4 67 3e 13 21 72 c0 77 22 05 3d
       -0.030611172 0.22651964 -3.7832687 0.03250357

head_conv.2.depth_wise_1.weight f4 [32, 1, 3, 3]
000000 b1 93 c0 3e 1a 62 1e 3e 96 4d 1f 3d f0 1d 1d bf
       0.3761268 0.1546711 0.03889235 -0.61373806
000010 12 13 db 3d 0c b8 ba bd 16 81 a0 3d 34 90 d8 be
       0.10696997 -0.091171354 0.07837121 -0.42297518
000020 94 ef 82 be 21 f9 cf 3e 07 dc 54 3e fd 39 ca 3d
       -0.2557341 0.40619758 0.20787059 0.09874342
000030 f1 05 de 3d 50 0a 2b bf fe 84 aa be 84 cc de 3e
       0.10840977 -0.6681261 -0.3330459 0.43515408
000040 12 f3 99 3e f7 37 1c 3c 2a 58 81 be db 7c 3d be
       0.3006826 0.009534827 -0.25262576 -0.1850466
000050 9e d6 8c be e4 fb 49 3d 7f dc b5 3f 94 5a 1c be
       -0.2750749 0.049312487 1.4207915 -0.15268928
000060 9c 4e 22 3e a4 db 5d 3e 52 f2 54 bd e2 d5 78 3e
       0.158503 0.21665817 -0.051988907 0.2430034
000070 ba 9f 88 3e fb f0 1a bd 61 b3 c2 be 72 99 8e bf
       0.26684362 -0.037827473 -0.3802748 -1.1140578
000080 ff 71 90 3e 6d 2f c3 bd 7d 35 0b be d4 08 ba 3d
       0.28211972 -0.0953053 -0.13594623 0.09083715
000090 ba c6 4f 3e 86 f2 0a 3d a1 e7 09 3f 04 01 29 bd
       0.20290652 0.033922695 0.5386906 -0.041260734
0000a0 0a db ad bc 3f 7e 0a 3c 15 28 8a 3e db ed 19 3e
       -0.02122261 0.008452951 0.26983705 0.15032141
0000b0 a9 6e 9f 3e d0 05 56 3e 16 4a 93 3d dd 77 39 bd
       0.31139114 0.20900655 0.07191865 -0.045280326
0000c0 3d 15 43 3d e6 b6 1f be e7 14 a5 be 95 0c 3b bf
       0.047627676 -0.15597114 -0.3224251 -0.73066074
0000d0 be d4 90 bd e4 0e 05 3f 39 c2 b6 be 7e c8 e2 bd
       -0.07071827 0.51975846 -0.35695055 -0.11073397
0000e0 4c d2 c0 3d 32 f3 9a bd f3 e2 ed 3e 50 5f 20 be
       0.09415111 -0.07565917 0.4646221 -0.15661359
0000f0 1f 34 ca bc a0 8c e0 bd 50 41 83 3e 12 2d 84 bd
       -0.024683056 -0.10964322 0.25635767 -0.06453909
000100 44 88 f0 be 92 d4 b6 3d a1 83 6d be 4f 48 a5 3e
       -0.46978962 0.08927263 -0.23194744 0.3228173
000110 b0 95 93 3d 3d 95 94 3c 4b c4 c9 3e eb 16 89 bd
       0.07206285 0.018137569 0.39407572 -0.066938244
000120 e4 6a e9 bd 5e 8f a8 be cf c6 ef bd 25 2d a9 be
       -0.11397341 -0.3292188 -0.117078416 -0.33042255
000130 dd ff 90 3f 47 37 a4 be 38 6f 69 be c1 b1 19 be
       1.1328083 -0.32073423 -0.22796333 -0.15009214
000140 15 1f 46 be ba ad 7f bf 25 c4 28 3f c3 0a 05 3f
       -0.19347794 -0.9987446 0.6592429 0.51969546
000150 63 e4 72 bf b9 19 75 be 33 3d 6f 3f 4b 02 81 3e
       -0.9487974 -0.23935594 0.9345276 0.25197062
000160 24 b4 9b be 01 92 0a be a1 8a a4 be 6a 21 2a bf
       -0.30410874 -0.13532259 -0.32137015 -0.66457236
000170 21 4c 30 bf 18 e3 d3 bd 56 43 e7 be e4 34 b3 be
       -0.68866163 -0.10346049 -0.4516856 -0.3500129
000180 01 e3 d2 3e 0a 9b 7f 3f c2 67 40 3f 32 3f eb 3e
       0.41188815 0.99845946 0.7515832 0.45946652
000190 45 b7 c5 bc 5f 15 66 bd 7c c1 03 bc bb 46 a9 be
       -0.024135241 -0.056172725 -0.008041736 -0.33061776
0001a0 cb 7c d8 bd 71 a0 02 3f 61 75 13 be b0 72 e2 be
       -0.10570677 0.51026064 -0.14400245 -0.44228125
0001b0 8a 2e a9 3f 45 9f 6a bf 54 82 d8 3d bd 61 37 bf
       1.3217328 -0.91649276 0.10571733 -0.7163351
0001c0 d6 06 dc be 1a c7 33 bf 49 43 45 3f f8 4c f7 be
       -0.42973965 -0.7022568 0.77055794 -0.4830091
0001d0 50 63 8c 3f e4 44 bc 3e e3 0f 84 3e be f8 b2 3d
       1.0967808 0.3677131 0.2579337 0.0873885
0001e0 ec 59 e8 3e 17 d8 3e 3f 3a 50 8a bd 96 01 a8 bd
       0.45381105 0.74548477 -0.06753583 -0.082034275
0001f0 95 ea d2 bd ae 7e 08 bd 0c 12 6d 3d 5b 77 98 bd
       -0.10298649 -0.033323936 0.05787854 -0.0744464
000200 ab 8b 04 be a1 a8 f8 3d 1a 4c 01 3d a5 e3 92 3d
       -0.12943904 0.121415384 0.031566717 0.07172326
000210 5d af f6 bc 46 58 6b 3d c1 31 80 3c 23 02 75 be
       -0.030112917 0.05745723 0.015648725 -0.23926596
000220 2c 1b d1 bd 41 7a 00 bd b8 71 4c 3b dc 61 83 3f
       -0.10210261 -0.03136659 0.0031195711 1.0264239
000230 a3 4b 2d be dd 26 9e be cb 36 e2 bc ee 9c 09 be
       -0.16923384 -0.30889025 -0.027614018 -0.1343877
000240 f2 e5 4c 3e 64 f7 19 3d e2 84 11 3e 1b ef 87 bd
       0.20009592 0.037589446 0.14210847 -0.066374026
000250 f9 af 59 3f 9a bd 15 bc f5 1d 8e 3d 93 66 ba 3a
       0.8503414 -0.009139443 0.069393076 0.0014221243
000260 6c 52 4b 3e d1 05 05 be 01 f2 af be a6 39 2c 3d
       0.1985566 -0.129905 -0.34364322 0.042047165
000270 0a 14 f9 bc 57 7c 08 40 0c f0 8a be c5 25 42 bd
       -0.030405063 2.132589 -0.27136266 -0.0473993
000280 94 14 7c be b2 05 6b 3d 10 05 c6 c0 47 8e a4 3d
       -0.24617225 0.05737848 -6.188118 0.0803495
000290 00 e3 d5 3e 03 5a b0 c0 9a b9 cf 3e 06 91 57 3e
       0.4177475 -5.5109878 0.4057129 0.21051416
0002a0 6b 19 7d c0 fb 93 c1 bd d4 df fd 3e c1 71 75 bd
       -3.9546764 -0.09452053 0.4958483 -0.059922937
0002b0 69 cf f7 bd 22 c2 83 be fd d2 cf 3e b1 48 f2 be
       -0.12100107 -0.2573405 0.4059066 -0.47321084
0002c0 68 d1 93 3e f2 bb be be 34 94 fa 3d 25 01 c4 c0
       0.28870702 -0.37252766 0.12235299 -6.1251397
0002d0 0b db 31 3f 15 4f 96 3e 00 af 2a be 1e e0 fe be
       0.6947486 0.2935721 -0.1666832 -0.49780363
0002e0 0c c6 67 be bd d9 8d 3e c1 4f 27 be cb 45 c0 bd
       -0.22634143 0.27705184 -0.16339017 -0.09388312
0002f0 06 a7 ae be 30 e1 1c bf f7 1d 5c be 23 23 02 be
       -0.34111804 -0.6128111 -0.21495806 -0.12708716
000300 66 a1 07 bd 3e 97 38 3e 89 c2 cd bd 80 bb a7 be
       -0.033112906 0.18026444 -0.1004687 -0.3276024
000310 52 f0 65 3c 78 84 b3 bc 6f 3a d6 bd 22 87 51 3e
       0.014034348 -0.021913752 -0.10460364 0.20461705
000320 7b 21 e4 bd 5b e9 9b 3e 56 24 9e bf 8a 49 2e 3d
       -0.111391984 0.30451474 -1.2354839 0.0425506
000330 c9 fa 85 bd 8d 92 e5 3d ba 31 69 bc b2 af a7 3d
       -0.06541974 0.11209593 -0.014233047 0.08187808
000340 7b 77 ff bc 97 42 f1 3d fe 1e 83 3d a8 39 44 3e
       -0.031184902 0.11780279 0.06402396 0.19162619
000350 9c af 5c bd af 7b 76 3d 31 d6 65 3c 60 dd 7e bd
       -0.05387841 0.060176548 0.014028118 -0.06222284
000360 40 f9 a5 3c a1 91 6d bc 3c 3c ae be 2d c0 06 3e
       0.020260453 -0.014500053 -0.3403033 0.13159247
000370 a0 35 52 be f4 03 8a bc 93 79 cb 3d 77 dc 39 bd
       -0.20528269 -0.016847588 0.09935298 -0.045376267
000380 57 96 14 be e2 26 e2 3d 8d df d0 3c bd 81 e7 3d
       -0.14510475 0.110425726 0.025497222 0.113040425
000390 68 49 16 3d 5c 39 f2 3c 38 bd 84 bd fd c4 a1 bc
       0.0366911 0.029568367 -0.06481403 -0.019747252
0003a0 96 3a 1d bd 9f a9 00 3d ba d9 b3 bc d5 e6 ad 3e
       -0.03838595 0.031411763 -0.021954406 0.33965173
0003b0 41 ab 87 3d 6c 4c 97 bd 43 df 7a be e1 b5 75 be
       0.06624461 -0.07387623 -0.2449923 -0.23995163
0003c0 03 a9 d5 3e 05 64 d2 bd 9a 5e 6b 3e 6b a0 99 bf
       0.41730508 -0.102729835 0.22985306 -1.2002081
0003d0 7b 94 8f bf c6 f9 29 3f 18 91 49 3f 13 b2 8c be
       -1.1217188 0.6639675 0.7873702 -0.2747961
0003e0 83 e6 34 3e 12 c3 e5 3e 5d 32 30 3f 32 f7 ab 3e
       0.17666058 0.4487539 0.6882685 0.33587033
0003f0 52 cb 23 3e 54 1e a4 bd fa 74 59 3e ac c5 10 be
       0.1599553 -0.08013597 0.2123603 -0.14137906

head_conv.2.depth_wise_1.bias f4 [32]
000000 de b5 66 3d 6e 15 47 3e 42 d4 26 b9 11 a6 98 3e
       0.056325786 0.19441769 -0.00015910066 0.298142
000010 f4 60 0c 3f 62 08 8a 3c b5 2b 48 3e e0 3a ab 3e
       0.5483544 0.0168497 0.19547923 0.33443356
000020 40 06 33 3f 2f 27 14 3d c6 b0 11 bc aa 6e c8 3d
       0.6993141 0.03617018 -0.008892244 0.097867325
000030 03 a3 84 3e 52 b3 1a 3c 98 0f 8b be 18 e6 26 3f
       0.25905618 0.009442167 -0.27160335 0.65194845
000040 8a 5a a6 3d 19 9b d1 bd a9 b7 f0 3e 8a a1 b0 3e
       0.08122738 -0.10234661 0.47015122 0.34498245
000050 7f ab bf bd 78 f1 18 3f b9 45 1b 3e 0e 25 0f bf
       -0.09358882 0.5974345 0.15163316 -0.55915916
000060 c8 0e 09 3f 3f 80 03 bf 69 b9 4a bd b9 c0 5f 3d
       0.5353818 -0.51367563 -0.049493227 0.054627154
000070 e4 a2 48 3f 96 b0 e1 bc 5f c3 18 c0 42 34 8c 3c
       0.7837355 -0.027550023 -2.3869245 0.017114762
