codes/Weights/wv3/weight-620.pth (torch, 92405 bytes, 80 tensors)

head_conv.0.point_wise_1.weight f4 [9, 9, 1, 1]
0.42138454 -0.7130904 0.8705062 -0.48032525 -0.05750806 -0.96108586 0.00702908 -0.70194256
0.27643597 -0.0008955435 -0.12944135 -0.2952644 0.20466702 -0.53211546 1.6937928 -2.4570546
-1.100299 2.194413 0.09925971 -2.1653535 -2.1296134 1.7419474 -1.0401143 -0.35277024
-0.013487572 0.47484988 -0.33431688 -0.006110535 -1.4526962 -1.1743832 -0.33940765 -0.4694447
-1.2158451 -0.82447034 2.7357817 1.6825054 -0.6680383 -1.5372756 1.1969877 0.6807287
-1.3748739 -2.178547 1.545135 -0.62831485 -0.12237915 -2.2894971 0.6564724 -0.388982
-0.41196814 1.6622728 0.14812747 0.17219208 0.4446699 0.68345267 0.05034966 -1.8241593
-1.6872464 -1.174883 0.57298213 0.8788319 2.4970827 -1.3793507 0.2632287 0.015861994
-0.62205607 -0.22695063 1.260682 0.34814736 -0.35347456 -2.1723025 -1.4725262 4.0137424
-0.04697084 0.45476985 -1.0691786 -0.064431675 2.5980973 -2.5422797 -0.09886659 -0.9570157
1.5579447
00000000: b7bf d73e 188d 36bf 7fd9 5e3f 31ed f5be
00000010: 928d 6bbd b909 76bf 3254 e63b 82b2 33bf
00000020: 0489 8d3e e8c2 6aba 468c 04be e52c 97be
00000030: 3b94 513e b838 08bf 34ce d83f 6240 1dc0
00000040: 99d6 8cbf 4371 0c40 ad48 cb3d 2795 0ac0
00000050: 964b 08c0 22f8 de3f 7722 85bf 4d9e b4be
00000060: fafa 5cbc 861f f33e 952b abbe e23a c8bb
00000070: f3f1 b9bf 3052 96bf d7c6 adbe 0e5b f0be
00000080: d0a0 9bbf 7d10 53bf 0c17 2f40 565c d73f
00000090: 8f04 2bbf 72c5 c4bf e536 993f 3c44 2e3f
000000a0: defb afbf 506d 0bc0 fcc6 c53f 3ed9 20bf
000000b0: eba1 fabd 1f87 12c0 930e 283f a628 c7be
000000c0: 7ded d2be 5bc5 d43f baae 173e 1f53 303e
000000d0: c6ab e33e c1f6 2e3f 723b 4e3d 0d7e e9bf
000000e0: b1f7 d7bf 9162 96bf f5ae 123f 21fb 603f
000000f0: 34d0 1f40 908e b0bf eac5 863e 03f1 813c
00000100: 113f 1fbf bf65 68be 075e a13f 5f40 b23e
00000110: 9efa b4be 0107 0bc0 bd7b bcbf 9470 8040
00000120: 7f64 40bd 98d7 e83e d8da 88bf c1f4 83bd
00000130: 3a47 2640 b6b4 22c0 917a cabd fbfe 74bf
00000140: bb6a c73f

head_conv.0.point_wise_1.bias f4 [9]
0.16834104 0.15029797 0.31114286 0.035960868 0.24335393 0.012007972 0.4116588 -0.052780382
0.04844458
00000000: 9861 2c3e b6e7 193e 1e4e 9f3e b44b 133d
00000010: c631 793e 16bd 443c f1c4 d23e 3e30 58bd
00000020: d36d 463d

head_conv.0.depth_wise_1.weight f4 [9, 1, 3, 3]
0.43014303 0.17323174 0.23043783 -0.040096235 -1.3678693 0.14882264 -0.028115096 -0.027318364
0.23466684 0.21930864 -0.6783089 0.38876435 -0.7029621 -1.7518803 -0.074183665 0.10966707
-0.38531348 0.20115781 0.22507659 0.6017402 -0.06270845 0.86544585 0.45802107 0.69301116
-0.044961307 0.5866214 -0.52859306 0.6296571 -1.0820837 -0.2824644 -1.3045156 2.235069
0.6767429 -0.42976296 0.663258 -0.1330361 -0.04221512 0.083394356 -0.15014805 0.07259332
2.2395484 0.097174294 -0.07603552 0.20946278 -0.09651472 -0.21402319 -0.53587663 -0.24904811
-0.48300985 0.08986493 -0.5472366 -0.24553734 -0.4614212 -0.28764236 0.031957183 -1.0827237
0.6590245 0.6483865 3.0606766 -1.0496464 -0.34282628 0.17643599 0.3837417 0.1292992
-0.015560681 0.4612571 -0.7012143 -2.5923722 1.6078805 0.22018428 0.37460765 0.5116338
-0.5795164 0.074344575 -0.2799017 -0.3414098 -0.60468596 -0.44408035 0.10960664 -0.4227479
0.19581266
00000000: b53b dc3e a963 313e e5f7 6b3e f33b 24bd
00000010: 5716 afbf f664 183e a151 e6bc c3ca dfbc
00000020: 814c 703e 7292 603e a7a5 2dbf 1f0c c73e
00000030: 53f5 33bf 9d3d e0bf 9bed 97bd 2199 e03d
00000040: cf47 c5be 50fc 4d3e 7a7a 663e a50b 1a3f
00000050: 4a6d 80bd dc8d 5d3f bd81 ea3e 2e69 313f
00000060: 5929 38bd d22c 163f e051 07bf 3531 213f
00000070: b881 8abf 2d9f 90be 5efa a6bf 5f0b 0f40
00000080: 063f 2d3f e409 dcbe 47cb 293f 9e3a 08be
00000090: c3e9 2cbd a9ca aa3d 69c0 19be ceab 943d
000000a0: c354 0f40 5103 c73d 83b8 9bbd 697d 563e
000000b0: 82a9 c5bd e528 5bbe 362f 09bf 7806 7fbe
000000c0: 114d f7be 1b0b b83d b317 0cbf 246e 7bbe
000000d0: 663f ecbe dc45 93be 89e5 023d b196 8abf
000000e0: d4b5 283f a8fc 253f 20e2 4340 d05a 86bf
000000f0: ed86 afbe a3ab 343e cb79 c43e 0267 043e
00000100: 3af2 7ebc e429 ec3e c882 33bf 6de9 25c0
00000110: 07cf cd3f fd77 613e 93cc bf3e 6ffa 023f
00000120: 305b 14bf f841 983d 474f 8fbe 44cd aebe
00000130: b3cc 1abf 805e e3be 7279 e03d 6a72 d8be
00000140: 1d83 483e

head_conv.0.depth_wise_1.bias f4 [9]
0.17654003 -0.025116546 -0.036910005 -0.064963505 0.09246599 -0.025597336 0.018273683 0.0006252037
0.03509072
00000000: e9c6 343e 37c1 cdbc f22e 17bd 960b 85bd
00000010: cf5e bd3d 81b1 d1bc b1b2 953c b6e4 233a
00000020: 49bb 0f3d

head_conv.0.point_wise_2.weight f4 [9, 9, 1, 1]
-1.6846858 0.028391004 0.12797332 0.24267088 0.52430046 1.3475697 -0.18623255 0.38805938
-0.5775395 -0.0115745505 -0.820399 -0.85680044 0.23530728 -0.39720762 1.7411141 -1.7080015
-1.0620008 2.524122 -0.048053034 2.7372694 1.0633014 -2.726728 0.58405465 0.35197693
-0.07891635 0.28566566 -0.30836695 0.030619597 -0.32995376 0.61294115 0.8889216 -0.12869179
-1.631265 0.71375805 0.9431635 -1.9332515 0.0033334978 -0.27321872 1.0145174 0.42315838
-0.18703175 -1.3193172 1.7917557 -0.81097746 -0.7020423 -0.26218376 -0.0752816 0.9239122
0.3384971 -0.2449856 0.7443509 -0.93218255 1.5155264 -1.8418475 -0.04298296 -1.5747206
-0.9286329 -1.3474766 0.22843087 2.4621239 1.0951762 -0.37592405 -0.41925153 0.090049624
2.4117997 -1.6794055 -0.37111375 1.7103016 -0.3559257 -1.8375348 1.2356235 -1.1574428
-0.014329366 1.0106353 -0.5541529 0.3224074 3.2327244 -2.9184093 0.25414455 -1.1404817
1.6387441
00000000: c9a3 d7bf 4094 e83c 700b 033e b77e 783e
00000010: 8e38 063f 2a7d ac3f bfb3 3ebe b8af c63e
00000020: a1d9 13bf 2fa3 3dbc ab05 52bf 4657 5bbf
00000030: 64f4 703e cc5e cbbe d4dc de3f cb9f dabf
00000040: a4ef 87bf 378b 2140 42d3 44bd 6c2f 2f40
00000050: 431a 883f b682 2ec0 9b84 153f 5236 b43e
00000060: e59e a1bd c542 923e 46e2 9dbe f3d5 fa3c
00000070: b3ef a8be b6e9 1c3f 5e90 633f c8c7 03be
00000080: 4bcd d0bf d9b8 363f 2a73 713f c974 f7bf
00000090: d076 5a3b 53e3 8bbe b5db 813f 37a8 d83e
000000a0: 4085 3fbe 63df a8bf 4058 e53f 389c 4fbf
000000b0: 0bb9 33bf f33c 86be 3d2d 9abd 8385 6c3f
000000c0: 7e4f ad3e 81dd 7abe c88d 3e3f 84a3 6ebf
000000d0: c5fc c13f a9c1 ebbf e60e 30bd 7290 c9bf
000000e0: e3ba 6dbf 1d7a acbf c8e9 693e 7093 1d40
000000f0: bc2e 8c3f 1e79 c0be 23a8 d6be f06b b83d
00000100: ed5a 1a40 c2f6 d6bf 9f02 bebe 2aeb da3f
00000110: e53b b6be 5734 ebbf e928 9e3f 1627 94bf
00000120: b8c5 6abc 7f5c 813f f7dc 0dbf 9512 a53e
00000130: f5e4 4e40 38c7 3ac0 3c1f 823e 4efb 91bf
00000140: 5ec2 d13f

head_conv.0.point_wise_2.bias f4 [9]
-0.074680135 0.12200411 -0.11255645 -0.062317926 -0.016111625 -0.10891303 0.2568318 0.011186037
-0.13874204
00000000: e6f1 98bd 4add f93d ff83 e6bd 1541 7fbd
00000010: 87fc 83bc cb0d dfbd 757f 833e a445 373c
00000020: 6512 0ebe

head_conv.0.depth_wise_2.weight f4 [9, 1, 3, 3]
0.2953874 0.2523748 0.16228741 0.17151614 2.1769993 0.18212885 0.102765255 0.14843577
0.13555351 0.603682 -0.76953906 0.77498406 -0.78081334 -2.963535 0.8319489 0.51377416
-1.0025274 0.32349423 0.21853414 -0.9283571 0.523995 -0.82054585 -0.14060637 -1.1227195
-0.0741923 -1.3000073 0.19802932 -0.49879125 -0.10979731 0.8198315 0.43422857 -0.69858897
0.17071353 0.30189946 -0.0497474 -0.29328987 0.21648085 -0.122496665 0.32795954 -0.19637902
-0.07512285 -0.25829825 0.5816042 -0.5602687 0.35201043 -0.4980783 -0.16999994 -0.6383042
0.41758263 1.2054996 0.52421445 -0.28638467 -0.23103191 -0.5536668 -0.51712227 0.11330854
-0.20193954 0.6238909 0.985561 -0.5720681 -0.3429424 0.6949183 -0.51737064 -0.057212755
0.6342918 0.03437913 0.63172776 2.7545831 0.65818965 0.027886892 0.39734825 -0.27212718
0.94901556 -0.078509934 -0.2994907 -0.8066222 -2.6053953 -0.17349778 -0.029179484 -1.6011971
0.31205863
00000000: 043d 973e 4537 813e ac2e 263e eda1 2f3e
00000010: f553 0b40 fc7f 3a3e 9776 d23d 8cff 173e
00000020: 8ace 0a3e e78a 1a3f 8300 45bf 5b65 463f
00000030: 62e3 47bf 8faa 3dc0 9afa 543f b486 033f
00000040: d152 80bf 09a1 a53e 6ac7 5f3e d0a8 6dbf
00000050: 8924 063f 4b0f 52bf 1efb 0fbe 46b5 8fbf
00000060: 22f2 97bd a466 a6bf 33c8 4a3e 9161 ffbe
00000070: 69dd e0bd 7ae0 513f 3553 de3e bad6 32bf
00000080: 87cf 2e3e 9192 9a3e eec3 4bbd 172a 96be
00000090: 28ad 5d3e 88df fabd 50ea a73e 9517 49be
000000a0: 02da 99bd ab3f 84be 03e4 143f c56d 0fbf
000000b0: b63a b43e 1e04 ffbe 7714 2ebe e767 23bf
000000c0: 64cd d53e d04d 9a3f eb32 063f 03a1 92be
000000d0: a193 6cbe 1bbd 0dbf 2062 04bf 4f0e e83d
000000e0: 3dc9 4ebe 50b7 1f3f ba4d 7c3f 0e73 12bf
000000f0: 2596 afbe 2ae6 313f 6772 04bf ec57 6abd
00000100: f360 223f 21d1 0c3d e9b8 213f 174b 3040
00000110: 1e7f 283f 0d73 e43c 3b71 cb3e 4154 8bbe
00000120: aff2 723f d1c9 a0bd d856 99be cb7e 4ebf
00000130: ccbe 26c0 67a9 31be d009 efbc 07f4 ccbf
00000140: 26c6 9f3e

head_conv.0.depth_wise_2.bias f4 [9]
0.17654003 -0.025116546 -0.036910005 -0.064963505 0.09246599 -0.025597336 0.018273683 0.0006252037
0.03509072
00000000: e9c6 343e 37c1 cdbc f22e 17bd 960b 85bd
00000010: cf5e bd3d 81b1 d1bc b1b2 953c b6e4 233a
00000020: 49bb 0f3d

head_conv.1.point_wise_1.weight f4 [20, 9, 1, 1]
0.40278974 -0.78649276 1.3787808 0.19453152 -0.33723173 0.6915478 0.09895024 0.7508427
-0.64111054 -0.12702166 0.38748115 0.33273286 1.5544474 0.4046244 -0.055535328 -0.07763615
-0.2077391 -0.18540931 -0.22125874 0.87888396 -0.28564438 -0.1962271 0.4847167 0.06925753
-2.0926766 -0.3764225 -0.38322762 -0.32967412 1.3319904 -0.3241324 -0.27061146 1.0645742
0.077475175 1.1596253 0.024875812 0.23126052 -0.16462862 -0.027199904 0.21851136 -0.18657167
0.44547278 -0.03461941 -0.031164587 0.21979462 0.5383657 0.20839834 -0.65934145 -0.5744713
0.7130693 -0.5989774 -0.0673035 -0.5150256 1.3430544 0.06217596 -0.26109374 -1.351661
0.12487297 -0.08653266 0.42741168 -0.09894617 -0.20222867 -0.86319846 -0.4787413 0.47081378
0.40849164 1.139673 -0.6879245 -0.55304694 -0.045134272 -0.70302105 0.9974591 -0.12064064
0.29525393 0.073171236 0.99125826 0.036213525 -0.92657965 -0.10028385 -0.20423229 -0.037303843
-0.06561269 -0.15783697 0.070441745 -0.3574754 -0.18937002 -0.048966557 -0.2817205 -0.29052266
0.0211449 -0.03239504 0.028266262 -0.0039332197 -0.38104403 0.2523189 0.30565423 0.09173092
0.11204105 0.076369226 -0.5605676 -0.24339834 -0.097887255 -0.38590056 -0.06406794 0.15117306
0.02389327 -0.16539153 -0.6169318 -0.16831651 -0.07255521 -0.42253682 0.5275107 -0.28725776
0.07736679 -0.0026939916 -0.57142323 -0.6441724 -0.5137766 0.21725978 0.5973476 1.0013407
-0.5080116 -0.31579 -0.064315975 0.3041868 0.32799816 -1.3717995 0.039743368 -0.21507066
-0.77450943 -0.09089599 -0.14792068 -0.42457616 -0.31453058 0.34498534 -0.046117768 -0.047770206
0.5920573 -1.022457 -0.024925822 0.11912237 -0.02992551 0.35827804 0.39440668 -2.4794946
-0.0768703 2.564943 -1.0289603 -0.19355956 0.4290441 0.0029835764 1.0134901 1.401955
0.60389084 -0.066779934 0.15942869 -0.040623292 -0.32942834 0.2117952 -0.24675654 -0.120736174
0.5652702 0.33796543 -0.8946854 -0.18996993 -0.15061195 -0.4322345 -0.51928174 -0.7252063
-0.24137911 0.57369304 0.027377073 0.39516988 -0.0013545002 0.18065874 -0.029115781 -0.13201348
0.55870813 -0.09489453 -0.08443087 -0.089391254
00000000: 753a ce3e 9757 49bf e47b b03f 4533 473e
00000010: a3a9 acbe 4709 313f 6ca6 ca3d 3a37 403f
00000020: d21f 24bf f711 02be ee63 c63e f65b aa3e
00000030: 22f8 c63f ee2a cf3e 0379 63bd b4ff 9ebd
00000040: 8fb9 54be f0db 3dbe a791 62be 8afe 603f
00000050: fb3f 92be c2ef 48be ca2c f83e e4d6 8d3d
00000060: 6aee 05c0 73ba c0be 6936 c4be 0ccb a8be
00000070: a97e aa3f aff4 a5be 968d 8abe f843 883f
00000080: 4eab 9e3d 9a6e 943f 5cc8 cb3c 8fcf 6c3e
00000090: 6894 28be 55d2 debc 71c1 5f3e a50c 3fbe
000000a0: 0215 e43e 15cd 0dbd e04c ffbc d711 613e
000000b0: 56d2 093f 6066 553e 9aca 28bf 8d10 13bf
000000c0: b68b 363f 9556 19bf 6bd6 89bd b8d8 03bf
000000d0: 35e9 ab3f 38ac 7e3d 14ae 85be 3a03 adbf
000000e0: 66bd ff3d 0938 b1bd b4d5 da3e 4aa4 cabd
000000f0: 0815 4fbe 93fa 5cbf 941d f5be 810e f13e
00000100: d125 d13e cee0 913f d21b 30bf 7c94 0dbf
00000110: b7de 38bd 30f9 33bf 7b59 7f3f 7112 f7bd
00000120: 862b 973e cdda 953d 1ac3 7d3f a254 143d
00000130: 5334 6dbf 9f61 cdbd 4522 51be eacb 18bd
00000140: f25f 86bd 04a0 21be c343 903d 0407 b7be
00000150: 37ea 41be 2891 48bd ab3d 90be 63bf 94be
00000160: 1238 ad3c a9b0 04bd a68e e73c 3de2 80bb
00000170: 3418 c3be f12f 813e b67e 9c3e 6cdd bb3d
00000180: c775 e53d 7867 9c3d 5c81 0fbf 6a3d 79be
00000190: 1d79 c8bd c294 c5be 0d36 83bd 1ccd 1a3e
000001a0: d2bb c33c 665c 29be 3eef 1dbf 2a5b 2cbe
000001b0: d397 94bd bf56 d8be f10a 073f 7313 93be
000001c0: 7b72 9e3d ae8d 30bb cb48 12bf 7be8 24bf
000001d0: dd86 03bf 5979 5e3e c6eb 183f ef2b 803f
000001e0: 0c0d 02bf 3aaf a1be 18b8 83bd 5fbe 9b3e
000001f0: 60ef a73e 2097 afbf f1c9 223d 7c3b 5cbe
00000200: 4046 46bf ad27 babd 8578 17be 0c62 d9be
00000210: 270a a1be eba1 b03e fce5 3cbd b1aa 43bd
00000220: 1191 173f dfdf 82bf 3d31 ccbc 6ef6 f33d
00000230: 5826 f5bc 3870 b73e acef c93e 0ab0 1ec0
00000240: 2d6e 9dbd 0728 2440 f9b4 83bf 7a34 46be
00000250: abab db3e 1b88 433b 0bba 813f 4373 b33f
00000260: 9798 1a3f ebc3 88bd 4641 233e 9c64 26bd
00000270: d5aa a8be d7e0 583e bfad 7cbe 8744 f7bd
00000280: 8cb5 103f ce09 ad3e 1a0a 65bf 7a87 42be
00000290: 053a 1abe d74d ddbe a6ef 04bf 1fa7 39bf
000002a0: 162c 77be 8cdd 123f e245 e03c b553 ca3e
000002b0: 7c89 b1ba 9bfe 383e 3884 eebc 8b2e 07be
000002c0: 7f07 0f3f 1058 c2bd 18ea acbd c312 b7bd

head_conv.1.point_wise_1.bias f4 [20]
-0.07147244 0.4058012 0.11277362 0.015010211 -0.09833131 0.1023674 -0.165216 0.116390646
0.42559853 -0.08162127 -0.094008885 -0.13064355 0.39814144 0.20648612 -0.16149811 -0.15015553
0.0051091146 -0.2028831 -0.029254645 0.049104407
00000000: 2560 92bd 2dc5 cf3e dbf5 e63d 63ed 753c
00000010: ed61 c9bd 00a6 d13d 622e 29be 385e ee3d
00000020: 0de8 d93e 0d29 a7bd bb87 c0bd 6cc7 05be
00000030: 32d9 cb3e 1971 533e c35f 25be 5fc2 19be
00000040: 5c6a a73b 96c0 4fbe 70a7 efbc b421 493d

head_conv.1.depth_wise_1.weight f4 [20, 1, 3, 3]
0.40281558 -0.34007463 0.22903723 -0.42618293 1.6437111 -0.65580505 -0.12605006 -0.29569638
0.026923032 0.034474444 0.36515275 0.28988895 0.009949379 0.6706197 -0.1007833 -0.28145278
-0.18325816 0.027013933 0.46542937 -0.4724712 -0.22237782 0.88543105 -1.0320108 -0.7914008
-0.6046913 0.6752504 0.5988773 0.471316 -0.9130105 -0.027195767 -0.24668558 -0.12246545
-0.19431938 -0.28111914 1.2679323 0.31194383 0.4452848 0.35878173 -0.94526875 0.6370837
0.8789553 -0.97221965 -1.1178898 0.17235643 0.4519612 0.2595983 -0.12765221 0.25513434
-0.26520333 -0.03668333 -0.0271819 0.501151 0.29902628 0.29825965 0.9883431 -0.026367763
-0.3315129 -0.15619671 0.6895756 -0.51666814 0.11014101 -0.1445734 -0.44359592 0.005746117
0.20262465 0.12028831 0.0900865 0.7770998 -0.0062257014 -0.04268583 -0.24795572 -0.04622651
-0.8680537 0.5455844 -0.81983185 0.4081199 1.3266056 0.20965761 -0.59329176 0.42424238
-0.8799558 -0.49556598 0.30163977 -0.36487913 0.1800955 0.7133155 -0.08584499 -0.24532217
0.36775395 -0.40470666 0.057082172 0.5045272 -0.16008355 0.4078029 0.45700684 -0.6398002
-0.18720062 -0.33538213 0.0051778923 0.37620863 0.36498615 0.17966452 -0.6323903 -0.30103174
-0.4275151 0.45377707 -0.22798309 0.15171938 -0.22911307 0.18287334 0.29589134 -0.28175735
0.7422389 0.30264598 0.36240333 -0.85462046 -0.014472112 -0.42243832 -0.1605585 0.19835898
-0.6403363 -0.7839308 0.49852225 0.25578827 0.5396994 0.08639626 -0.80437934 0.12344312
-0.36084908 0.6791611 -0.18857686 1.1169986 -0.31256202 0.45280814 -0.88787985 0.32161343
0.03713896 -0.2146605 -0.32099682 1.1420081 0.5548239 -0.116556615 -0.59980166 -0.19441734
0.8112761 -1.2466768 0.442281 0.22615983 0.18603662 -0.16750333 -0.9756192 1.390158
-0.8118918 0.2137635 -0.16915302 -0.3176986 1.0028732 0.22218221 0.62357986 -0.0427705
-0.5401979 -1.2107228 -0.4351193 -0.37583542 -0.37607086 -0.35212976 0.7037812 -0.30565885
-0.4211549 -0.28367618 -0.53231597 -0.19000281 -0.38036713 -0.16888255 -0.47027427 1.7731837
-0.29749095 -0.106543295 -0.4312188 -0.06338094
00000000: d83d ce3e 431e aebe bc88 6a3e a634 dabe
00000010: 2065 d23f d7e2 27bf 4413 01be 8465 97be
00000020: b18d dc3c 1335 0d3d 4df5 ba3e 536c 943e
00000030: b802 233c bcad 2b3f 7a67 cebd 941a 90be
00000040: 07a8 3bbe 534c dd3c c24c ee3e bfe7 f1be
00000050: 03b7 63be 9cab 623f ee18 84bf 3e99 4abf
00000060: 0dcd 1abf 36dd 2c3f 0650 193f 5550 f13e
00000070: 0ebb 69bf a8c9 debc 259b 7cbe 2acf fabd
00000080: a9fb 46be d9ee 8fbe 9b4b a23f 1ab7 9f3e
00000090: 5ffc e33e 3db2 b73e 22fd 71bf eb17 233f
000000a0: 3703 613f 63e3 78bf 0317 8fbf 347e 303e
000000b0: 7567 e73e 12ea 843e 43b7 02be f8a0 823e
000000c0: bbc8 87be 4241 16bd 93ac debc 6f4b 003f
000000d0: f919 993e 7db5 983e 0e04 7d3f 3501 d8bc
000000e0: 0fbc a9be 08f2 1fbe 0788 303f 5d44 04bf
000000f0: 9c91 e13d 0d0b 14be 011f e3be ec49 bc3b
00000100: d67c 4f3e b859 f63d 457f b83d 03f0 463f
00000110: f800 ccbb 56d7 2ebd 1be8 7dbe 0258 3dbd
00000120: c438 5ebf 6bab 0b3f 80e0 51bf 17f5 d03e
00000130: 36ce a93f 7cb0 563e f8e1 17bf 4c36 d93e
00000140: c944 61bf d3ba fdbe 8770 9a3e 70d1 babe
00000150: f46a 383e d89b 363f 80cf afbd bc35 7bbe
00000160: 3f4a bc3e b635 cfbe ffce 693d b228 013f
00000170: f1ec 23be 8bcb d03e cdfc e93e f2c9 23bf
00000180: 85b1 3fbe 35b7 abbe 4fab a93b 6b9e c03e
00000190: 77df ba3e faf9 373e 55e4 21bf d520 9abe
000001a0: 42e3 dabe 7855 e83e 6674 69be 535c 1b3e
000001b0: 9e9c 6abe 2643 3b3e 127f 973e 8042 90be
000001c0: 5e03 3e3f 6af4 9a3e ee8c b93e 68c8 5abf
000001d0: 701c 6dbc d649 d8be 7369 24be 9e1e 4b3e
000001e0: 14ed 23bf b0af 48bf 4f3e ff3e aef6 823e
000001f0: bd29 0a3f 86f0 b03d ceeb 4dbf bfcf fc3d
00000200: 36c1 b8be 80dd 2d3f 4b1a 41be cff9 8e3f
00000210: 2108 a0be 78d6 e73e 184c 63bf 84aa a43e
00000220: 061f 183d f6cf 5bbe b259 a4be 522d 923f
00000230: f008 0e3f 3cb5 eebd 9a8c 19bf 5715 47be
00000240: caaf 4f3f 1b93 9fbf a872 e23e 7196 673e
00000250: 6280 3e3e fe85 2bbe 2ec2 79bf b3f0 b13f
00000260: 24d8 4fbf d2e4 5a3e 7336 2dbe 64a9 a2be
00000270: 265e 803f bc83 633e eea2 1f3f 1f30 2fbd
00000280: 694a 0abf f7f8 9abf f5c7 debe 806d c0be
00000290: 5c8c c0be 5a4a b4be 012b 343f 517f 9cbe
000002a0: 9da1 d7be 013e 91be dc45 08bf 1990 42be
000002b0: 7bbf c2be 8cef 2cbe cac7 f0be aff7 e23f
000002c0: bc50 98be 5f33 dabd b6c8 dcbe decd 81bd

head_conv.1.depth_wise_1.bias f4 [20]
0.013440243 -0.1261665 0.018154604 -0.0013094658 0.021179682 -0.11494985 0.011662867 -0.02335271
0.06925604 0.020445602 0.12584369 -0.08425215 -0.020436611 0.027407281 0.0102674365 0.03707464
-0.011317648 -0.023083678 0.0676401 0.13876924
00000000: 7734 5c3c ca31 01be f7b8 943c 62a2 abba
00000010: 0381 ad3c d46a ebbd 9c15 3f3c 2f4e bfbc
00000020: 1cd6 8d3d 897d a73c 2bdd 003e 648c acbd
00000030: ae6a a7bc 3c85 e03c c038 283c 94db 173d
00000040: a86d 39bc fb19 bdbc e586 8a3d 8619 0e3e

head_conv.1.point_wise_2.weight f4 [20, 9, 1, 1]
-0.058877725 0.40385047 -0.044423502 -0.1590535 -0.21640356 -0.40286422 -0.29375747 -0.35265425
1.0318574 0.15984449 -0.25313643 -0.1680877 0.25072142 -0.24256852 0.12696128 -0.038602095
0.23637381 -0.03455193 0.41500598 -0.3688019 0.53871334 0.22756484 -0.5010137 -0.07145611
0.79824173 0.9809334 -0.38804486 0.21248083 0.8547477 0.31018198 0.12897605 -0.27623898
-0.13500616 0.15254514 1.4978591 0.55134934 0.1786301 -0.2800504 -0.5315468 -0.4290429
0.10731312 0.22645292 0.29644394 0.21345502 -0.4065624 -0.17045228 0.8830966 0.7508585
-0.22427516 0.88573414 0.4272587 0.39259815 -1.2319485 -0.38099754 0.23027873 -1.1319369
-0.42980674 0.59009665 -0.52528423 0.2654354 -0.12902069 0.2708382 -0.21002804 -0.081405304
-0.17877764 0.13211684 0.05996859 0.10055325 -0.07921975 -0.091952145 -0.57167995 0.29610908
0.40905073 -0.46362123 1.0992571 0.06437355 -0.07605988 0.12505506 0.17368822 0.2974353
-0.15278359 -0.2531353 -0.16971862 -0.08912105 0.033487633 0.87870497 -0.21896271 0.066690445
0.31762204 0.18598445 0.65660876 0.03959565 -0.6654215 0.018684415 -1.2251954 -0.00523171
-0.11033894 -0.14094566 0.013218249 -0.9235214 -0.10092408 -0.008748188 0.26083985 0.039593663
1.6824967 0.320105 0.21614937 0.03661971 -0.013538494 -2.1057343 -0.15410879 0.2352263
-0.09231094 -0.0014908423 -0.65353465 -0.23870537 -0.6229682 0.051663987 -0.057307348 1.454464
-0.23933654 0.42388487 -0.13445257 -0.12764746 0.7233224 -0.03366797 0.23759857 0.118165754
-0.26186693 1.53717 -0.5706715 -0.044697527 -0.18427584 0.15965824 -0.3188627 -0.24825138
0.23205118 0.063841864 -0.11710358 0.20846815 -0.2935917 -0.22346176 -0.21240526 0.1438627
-0.40572375 -2.4686866 0.46285275 0.18525964 0.6429685 -0.0466027 -0.5278656 -2.207129
-0.3481333 -0.20116211 0.33240113 -0.54970515 0.03742913 0.21634679 -0.087804414 0.7250111
-0.014063454 -1.1057333 0.014340725 -0.38510117 0.49570206 -0.3568963 -0.5058072 -0.85359085
-0.0018139153 0.38052574 -0.24697 -0.5933331 -0.02104231 0.039725464 -0.040458262 -0.6909403
0.27247185 -0.06487399 0.021696696 0.021966744
00000000: c529 71bd 7dc5 ce3e 6bf5 35bd ecde 22be
00000010: e598 5dbe 3844 cebe 6167 96be 198f b4be
00000020: e713 843f 46ae 233e 199b 81be 2f1f 2cbe
00000030: 8f5e 803e e263 78be 2302 023e 3b1d 1ebd
00000040: fa0b 723e 5386 0dbd aa7b d43e 9ad3 bcbe
00000050: 1ee9 093f c206 693e 6f42 00bf 9557 92bd
00000060: 9259 4c3f 741e 7b3f d1ad c6be 9394 593e
00000070: bfd0 5a3f 2cd0 9e3e 4c12 043e 326f 8dbe
00000080: 0e3f 0abe cb34 1c3e d9b9 bf3f 3b25 0d3f
00000090: cfea 363e c462 8fbe 7313 08bf 83ab dbbe
000000a0: fbc6 db3d 46e3 673e 80c7 973e f493 5a3e
000000b0: f228 d0be 0b8b 2ebe 9e12 623f 4338 403f
000000c0: 63a8 65be 79bf 623f a7c1 da3e a002 c93e
000000d0: 7db0 9dbf 1c12 c3be 30ce 6b3e 4fe3 90bf
000000e0: a10f dcbe 9310 173f 0779 06bf 26e7 873e
000000f0: 001e 04be 4eab 8a3e 9711 57be d3b7 a6bd
00000100: 7c11 37be a349 073e a0a1 753d ddee cd3d
00000110: f73d a2bd 6851 bcbd 9e59 12bf 9c9b 973e
00000120: 196f d13e c35f edbe 75b4 8c3f 48d6 833d
00000130: 48c5 9bbd 6f0e 003e 53db 313e 7149 983e
00000140: 4d73 1cbe f39a 81be b8ca 2dbe 1985 b6bd
00000150: 542a 093d cff2 603f c337 60be 0095 883d
00000160: 5b9f a23e b572 3e3e 8317 283f 0c2f 223d
00000170: 1059 2abf 0f10 993c 34d3 9cbf c46e abbb
00000180: 62f9 e1bd 0f54 10be 5b91 583c e66b 6cbf
00000190: 49b1 cebd 8f54 0fbc cd8c 853e f72c 223d
000001a0: 0d5c d73f cde4 a33e 4356 5d3e 8dfe 153d
000001b0: 8fd0 5dbc 5ac4 06c0 b2ce 1dbe 2adf 703e
000001c0: 850d bdbd 5e68 c3ba 0c4e 27bf 2e6f 74be
000001d0: d87a 1fbf 9e9d 533d 1cbb 6abd e02b ba3f
000001e0: a314 75be 7007 d93e efad 09be 04b6 02be
000001f0: a82b 393f 6de7 09bd 0a4d 733e e300 f23d
00000200: 6c13 86be fdc1 c43f 8717 12bf c114 37bd
00000210: ceb2 3cbe 737d 233e f941 a3be 9c35 7ebe
00000220: d39e 6d3e 86bf 823d 00d4 efbd ad78 553e
00000230: a751 96be 29d3 64be c480 59be be50 133e
00000240: 06bb cfbe f6fe 1dc0 09fb ec3e b4b4 3d3e
00000250: 9599 243f 79e2 3ebd 3322 07bf 9a41 0dc0
00000260: 873e b2be 71fd 4dbe 7b30 aa3e 7ab9 0cbf
00000270: 4a4f 193d 038a 5d3e cdd2 b3bd 549a 393f
00000280: 676a 66bc ab88 8dbf 5cf5 6a3c fb2b c5be
00000290: a9cc fd3e 1dbb b6be 957c 01bf ee84 5abf
000002a0: e6c0 edba 45d4 c23e b4e5 7cbe aee4 17bf
000002b0: ec60 acbc 2bb7 223d 90b7 25bd 77e1 30bf
000002c0: 6e81 8b3e a8dc 84bd 45bd b13c 9af3 b33c

head_conv.1.point_wise_2.bias f4 [20]
-0.041280493 -0.027098132 0.10843356 -0.05276495 -0.10560504 0.06007481 -0.055828374 -0.049577788
-0.04351905 -0.41290557 0.40397057 0.12285731 -0.2898462 -0.24408977 0.22911692 -0.11657559
-0.1975752 0.009734409 0.09708384 0.11638299
00000000: bc15 29bd e7fc ddbc 6a12 de3d 0f20 58bd
00000010: 7547 d8bd 0111 763d 4bac 64bd 1412 4bbd
00000020: 0841 32bd 5c68 d3be 3bd5 ce3e 9d9c fb3d
00000030: b966 94be abf2 79be a09d 6a3e 2fbf eebd
00000040: 2751 4abe 127d 1f3c e4d3 c63d 345a ee3d

head_conv.1.depth_wise_2.weight f4 [20, 1, 3, 3]
0.67087287 -0.07851845 0.2912192 0.39969763 -0.5292262 -0.31372297 -0.32642752 -0.09250856
-0.02251916 0.4365354 -0.5893655 -0.027852546 0.46115333 -0.23746556 0.44473708 -0.14118598
-0.5131054 0.1520958 0.2786297 0.124500915 -0.044797733 -0.10366061 0.13658641 -0.16723552
0.0051244744 -0.065371916 0.2528273 1.0324434 -0.9181728 -0.17041786 0.53219384 -0.31616107
-0.17504676 -0.9228463 0.75367737 -0.095368795 0.44431505 -0.6233307 -0.48283735 -0.01320613
-0.008846327 -0.2940638 0.4371213 0.53142434 0.22959408 0.39406163 -0.27457112 0.14612244
-0.14810969 -0.8024984 -0.23029864 0.38968572 0.13265061 0.2818344 -0.11825887 -0.4006009
-0.31366578 0.8074946 0.2742829 0.83761567 0.084152624 -0.55957484 -0.5233446 -0.01689339
-0.14690131 -0.31010008 0.009478546 0.29784834 0.47261077 -0.14003515 0.3230387 -0.5793208
-0.23416264 0.5494084 0.0015756793 0.7727832 -1.4159939 0.6116344 -0.3786546 0.7536272
-0.009441673 -0.59026927 0.83653706 0.57123184 -0.9780259 1.0217029 0.16703014 -0.30816075
-0.558563 -0.05069895 0.22983398 -0.09629112 0.29656672 -0.09922578 -1.6450901 -0.038401145
0.34765306 0.12557806 0.18061833 0.85816526 -0.43877253 0.82596546 -0.4452633 -0.23440412
-0.41705927 0.8115479 -0.44002724 0.8193305 -0.596035 0.6015199 0.46533808 -0.25774917
-0.15390106 -0.5121067 -0.07590227 0.60269123 0.57648194 0.9022734 0.108034834 0.1308109
0.8231075 -0.9536263 -0.52076656 -0.44336855 0.079724975 -0.18361337 0.21065877 0.80509233
-0.8002836 0.52386814 1.4678988 -1.0686805 -0.73436815 -1.3068992 0.80842364 -0.45986
-0.009771128 -0.1288122 -0.01579144 0.79614264 0.124504946 -0.20466474 -0.015424675 -0.23398545
-0.96393377 1.4610072 0.31699938 0.5580633 -0.13341275 -0.2781745 0.4356681 -1.2678643
-0.3496308 0.45040762 0.09750408 -0.1451221 0.6800174 0.1087719 -1.1223425 0.33983237
-0.15487878 -0.08264676 0.11703583 0.031051956 0.386693 -0.0793416 -1.4033602 0.13320437
0.39467826 -0.09332641 0.42418054 0.049879093 -0.060142804 0.12428014 0.14869656 -2.33022
-0.12194127 0.043733902 0.06417144 0.088042215
00000000: 53be 2b3f 48ce a0bd af1a 953e 2ba5 cc3e
00000010: 5e7b 07bf 4ca0 a0be 8221 a7be 2175 bdbd
00000020: 1a7a b8bc 9181 df3e a8e0 16bf 062b e4bc
00000030: 4a1c ec3e 2c2a 73be 94b4 e33e 0f93 10be
00000040: e05a 03bf 00bf 1b3e 8da8 8e3e 56fa fe3d
00000050: d47d 37bd 044c d4bd 4fdd 0b3e ca3f 2bbe
00000060: 35eb a73b b6e1 85bd 9472 813e 1b27 843f
00000070: 5f0d 6bbf 0582 2ebe db3d 083f dddf a1be
00000080: 753f 33be a83f 6cbf 00f1 403f b750 c3bd
00000090: 437d e33e 9a92 1fbf 7536 f7be 865e 58bc
000000a0: 2ff0 10bc 888f 96be 5dce df3e 6d0b 083f
000000b0: b61a 6b3e 72c2 c93e 9694 8cbe 1fa1 153e
000000c0: 11aa 17be 8970 4dbf 68d3 6bbe e384 c73e
000000d0: 90d5 073e 994c 903e b531 f2bd 901b cdbe
000000e0: cd98 a0be f7b7 4e3f cf6e 8c3e fb6d 563f
000000f0: 3658 ac3d 4c40 0fbf e9f9 05bf 0264 8abc
00000100: 4c6d 16be 70c5 9ebe e74b 1b3c 947f 983e
00000110: 0afa f13e 6065 0fbe 5465 a53e 5e4e 14bf
00000120: 55c8 6fbe 07a6 0c3f 0687 ce3a 1fd5 453f
00000130: 4a3f b5bf 1294 1c3f 04df c1be b6ed 403f
00000140: 3fb1 1abc e31b 17bf 4b27 563f 403c 123f
00000150: e85f 7abf 29c7 823f f309 2b3e 3fc7 9dbe
00000160: fcfd 0ebf b4a9 4fbd 9959 6b3e 4734 c5bd
00000170: 98d7 973e e336 cbbd 5092 d2bf 854a 1dbd
00000180: 95ff b13e 8997 003e 03f4 383e b8b0 5b3f
00000190: cba6 e0be 7972 533f 8df9 e3be a207 70be
000001a0: cb88 d5be 9ac1 4f3f 404b e1be a5bf 513f
000001b0: c095 18bf 35fd 193f cb40 ee3e b3f7 83be
000001c0: 3d98 1dbe 6d19 03bf a672 9bbd f949 1a3f
000001d0: 5294 133f 64fb 663f 5e41 dd3d 4bf3 053e
000001e0: 2cb7 523f da20 74bf f550 05bf 3401 e3be
000001f0: d946 a33d 2505 3cbe efb6 573e 881a 4e3f
00000200: 63df 4cbf 391c 063f 1ce4 bb3f 86ca 88bf
00000210: 8dff 3bbf 7948 a7bf daf4 4e3f c572 ebbe
00000220: 1517 20bc 58e7 03be 0d5d 81bc 01d0 4b3f
00000230: 73fc fe3d a293 51be c7b7 7cbc e299 6fbe
00000240: 5dc4 76bf 4902 bb3f be4d a23e 3ddd 0e3f
00000250: 5a9d 08be e36c 8ebe e40f df3e 6149 a2bf
00000260: cf02 b3be d49b e63e 38b0 c73d e39a 14be
00000270: 9f15 2e3f cdc3 de3d eba8 8fbf 82fe ad3e
00000280: 8b98 1ebe b442 a9bd 7bb0 ef3d ac60 fe3c
00000290: a0fc c53e d97d a2bd 4fa1 b3bf ba66 083e
000002a0: 4513 ca3e eb21 bfbd 312e d93e 054e 4c3d
000002b0: 4d58 76bd 9686 fe3d e943 183e 5322 15c0
000002c0: 58bc f9bd 5222 333d 516c 833d 7a4f b43d

head_conv.1.depth_wise_2.bias f4 [20]
0.013440243 -0.1261665 0.018154604 -0.0013094658 0.021179682 -0.11494985 0.011662867 -0.02335271
0.06925604 0.020445602 0.12584369 -0.08425215 -0.020436611 0.027407281 0.0102674365 0.03707464
-0.011317648 -0.023083678 0.0676401 0.13876924
00000000: 7734 5c3c ca31 01be f7b8 943c 62a2 abba
00000010: 0381 ad3c d46a ebbd 9c15 3f3c 2f4e bfbc
00000020: 1cd6 8d3d 897d a73c 2bdd 003e 648c acbd
00000030: ae6a a7bc 3c85 e03c c038 283c 94db 173d
00000040: a86d 39bc fb19 bdbc e586 8a3d 8619 0e3e

head_conv.2.point_wise_1.weight f4 [32, 20, 1, 1]
0.7261991 0.13252284 -0.18449454 -0.951933 -0.6486543 -0.7216332 -0.4319325 -0.07769988
0.0017153611 -1.1951375 -0.06254242 2.0684552 0.5287945 1.7676144 -0.6113017 -1.2164816
0.7478156 -1.5859894 0.221684 -0.32349885 0.5679981 1.2029009 -0.04996734 0.17036289
-0.5525131 0.75429636 -0.08125361 -0.08517583 -0.24600163 -0.06338149 -0.4550728 0.068970636
-0.24950308 -0.037899964 -0.90170795 0.098804824 -0.039452124 0.2623722 0.5922994 0.06255772
0.026175017 -3.1338515 0.8229559 0.22558774 0.034769695 0.7151818 0.36761117 -0.5056539
-0.29445213 0.04015167 -0.47568515 0.14766921 0.1498073 -0.20006862 -0.5113645 0.29386523
-0.12718497 0.33495206 0.75061727 -0.07742534 -0.21485275 0.33662784 1.2385621 0.04189884
0.13915488 0.28062147 -0.08082951 -0.7569266 0.05894111 0.35489163 0.3860193 -0.08228933
-0.17420082 0.14859867 0.36526868 -0.16629696 -0.04918844 -0.039991144 -0.5609209 0.4373563
-0.6717769 0.08765813 0.13099542 -0.11684594 0.097846314 -0.26268452 0.229417 0.018734079
-0.20883536 0.30474892 -0.555733 1.035714 0.1631413 0.035309512 0.23288772 0.32191783
0.11611942 1.0743898 0.19673532 -0.356781 0.12248173 -0.13596278 0.15545301 -0.08951992
-0.233881 0.30242145 -1.1720665 -0.6437785 -0.074147865 0.60278845 -0.17651215 0.1659174
-0.22838846 -1.2179664 0.21550679 1.496511 -0.80723995 -1.0714649 -0.107963555 -0.0022557068
-0.23551795 0.23859599 -0.091567814 0.78465885 0.026079409 -0.041322175 0.19531523 0.04463308
0.08074096 0.116556965 0.028487593 -0.047311217 -0.07120045 0.23818882 -0.20373864 0.15872748
-0.37222812 0.16815376 -0.18282045 -0.067689605 0.1413103 -0.45960802 -0.20792052 0.09758737
-0.09238654 -0.13321972 -0.08519958 -0.31672752 0.28768456 -0.15805668 0.002581088 0.030580528
-0.31668374 -0.39812505 0.17176788 -0.10704479 -0.12651648 -0.1824663 0.27778295 0.01630744
0.010693218 0.04520877 -0.008164364 0.13710704 0.01858348 0.28570125 0.1770272 -0.06413507
0.56990606 0.09251213 0.66308624 -0.18935746 0.19450594 0.07317065 0.21593055 -0.0072975745
-0.058299642 -0.06907247 -0.06647435 0.13089778 0.7831238 -0.3883664 -0.17179795 -0.4291277
-0.5434484 -0.98552746 0.04960459 -0.26034704 0.747064 0.46806493 -0.061930943 -2.9191391
-0.060976256 1.1482646 -0.73588353 0.33594456 -0.37218648 0.47642726 0.3326985 0.5037034
0.67925847 0.30216944 -0.14928484 -0.23595476 -1.414565 0.39424324 0.15143642 -0.45254946
0.22769912 -0.46167684 0.025159627 0.7855973 0.25435662 0.30701557 0.383598 0.00938768
2.0419407 0.059901636 0.5521602 -0.30939162 -0.8233483 0.43913448 0.21289623 0.54684436
-0.36966512 -0.7745336 -1.3219446 0.27222276 -0.4481876 -0.07301091 -0.050551362 -0.0675929
-0.105318725 0.5437542 -0.22682284 -0.16273083 -0.24667814 -0.021478062 0.0021087064 -0.03027131
-0.6457617 0.42286766 0.23647515 0.3946079 0.15278259 0.4654415 -0.036045898 -2.1649837
1.7964978e-05 -0.24471441 1.5753479 -0.33620098 0.009508113 0.1955136 0.5947754 -0.085525185
00000000: 2fe8 393f 11b4 073e 23ec 3cbe e2b1 73bf
00000010: 350e 26bf f4bc 38bf 4226 ddbe 1d21 9fbd
00000020: f8d5 e03a 44fa 98bf 3e16 80bd 9261 0440
00000030: 145f 073f 3041 e23f 457e 1cbf abb5 9bbf
00000040: d870 3f3f b301 cbbf 2101 633e a4a1 a5be
00000050: 5368 113f a8f8 993f 8eaa 4cbd 9c73 2e3e
00000060: 8071 0dbf 9119 413f 4b68 a6bd aa70 aebd
00000070: dae7 7bbe 28ce 81bd 4dff e8be 7a40 8d3d
00000080: bc7d 7fbe fe3c 1bbd 55d6 66bf 2f5a ca3d
00000090: 8d98 21bd a655 863e efa0 173f 431e 803d
000000a0: fd6c d63c 0691 48c0 3dad 523f 7900 673e
000000b0: ab6a 0e3d 2816 373f 8837 bc3e 8972 01bf
000000c0: 6ec2 96be 1476 243d 018d f3be 9936 173e
000000d0: 1667 193e cade 4cbe c9e8 02bf 8175 963e
000000e0: c73c 02be d67e ab3e 7428 403f 2d91 9ebd
000000f0: 5c02 5cbe 7c5a ac3e 3489 9e3f 1e9e 2b3d
00000100: 9e7e 0e3e 9ead 8f3e f189 a5bd f1c5 41bf
00000110: 3c6c 713d 5bb4 b53e 52a4 c53e 4f87 a8bd
00000120: b361 32be 402a 183e 7f04 bb3e c049 2abe
00000130: d179 49bd c1cd 23bd 8398 0fbf 2aed df3e
00000140: 92f9 2bbf 1b86 b33d aa23 063e ed4c efbd
00000150: a663 c83d 967e 86be 4aec 6a3e 3678 993c
00000160: f0d8 55be 0d08 9c3e 8544 0ebf 4792 843f
00000170: 830e 273e b5a0 103d 1e7a 6e3e 6ad2 a43e
00000180: 05d0 ed3d 9b85 893f fc74 493e 00ac b6be
00000190: b4d7 fa3d d439 0bbe 132f 1f3e 3856 b7bd
000001a0: 807e 6fbe fcd6 9a3e 4606 96bf abce 24bf
000001b0: d6da 97bd 5850 1a3f 9abf 34be 40e6 293e
000001c0: aade 69be 53e6 9bbf d0ad 5c3e ac8d bf3f
000001d0: 47a7 4ebf c325 89bf ff1b ddbd 7bd4 13bb
000001e0: 9e2b 71be 8252 743e e887 bbbd 67df 483f
000001f0: 7ca4 d53c 7141 29bd b700 483e 2dd1 363d
00000200: 845b a53d 6bb5 ee3d d05e e93c 68c9 41bd
00000210: 8bd1 91bd c5e7 733e dda0 50be 7589 223e
00000220: af94 bebe 8030 2c3e 4935 3bbe d9a0 8abd
00000230: a6b3 103e be51 ebbe 1ee9 54be e3db c73d
00000240: 2735 bdbd c06a 08be 1e7d aebd 1c2a a2be
00000250: 644b 933e 9cd9 21be 7927 293b 0484 fa3c
00000260: 5f24 a2be 0cd7 cbbe ebe3 2f3e 4d3a dbbd
00000270: 898d 01be 72d8 3abe 9139 8e3e 2e97 853c
00000280: 9b32 2f3c d52c 393d d3c3 05bc ca65 0c3e
00000290: 623c 983c 6f47 923e 9e46 353e 3f59 83bd
000002a0: 5de5 113f 0077 bd3d 05c0 293f ece6 41be
000002b0: 912c 473e 7eda 953d e61c 5d3e 7e20 efbb
000002c0: 9bcb 6ebd de75 8dbd b423 88bd 110a 063e
000002d0: cd7a 483f f6d7 c6be cdeb 2fbe a0b6 dbbe
000002e0: 6f1f 0bbf 874b 7cbf 2f2e 4b3d 354c 85be
000002f0: 963f 3f3f 35a6 ef3e 4dab 7dbd 2dd3 3ac0
00000300: 3dc2 79bd 56fa 923f dd62 3cbf ed00 ac3e
00000310: 3a8f bebe 46ee f33e 7557 aa3e b5f2 003f
00000320: e2e3 2d3f f4b5 9a3e 20de 18be 209e 71be
00000330: 7710 b5bf 40da c93e 2612 1b3e 90b4 e7be
00000340: f529 693e e860 ecbe 901b ce3c e81c 493f
00000350: 083b 823e 2531 9d3e f566 c43e c9ce 193c
00000360: 28af 0240 6b5b 753d 5f5a 0d3f 9468 9ebe
00000370: f4c6 52bf 3cd6 e03e 7801 5a3e fefd 0b3f
00000380: bf44 bdbe d647 46bf 7b35 a9bf c860 8b3e
00000390: d878 e5be be86 95bd f20e 4fbd 256e 8abd
000003a0: 58b1 d7bd 7a33 0b3f 3f44 68be e9a2 26be
000003b0: 3299 7cbe c3f2 afbc 3932 0a3b 8afb f7bc
000003c0: a450 25bf 1c82 d83e 8b26 723e 0c0a ca3e
000003d0: 0a73 1c3e 594e ee3e dda4 13bd 188f 0ac0
000003e0: 7fb3 9637 6a96 7abe 00a5 c93f 8922 acbe
000003f0: ebc7 1b3c b834 483e 3343 183f d427 afbd

head_conv.2.point_wise_1.bias f4 [32]
0.10293677 0.10266908 -1.3019675 0.04764942 0.111095816 0.2432846 -0.10076883 0.18736427
-0.11090352 0.51297593 0.1757059 -0.007229972 1.1769593 -0.84206957 -0.22278866 0.10576765
0.36404794 -0.6654526 1.1672436 0.47317776 0.6512942 -0.1828101 0.7957905 -0.26200336
0.014350952 -0.2789221 -0.12725413 -0.26412943 -0.061017044 0.22055571 -3.8022878 0.031699035
00000000: 83d0 d23d 2b44 d23d dfa6 a6bf 0a2c 433d
00000010: 3486 e33d 991f 793e e35f cebd 6bdc 3f3e
00000020: 6221 e3bd 6452 033f 3fec 333e 67e9 ecbb
00000030: 9aa6 963f df91 57bf b622 64be b69c d83d
00000040: 7e64 ba3e 1a5b 2abf 3d68 953f 5b44 f23e
00000050: 37bb 263f 9232 3bbe edb8 4b3f 4e25 86be
00000060: 4120 6b3c e1ce 8ebe e84e 02be f93b 87be
00000070: 02ed 79bd 5bd9 613e af58 73c0 d9d6 013d

head_conv.2.depth_wise_1.weight f4 [32, 1, 3, 3]
0.33864832 0.14114241 0.056144077 -0.60137576 0.09705696 -0.13191716 0.115126155 -0.42312303
-0.24088441 0.43031484 0.1976582 0.10181477 0.08628556 -0.652442 -0.37550652 0.4272974
0.27791134 0.024164254 -0.28172526 -0.18119606 -0.27536443 0.083482765 1.409876 -0.16361971
0.15000542 0.21533082 -0.015825493 0.22800541 0.2583716 -0.021084597 -0.37524295 -1.0949358
0.27918032 -0.09809114 -0.14876643 0.101818025 0.19587834 0.02809784 0.51571846 -0.04360687
-0.029331343 0.016767723 0.2498435 0.15547852 0.30915716 0.17568046 0.10468251 -0.053395875
0.070664436 -0.20904563 -0.28415206 -0.7503261 -0.033555638 0.48039573 -0.3510713 -0.12624912
0.08805509 -0.08550112 0.47532037 -0.16857423 -0.0017694257 -0.06837822 0.19995277 -0.032658473
-0.53399837 0.09769797 -0.25851116 0.40990624 0.07177685 0.009467325 0.36180204 -0.0715776
-0.115339205 -0.33396998 -0.0964481 -0.33365622 1.1561292 -0.34183213 -0.2183586 -0.1740771
-0.17153227 -0.9732704 0.6035656 0.5335259 -0.97296095 -0.24831565 0.9498569 0.23898482
-0.3145052 -0.13436943 -0.31125876 -0.67312247 -0.66760236 -0.09253331 -0.44856468 -0.36532578
0.41047108 1.0133461 0.7555632 0.4425686 -0.027191266 -0.004700121 0.0050993594 -0.3773507
-0.11101165 0.4899169 -0.061588302 -0.48867783 1.3741962 -0.9654792 0.112277664 -0.6670781
-0.48181683 -0.6772697 0.7263457 -0.41825154 1.0566939 0.3647413 0.26381546 0.08712883
0.47631788 0.79992753 -0.07839528 -0.08677254 -0.13110459 -0.02431007 0.05787854 -0.0744464
-0.12943904 0.121415384 0.031566717 0.07172326 -0.030112917 0.05745723 0.015648725 -0.2187064
-0.1066972 -0.032972317 -0.0061389385 1.0437341 -0.18513846 -0.34007412 -0.015816161 -0.14068687
0.18526994 0.026524594 0.13845606 -0.04951779 0.8500746 -0.0152074965 0.06977205 0.009399092
0.19104014 -0.11602008 -0.3533879 0.04898761 -0.042474367 2.1316526 -0.2884282 -0.0501281
-0.23490965 0.06437343 -6.0475726 0.09420598 0.4363291 -5.219344 0.4113164 0.22725144
-4.166932 -0.0967549 0.5320208 -0.013422943 -0.16757895 -0.18510398 0.4070371 -0.51380306
0.26117924 -0.30739796 0.16270658 -6.1819086 0.7166037 0.24102187 -0.1604187 -0.5208226
-0.17377308 0.22038725 -0.16098198 -0.12239705 -0.31428057 -0.6164589 -0.19912313 -0.10260991
-0.016583428 0.14052343 -0.10267664 -0.3330179 0.022605356 -0.02510139 -0.074998766 0.19359273
-0.08280424 0.25818405 -1.2308402 0.029838005 -0.03897837 0.08943768 0.0014031116 0.08187808
-0.031184902 0.11780279 0.06402396 0.19162619 -0.05387841 0.060176548 0.014028118 -0.06222284
0.01580489 -0.010400622 -0.33365327 0.1259014 -0.1758218 -0.04291997 0.10682452 -0.08433087
-0.11931889 0.110425726 0.025497222 0.113040425 0.0366911 0.029568367 -0.06481403 -0.019747252
-0.03838595 0.031411763 0.011548409 0.3297263 0.08344838 -0.09295619 -0.26889223 -0.21616141
0.42016298 -0.064903274 0.1973718 -1.2253066 -1.0322784 0.6249339 0.75938237 -0.28494817
0.17117685 0.5187278 0.6709595 0.3369769 0.15114342 -0.08664086 0.21218894 -0.1433387
00000000: 5063 ad3e a387 103e 55f7 653d c3f3 19bf
00000010: cdc5 c63d 4b15 07be 43c7 eb3d 95a3 d8be
00000020: 67aa 76be 3a52 dc3e e966 4a3e 4384 d03d
00000030: 7cb6 b03d 7006 27bf 6442 c0be bac6 da3e
00000040: 654a 8e3e 1df4 c53c 4b3e 90be 768b 39be
00000050: 91fc 8cbe 03f9 aa3d d176 b43f ed8b 27be
00000060: 059b 193e af7f 5c3e 77a4 81bc 407a 693e
00000070: 4849 843e 9bb9 acbc d81f c0be db26 8cbf
00000080: b9f0 8e3e 02e4 c8bd 3a56 18be f885 d03d
00000090: 5594 483e 712d e63c 2006 043f 1e9d 32bd
000000a0: 4948 f0bc 775c 893c f9d6 7f3e c335 1f3e
000000b0: d949 9e3e 94e5 333e c963 d63d a2b5 5abd
000000c0: 84b8 903d 0f10 56be 617c 91be 5f15 40bf
000000d0: a371 09bd 6ef6 f53e 9ebf b3be 7347 01be
000000e0: 3a56 b43d 361b afbd 315d f33e b99e 2cbe
000000f0: 13ec e7ba e109 8cbd 6bc0 4c3e e4c4 05bd
00000100: 1eb4 08bf e015 c83d 935b 84be 3bdf d13e
00000110: beff 923d d71c 1b3c 1e3e b93e 4797 92bd
00000120: f636 ecbd 1dfe aabe 9586 c5bd fdd4 aabe
00000130: 0bfc 933f 9f04 afbe 6699 5fbe 4441 32be
00000140: 28a6 2fbe 4028 79bf 4683 1a3f 2795 083f
00000150: f813 79bf 7546 7ebe d229 733f 70b8 743e
00000160: d306 a1be 2498 09be 4f5d 9fbe c151 2cbf
00000170: fde7 2abf 1b82 bdbd 45aa e5be fb0b bbbe
00000180: 4429 d23e 53b5 813f 976c 413f 5a98 e23e
00000190: 38c0 debc 7903 9abb 8718 a73b 1c34 c1be
000001a0: 135a e3bd 63d6 fa3e 0444 7cbd fb33 fabe
000001b0: a9e5 af3f a529 77bf d5f1 e53d a1c5 2abf
000001c0: b2b0 f6be 8c61 2dbf cbf1 393f 1125 d6be
000001d0: bf41 873f 5fbf ba3e d212 873e 9a70 b23d
000001e0: f0df f33e 0dc8 4c3f b48d a0bd cdb5 b1bd
000001f0: 4840 06be e925 c7bc 0c12 6d3d 5b77 98bd
00000200: ab8b 04be a1a8 f83d 1a4c 013d a5e3 923d
00000210: 5daf f6bc 4658 6b3d c131 803c 92f4 5fbe
00000220: 1084 dabd fb0d 07bd 2629 c9bb 1499 853f
00000230: f094 3dbe 321e aebe e590 81bc 3810 10be
00000240: 67b7 3d3e 1b4a d93c 6dc7 0d3e 2bd3 4abd
00000250: 7d9e 593f dd28 79bc a6e4 8e3d a6fe 193c
00000260: 07a0 433e f09b edbd 42ef b4be 3ba7 483d
00000270: 9af9 2dbd ff6c 0840 dcac 93be 1f53 4dbd
00000280: 288c 70be 38d6 833d b785 c1c0 11ef c03d
00000290: 8766 df3e de04 a7c0 1098 d23e 9ab4 683e
000002a0: 8257 85c0 6f27 c6bd 8432 083f e7eb 5bbc
000002b0: d199 2bbe e68b 3dbe 2b67 d03e 9988 03bf
000002c0: 49b9 853e 4463 9dbe 8e9c 263e 32d2 c5c0
000002d0: 5773 373f 70ce 763e cd44 24be a154 05bf
000002e0: 92f1 31be 32ad 613e 76d8 24be 4eab fabd
000002f0: 62e9 a0be 40d0 1dbf efe6 4bbe 2525 d2bd
00000300: f8d9 87bc 60e5 0f3e 2148 d2bd 5281 aabe
00000310: de2e b93c 6ea1 cdbc f498 99bd 2c3d 463e
00000320: 4595 a9bd b330 843e 2c8c 9dbf d56e f43c
00000330: c9a7 1fbd 1a2b b73d 9de8 b73a b2af a73d
00000340: 7b77 ffbc 9742 f13d fe1e 833d a839 443e
00000350: 9caf 5cbd af7b 763d 31d6 653c 60dd 7ebd
00000360: 4279 813c 5f67 2abc 9ad4 aabe 4cec 003e
00000370: a10a 34be dacc 2fbd d0c6 da3d aab5 acbd
00000380: 765d f4bd e226 e23d 8ddf d03c bd81 e73d
00000390: 6849 163d 5c39 f23c 38bd 84bd fdc4 a1bc
000003a0: 963a 1dbd 9fa9 003d 8a35 3d3c e3d1 a83e
000003b0: fce6 aa3d d15f bebd 3eac 89be 6b59 5dbe
000003c0: 9a1f d73e 02ec 84bd d51b 4a3e d9d6 9cbf
000003d0: b321 84bf abfb 1f3f e266 423f bae4 91be
000003e0: fc48 2f3e 58cb 043f 00c4 2b3f 3c88 ac3e
000003f0: 57c5 1a3e c370 b1bd 0f48 593e 61c7 12be

head_conv.2.depth_wise_1.bias f4 [32]
0.05348808 0.22205432 -0.011438314 0.29774207 0.5682732 0.014050113 0.18845168 0.33074623
0.706466 0.03543296 -0.018535016 0.088357516 0.25472212 0.0076107094 -0.27160335 0.6300102
0.09562387 -0.12383302 0.4505237 0.36468372 -0.072588 0.58203214 0.1335481 -0.55915916
0.52723014 -0.51367563 -0.051447023 0.04987231 0.777278 -0.02844847 -2.358241 0.020304697
00000000: 5116 5b3d 3562 633e c467 3bbc a671 983e
00000010: 5a7a 113f 7232 663c 7af9 403e 9257 a93e
00000020: f5da 343f 2722 113d bfd6 97bc c9f4 b43d
00000030: f06a 823e 4263 f93b 980f 8bbe 5948 213f
00000040: 73d6 c33d 2b9c fdbd 0bab e63e d3b7 ba3e
00000050: 04a9 94bd 0f00 153f d5c0 083e 0e25 0fbf
00000060: 8ef8 063f 3f80 03bf 1dba 52bd e846 4c3d
00000070: b1fb 463f c40c e9bc 6ced 16c0 0956 a63c

head_conv.2.point_wise_2.weight f4 [32, 20, 1, 1]
0.38972947 0.080463 0.06400026 -0.7176598 -0.8468369 -0.17382613 -0.3704643 -0.52609956
-0.45468375 0.03587853 -0.8115636 0.5352997 -0.08070648 -0.13910717 0.16838323 1.4816728
0.23263893 -1.0265182 -0.16018541 -0.3086877 -0.19068496 1.404262 -0.39662865 -0.38614684
0.59072125 -0.704953 0.028264418 -0.052119296 0.1634151 -0.19225821 0.024073696 -0.112608634
0.0225486 0.031902168 0.7554218 -0.031699408 0.185949 -0.18454958 -0.40729994 -0.1594938
0.62957203 2.0093355 -0.11551894 0.32092315 -0.38078836 0.6381528 -0.01604585 -0.7325976
-0.21104135 -0.0021788327 -0.40843076 0.0902662 -0.22567183 -0.114516586 -0.8721578 0.06865716
-0.21141452 0.32030764 0.44213203 0.021492954 -0.2636744 -0.39929157 -0.2338596 -0.24133848
0.023274682 -0.069219984 0.117025904 0.34870654 -0.47866082 0.023341693 0.015682345 -0.073570944
0.20961803 0.27048385 0.3418087 0.12501082 0.10208445 0.061246023 -0.40424773 0.29579785
-0.36166406 0.23446131 0.20206675 0.3100923 -0.34832996 0.19812475 -0.00070946594 0.14738426
-0.039378982 0.44657817 0.3844006 0.23927602 0.10144321 0.119116396 -0.15940508 0.4358419
-0.08136949 0.38556892 -0.17859535 0.0634305 -0.47178736 -0.47479197 0.15903823 -0.9325875
-0.3813048 -0.06190182 0.3413459 -0.7284071 -0.07139978 -0.053631756 0.6520891 -0.7762224
0.08866737 -1.3684621 0.16478874 0.36245555 0.38102528 0.26816276 -0.083086506 0.27886772
-0.18973292 -0.14521666 -0.03558213 -0.051841207 0.1717162 -0.087498225 0.018430058 -0.11557803
0.06927471 0.07474669 -0.48327985 -0.05563988 -0.030437335 0.017191546 0.017589284 0.11088333
0.083960906 0.14681914 0.009396035 -0.97165257 0.2059815 -0.3885453 -0.010839285 -0.0012550952
0.23000127 -0.3829779 -0.19983464 0.24047111 -0.058601737 -0.08815849 0.39251202 0.16315414
-0.48757556 -0.30328727 -0.29357862 0.05218775 0.029548604 -0.1647502 0.1677915 0.7725341
-0.105873965 -0.017598484 -0.05073878 -0.0070511317 -0.04073939 -0.05307347 -0.07107717 -0.043738365
0.05365065 0.0059484183 -0.34632263 -0.025026063 -0.083463304 0.047161028 -0.09998575 0.02989441
0.012751122 0.06537578 0.044867218 -0.9740261 -0.26583818 -0.13051079 0.64200073 -0.9800315
-1.2550536 -0.009157793 -0.1313239 -0.45924073 -0.810538 0.63130486 0.8051889 2.850188
0.23113236 0.63182425 0.58419126 2.0540736 0.6781711 0.87897646 -0.22048835 -0.28185657
0.6272476 0.10334079 0.06463632 -0.18854105 -0.5934651 0.60980797 -0.7843683 -0.25661933
0.08951773 -0.06817473 -0.016923657 -0.022792064 1.674628 -0.16441126 -1.2871971 -0.40924457
0.98075104 0.7855961 1.362977 0.098089926 -0.10022497 -0.47533977 0.28377464 0.3344226
-0.20004383 -1.8797423 -0.8256655 -1.2328451 -0.15820551 0.0126043055 0.1278125 -0.29070964
0.726986 0.38646823 0.081383295 0.065900974 -0.21378694 0.3192348 1.0220197 0.0573866
-0.033519138 0.40428656 0.17187919 -1.0125884 -0.010349995 -1.2681295 0.22621016 0.9215203
-0.9430166 -1.030309 -0.94606 -0.47410074 0.41230533 0.29147384 0.48745033 0.36757088
00000000: 9f8a c73e c9c9 a43d 9112 833d 8db8 37bf
00000010: 4eca 58bf 7aff 31be 7fad bdbe 76ae 06bf
00000020: 4fcc e8be 5ef5 123d a2c2 4fbf 6709 093f
00000030: 7049 a5bd 1c72 0ebe a76c 2c3e 74a7 bd3f
00000040: e638 6e3e f364 83bf a507 24be 500c 9ebe
00000050: eb42 43be dbbe b33f e912 cbbe 0ab5 c5be
00000060: 8239 173f cd77 34bf c88a e73c 0b7b 55bd
00000070: 4a56 273e 56df 44be 3336 c53c 5b9f e6bd
00000080: d7b7 b83c d9ab 023d 5363 413f 3dd7 01bd
00000090: 6a69 3e3e 91fa 3cbe 9e89 d0be 5852 23be
000000a0: a22b 213f f498 0040 3295 ecbd 0a50 a43e
000000b0: b1f6 c2be fb5d 233f 9672 83bc 848b 3bbf
000000c0: 391b 58be bfca 0ebb d61d d1be 7cdd b83d
000000d0: 8416 67be ac87 eabd bc45 5fbf 209c 8c3d
000000e0: 0c7d 58be 5dff a33e 215f e23e fe11 b03c
000000f0: 5500 87be f26f ccbe e478 6fbe 6f21 77be
00000100: 8caa be3c 35c3 8dbd 47ab ef3d aa89 b23e
00000110: 0813 f5be 1437 bf3c 4378 803c 5dac 96bd
00000120: 1ca6 563e dc7c 8a3e 8d01 af3e d602 003e
00000130: a711 d13d 1cdd 7a3d 8ff9 cebe d172 973e
00000140: 082c b9be a016 703e 96ea 4e3e 6bc4 9e3e
00000150: 4e58 b2be 37e1 4a3e 74fb 39ba e6eb 163e
00000160: db4b 21bd e5a5 e43e 28d0 c43e c604 753e
00000170: 75c1 cf3d 4cf3 f33d 163b 23be ab26 df3e
00000180: 0ca5 a6bd 4a69 c53e b3e1 36be dae7 813d
00000190: 1d8e f1be ef17 f3be ebda 223e 0ebe 6ebf
000001a0: 623a c3be c38c 7dbd e4c4 ae3e e378 3abf
000001b0: 0c3a 92bd f9ac 5bbd 50ef 263f 83b6 46bf
000001c0: 3d97 b53d c429 afbf 61be 283e c693 b93e
000001d0: bf15 c33e a14c 893e 4229 aabd c0c7 8e3e
000001e0: 5949 42be adb3 14be 91be 11bd 7257 54bd
000001f0: 5fd6 2f3e 4532 b3bd a2fa 963c 2db4 ecbd
00000200: e6df 8d3d cb14 993d 7570 f7be a5e6 63bd
00000210: b857 f9bc 49d5 8c3c 6717 903c cd16 e33d
00000220: b2f3 ab3d c257 163e d4f1 193c 39be 78bf
00000230: d0ec 523e 69ef c6be 4297 31bc 0282 a4ba
00000240: 7485 6b3e ae15 c4be 74a1 4cbe 0f3e 763e
00000250: 6008 70bd 708c b4bd 56f7 c83e e111 273e
00000260: 81a3 f9be 7848 9bbe f04f 96be d2c2 553d
00000270: ea0f f23c 47b4 28be 89d1 2b3e cbc4 453f
00000280: 73d4 d8bd b22a 90bc 78d3 4fbd 2e0d e7bb
00000290: 59de 26bd 9163 59bd e890 91bd 0027 33bd
000002a0: c9c0 5b3d f3ea c23b 3351 b1be 7503 cdbc
000002b0: cfee aabd ec2b 413d 54c5 ccbd 1fe5 f43c
000002c0: 15ea 503c bde3 853d b0c6 373d c659 79bf
000002d0: f11b 88be 9fa4 05be 295a 243f 58e3 7abf
000002e0: 99a5 a0bf 910a 16bc c679 06be 9a21 ebbe
000002f0: 6b7f 4fbf 329d 213f dc20 4e3f 7b69 3640
00000300: f6ad 6c3e 3cbf 213f 8f8d 153f f175 0340
00000310: 9f9c 2d3f 9a04 613f b3c7 61be 814f 90be
00000320: 4c93 203f 56a4 d33d 0c60 843d e810 41be
00000330: 54ed 17bf 601c 1c3f 5ccc 48bf 9c63 83be
00000340: 1255 b73d 319f 8bbd 7ba3 8abc 6cb6 babc
00000350: 365a d63f 6d5b 28be e0c2 a4bf 8188 d1be
00000360: 8012 7b3f d31c 493f 0876 ae3f 5fe3 c83d
00000370: c042 cdbd bc5f f3be e94a 913e 7039 ab3e
00000380: 4ad8 4cbe 659b f0bf d05e 53bf decd 9dbf
00000390: a000 22be 4a82 4e3c 48e1 023e e5d7 94be
000003a0: c11b 3a3f 2adf c53e 49ac a63d 17f7 863d
000003b0: f7ea 5abe be72 a33e 8bd1 823f 360e 6b3d
000003c0: 5d4b 09bd a6fe ce3e 1901 303e 7f9c 81bf
000003d0: 0793 29bc 1152 a2bf a3a3 673e c1e8 6b3f
000003e0: 8969 71bf 2ae1 83bf fd30 72bf 55bd f2be
000003f0: af19 d33e 0f3c 953e 1793 f93e 4032 bc3e

head_conv.2.point_wise_2.bias f4 [32]
0.17851801 0.26242304 0.32413882 0.28013366 -0.08409679 0.099814415 -0.44605663 0.12747596
0.49606293 -0.39908963 -0.070350066 -0.44833678 2.0336685 -0.04591742 0.095059484 0.18084256
-0.065952025 -0.33551198 -0.69303745 0.87061965 0.7875731 0.006357063 -0.3518066 0.26238137
-0.027818784 0.10876834 0.08449021 -0.23048218 0.14410062 0.007926371 0.7693255 -0.613167
00000000: 6dcd 363e 505c 863e 86f5 a53e ae6d 8f3e
00000010: f03a acbd 806b cc3d 8961 e4be 0f89 023e
00000020: f6fb fd3e 7a55 ccbe b213 90bd 668c e5be
00000030: a027 0240 e813 3cbd 8cae c23d cb2e 393e
00000040: db11 87bd 3ac8 abbe e76a 31bf eee0 5e3f
00000050: 649e 493f e94e d03b ff1f b4be da56 863e
00000060: 38e4 e3bc efc1 de3d 3409 ad3d 8503 6cbe
00000070: 1d8f 133e 9cdd 013c 84f2 443f 83f8 1cbf
