codes/Weights/wv3/weight-720.pth (torch, 92405 bytes, 80 tensors)

head_conv.0.point_wise_1.weight f4 [9, 9, 1, 1]
000000 34 3d b6 3e 2b 43 4c bf ba 23 6f 3f c2 35 dd be
       0.3559357 -0.7978999 0.9341389 -0.43205076
000010 47 78 05 bd b6 a7 69 bf 20 92 34 3d 58 69 34 bf
       -0.03258541 -0.9127153 0.04408467 -0.7047324
000020 a7 ad 8a 3e fb bb ae ba 0c 77 b7 bd 38 7c a5 be
       0.2708561 -0.0013331169 -0.08958253 -0.32321334
000030 5f c1 74 3e 90 c9 07 bf b8 14 de 3f b4 24 1e c0
       0.2390189 -0.53041935 1.7350073 -2.4709902
000040 ae 15 92 bf cc c7 0c 40 53 53 c2 3d ae 14 0b c0
       -1.1412866 2.1996946 0.09488549 -2.1731372
000050 f2 8b 09 c0 9b ab e4 3f f6 db 87 bf 78 7a c1 be
       -2.1491666 1.786487 -1.0614002 -0.3778875
000060 46 56 ea bc 9e 79 f2 3e ef 90 b0 be 89 5e d1 bb
       -0.028605592 0.47358412 -0.34485576 -0.0063894433
000070 20 a1 ba bf ce 10 92 bf 2c f1 a4 be 91 97 fe be
       -1.4580421 -1.1411378 -0.3221525 -0.4972501
000080 43 97 a0 bf fe 6d 52 bf fa af 2f 40 a8 19 dc 3f
       -1.2546161 -0.82199085 2.7451158 1.719533
000090 c7 c0 25 bf 5b 45 c6 bf 04 82 97 3f e5 75 2d 3f
       -0.6474728 -1.5489916 1.1836553 0.6775802
0000a0 07 60 b2 bf 8e c8 0b c0 24 e5 ca 3f 51 7d 28 bf
       -1.3935555 -2.184116 1.5851178 -0.6581622
0000b0 de d3 09 be 00 97 14 c0 06 3b 1f 3f fa 68 b3 be
       -0.13459727 -2.3217163 0.6219944 -0.35041028
0000c0 e3 5b da be 55 f6 d9 3f 15 1d 0c 3e ad df 01 3e
       -0.4264823 1.70283 0.13682969 0.12682982
0000d0 29 ee ef 3e 65 ef 2b 3f c1 6b 55 3d 55 e4 f2 bf
       0.4686139 0.6716216 0.052104715 -1.8975931
0000e0 af f4 db bf ad 5e 9c bf d2 4d 14 3f de 28 66 3f
       -1.7184047 -1.2216393 0.57931244 0.8990611
0000f0 e8 c9 1e 40 11 46 ae bf 6e 01 8e 3e a8 0a 9c 3c
       2.4810734 -1.3615133 0.27735466 0.01904805
000100 69 2b 54 bf d0 de bc be c4 48 b1 3f 68 83 af 3e
       -0.8287874 -0.36888742 1.3850331 0.34279943
000110 53 72 cf be 88 30 07 c0 53 48 c7 bf e5 ee 81 40
       -0.4051691 -2.112337 -1.5568947 4.060412
000120 50 6b 25 bd f7 69 e1 3e 36 9c 89 bf 71 10 36 bd
       -0.040385544 0.44026157 -1.0750797 -0.044449273
000130 3c 07 29 40 5d 08 26 c0 5f 9e 17 be f7 30 72 bf
       2.6410666 -2.5942605 -0.14806508 -0.94605964
000140 09 a2 c9 3f
       1.5752574

head_conv.0.point_wise_1.bias f4 [9]
000000 d9 d4 25 3e e8 94 17 3e 53 ba 9f 3e 55 48 02 3d
       0.16194476 0.14802897 0.31196842 0.031807262
000010 65 33 77 3e a5 dd 72 3c 78 76 db 3e ec 1a f0 bc
       0.24140699 0.014823352 0.42863822 -0.029309712
000020 a6 9c 50 3d
       0.05093064

head_conv.0.depth_wise_1.weight f4 [9, 1, 3, 3]
000000 23 4c e7 3e 17 ff 35 3e 0c db 62 3e 71 51 a3 bc
       0.45175275 0.1777309 0.22153872 -0.019936295
000010 d2 91 aa bf a4 5b 18 3e 34 b6 10 bd a9 03 ca bc
       -1.3325751 0.14878708 -0.035330012 -0.024659948
000020 10 df 71 3e ab 50 5d 3e d6 35 37 bf c5 91 df 3e
       0.23620248 0.21612804 -0.7156652 0.436659
000030 b6 37 37 bf 48 c2 db bf f3 b1 97 bd 1d ec d4 3d
       -0.71569383 -1.7168665 -0.07406988 0.103965975
000040 ff 66 c9 be 33 12 60 3e 6f 3f 44 3e 70 59 1b 3f
       -0.39336392 0.21881942 0.19164823 0.60683346
000050 0d 56 9e bd 5e a0 5b 3f 5f 7b 04 3f 9f 6b 2d 3f
       -0.07731257 0.85791576 0.5175075 0.6774234
000060 e0 79 46 bd 50 92 08 3f 1d 38 0c bf f5 26 23 3f
       -0.048456073 0.53348255 -0.5477312 0.6373132
000070 dc 8c 8d bf f0 2f 87 be 32 0d a7 bf 84 3b 11 40
       -1.1058612 -0.2640376 -1.3050902 2.2692575
000080 0d 6d 21 3f 83 1d d4 be da d7 1f 3f 09 d2 ea bd
       0.63057023 -0.41428766 0.6243874 -0.11465842
000090 2d e1 34 bd 53 20 b2 3d 43 fd 1b be 3b e7 5e 3d
       -0.044160057 0.086975716 -0.1523333 0.054419737
0000a0 82 51 0f 40 6c 23 ac 3d 2c 75 8b bd ea ae 43 3e
       2.2393498 0.08405194 -0.06809458 0.19109693
0000b0 04 c0 c0 bd 0e f4 60 be 6f f2 08 bf 9a f6 79 be
       -0.09411624 -0.219681 -0.53494924 -0.24410477
0000c0 b2 36 f3 be 17 ee a1 3d a2 2f 08 bf ea 71 78 be
       -0.47502667 0.0790674 -0.5319768 -0.24262205
0000d0 20 78 ed be ee 82 8e be 8d c7 85 3d 2e fa 88 bf
       -0.4638071 -0.27834266 0.06532202 -1.0701349
0000e0 58 fe 2b 3f 88 1d 19 3f 76 f4 45 40 f7 34 89 bf
       0.6718497 0.59810686 3.0930457 -1.0719289
0000f0 63 41 a9 be fa f8 e1 3d c1 15 c7 3e d5 6f e2 3d
       -0.330577 0.11033817 0.38883784 0.110564865
000100 7c 9a 4a bd c2 a0 df 3e eb 71 43 bf 2b 5e 25 c0
       -0.049463734 0.43677336 -0.763457 -2.5838726
000110 4b a5 dc 3f ab 09 6c 3e 17 f3 dd 3e b3 df eb 3e
       1.7237943 0.23050563 0.43349525 0.46069106
000120 33 68 14 bf d3 0c cd 3d 6d 33 a2 be ee 8e bf be
       -0.57971495 0.10012212 -0.3167986 -0.37413734
000130 19 4b 1e bf d8 63 c4 be 6d 0d 24 3e 0f 96 c5 be
       -0.6183334 -0.38357425 0.16020747 -0.38591048
000140 39 51 33 3e
       0.17511453

head_conv.0.depth_wise_1.bias f4 [9]
000000 8e ba 38 3e 3d fc ce bc ad 0f 1b bd 38 78 8b bd
       0.18039915 -0.025266761 -0.037856746 -0.06810039
000010 58 18 cc 3d 89 b0 e3 bc 29 79 56 3c 7a 2b aa b9
       0.09965581 -0.02779414 0.01309041 -0.0003245732
000020 b6 46 0a 3d
       0.03375884

head_conv.0.point_wise_2.weight f4 [9, 9, 1, 1]
000000 80 3d da bf 22 f2 69 3d 6f 72 e6 3d 28 e6 85 3e
       -1.7050018 0.05711568 0.11252295 0.26152158
000010 64 c7 03 3f 99 f1 ad 3f a8 ad 10 be 93 bb c0 3e
       0.5147612 1.3589355 -0.14128745 0.37643108
000020 35 fd 11 bf 86 7b 09 bc 1d e6 4c bf 18 8f 5a bf
       -0.5702699 -0.008391267 -0.80038625 -0.85374594
000030 94 a6 82 3e 39 f8 d9 be 35 b4 dd 3f 93 f8 dd bf
       0.25517714 -0.4257219 1.732062 -1.7341484
000040 21 27 88 bf 7d ca 25 40 b3 11 39 bd 78 9b 31 40
       -1.0636941 2.590484 -0.045182895 2.775114
000050 db a6 8d 3f fc 72 2f c0 c3 bb 16 3f 20 f5 b5 3e
       1.1066545 -2.741393 0.5888025 0.35538578
000060 d5 17 b1 bd 2e 40 85 3e 66 05 ad be e1 0b c5 3c
       -0.08647124 0.26025528 -0.3379318 0.024053516
000070 eb a7 07 bf 15 fc 1e 3f 00 5a 67 3f f4 39 cb bd
       -0.529906 0.62103397 0.90371704 -0.09923163
000080 65 02 da bf 45 2c 46 3f 51 c3 6c 3f 9c 1d f7 bf
       -1.7031981 0.774113 0.9248553 -1.9305911
000090 a9 6b 9e 3c 17 97 95 be d4 53 8a 3f 23 df b4 3e
       0.019338446 -0.29216835 1.0806832 0.3532649
0000a0 d8 f7 63 be d9 d4 ac bf 94 f3 ee 3f a9 92 55 bf
       -0.22262514 -1.3502456 1.8668084 -0.8342691
0000b0 df 88 13 bf de a0 86 be fe 21 03 be 87 5a 6e 3f
       -0.57630724 -0.26294607 -0.12805936 0.93106884
0000c0 d9 ac 94 3e 7b 07 4a be fa 1d 3d 3f ec 79 5f bf
       0.29038122 -0.19729416 0.73873866 -0.87295413
0000d0 2f cb c4 3f 45 72 f5 bf bb 7d 40 bd e7 eb dd bf
       1.5374507 -1.9175497 -0.046994906 -1.7337617
0000e0 1f 54 5f bf c5 ee aa bf c0 7b 30 3e 2c 79 20 40
       -0.87237734 -1.3354117 0.17234707 2.5073957
0000f0 5d 08 8b 3f 22 48 c9 be b1 77 d2 be 7a 84 c3 3d
       1.0861927 -0.39312845 -0.41106942 0.09546752
000100 89 0d 1e 40 29 7e da bf 9c 00 bd be f5 b3 dc 3f
       2.4695761 -1.7069751 -0.36914527 1.7242419
000110 34 87 ac be 82 9a ed bf 81 dc 9c 3f df 8c 96 bf
       -0.33696902 -1.8562777 1.2254792 -1.176174
000120 81 7e 8a bc a8 f1 7f 3f aa b3 11 bf fc cf 90 3e
       -0.016906025 0.99978113 -0.5691477 0.2828368
000130 e0 e5 52 40 c0 c5 3d c0 11 f4 9a 3e 0f 87 92 bf
       3.2952805 -2.9651947 0.30264333 -1.1447467
000140 b9 74 d0 3f
       1.6285621

head_conv.0.point_wise_2.bias f4 [9]
000000 11 cd ac bd 71 d8 e8 3d 5d 4d e2 bd 58 a5 3a bd
       -0.08437551 0.11369408 -0.11049912 -0.04556784
000010 19 57 ac bc d3 f8 d2 bd f7 f3 8a 3e 3c 17 56 3c
       -0.021037625 -0.10301366 0.27139255 0.013067063
000020 6d 84 0c be
       -0.13722391

head_conv.0.depth_wise_2.weight f4 [9, 1, 3, 3]
000000 80 03 90 3e e0 20 89 3e 2a fa 16 3e 08 15 34 3e
       0.2812767 0.26782894 0.14743868 0.17586148
000010 0e 3f 0d 40 58 bf 29 3e 15 61 c4 3d 62 fd 0e 3e
       2.2069736 0.16576898 0.095888294 0.13963845
000020 bb e8 f5 3d b9 a5 23 3f 84 ef 45 bf 7b cf 2b 3f
       0.120072804 0.6392475 -0.77318597 0.67113465
000030 9f c8 44 bf 4a 08 3b c0 5d b7 6e 3f 4d 12 0a 3f
       -0.76868623 -2.922381 0.9324854 0.53934175
000040 90 89 85 bf 1a a2 9b 3e a3 e1 6f 3e c1 aa 65 bf
       -1.0432606 0.3039711 0.23425917 -0.89713675
000050 e6 ec 06 3f cc 23 53 bf 3a 3d b4 bd 0f a6 89 bf
       0.5270523 -0.82476497 -0.088007405 -1.0753802
000060 b8 8e d4 bd 2a a3 9f bf 63 2c 2d 3e 74 3d 04 bf
       -0.10378784 -1.2471669 0.16911463 -0.5165627
000070 20 c1 ec bd 76 0a 4e 3f 79 1f fe 3e b7 5f 3a bf
       -0.11560273 0.8048471 0.49633387 -0.728023
000080 79 0e 40 3e fa 2a ad 3e 53 76 22 be 8a fd 62 be
       0.18755521 0.3382185 -0.1586545 -0.2216703
000090 37 15 69 3e 97 75 12 be 38 a7 be 3e 74 f2 47 be
       0.22761999 -0.1430267 0.37236953 -0.19526082
0000a0 81 f8 ce bd 08 00 98 be 51 34 18 3f db f4 11 bf
       -0.10105992 -0.29687524 0.5945483 -0.57014245
0000b0 8c 3c c9 3e 86 e1 00 bf 4b 93 17 be 2c 0c 2b bf
       0.39304006 -0.5034412 -0.14802282 -0.6681545
0000c0 3a ff d3 3e 63 57 9d 3f 12 42 0a 3f 6b a1 95 be
       0.4140566 1.2292293 0.54007065 -0.29224715
0000d0 94 59 7d be ab 8f 12 bf 57 81 06 bf 1d b8 ca 3d
       -0.24741203 -0.5725047 -0.52541107 0.09898398
0000e0 84 51 56 be 93 9f 22 3f d3 e2 86 3f 1d b9 18 bf
       -0.20929533 0.6352474 1.0537971 -0.5965746
0000f0 64 0c b6 be 2c 28 2d 3f 6e 01 ee be 81 2a 95 bd
       -0.35556328 0.6763942 -0.46485466 -0.072834976
000100 4f 39 28 3f 1b c3 97 bc 82 cc 1e 3f 28 32 31 40
       0.65712446 -0.01852565 0.62030804 2.7686863
000110 28 74 1b 3f bd 42 02 bb 60 64 b5 3e ca cc 94 be
       0.60724115 -0.0019876205 0.35428143 -0.29062492
000120 41 52 73 3f 8f 14 ad bd d8 6b 9c be 11 71 39 bf
       0.95047385 -0.08451187 -0.30551028 -0.7243815
000130 26 89 27 c0 8b b7 53 be 77 bb 83 bd 7a b0 c7 bf
       -2.6177459 -0.20675485 -0.064322405 -1.5600731
000140 6f 88 85 3e
       0.26080653

head_conv.0.depth_wise_2.bias f4 [9]
000000 8e ba 38 3e 3d fc ce bc ad 0f 1b bd 38 78 8b bd
       0.18039915 -0.025266761 -0.037856746 -0.06810039
000010 58 18 cc 3d 89 b0 e3 bc 29 79 56 3c 7a 2b aa b9
       0.09965581 -0.02779414 0.01309041 -0.0003245732
000020 b6 46 0a 3d
       0.03375884

head_conv.1.point_wise_1.weight f4 [20, 9, 1, 1]
000000 7f 0a c1 3e e9 68 47 bf e1 01 b2 3f 6a 41 30 3e
       0.3770332 -0.77894455 1.3906823 0.17212453
000010 57 11 ad be 49 bb 2a 3f 3a 12 e4 3d 50 ff 4f 3f
       -0.33802292 0.66692024 0.11136289 0.8124895
000020 d2 68 1d bf cf 93 f1 bd 51 08 c6 3e c7 d3 a6 3e
       -0.6148807 -0.117957704 0.3867822 0.32583448
000030 7b a8 c5 3f f0 36 d0 3e e0 15 ca bc 27 45 9b bd
       1.5442041 0.40666914 -0.024668634 -0.07581549
000040 5d 8c 76 be e0 a0 3a be af 92 50 be 10 c4 58 3f
       -0.24076982 -0.18225431 -0.20368455 0.8467417
000050 01 6b af be 60 7a 38 be 64 ed e5 3e 6f 20 90 3d
       -0.34261325 -0.18015432 0.44907677 0.07037436
000060 b2 f3 09 c0 46 51 ad be cc 40 d2 be f3 a4 a2 be
       -2.155499 -0.3385107 -0.4106506 -0.3176647
000070 0c 9e a9 3f 2d cb b7 be 83 54 89 be f6 0a 86 3f
       1.3251357 -0.35897198 -0.2682229 1.0472095
000080 8f 11 cf 3d e8 be 8e 3f 15 f4 4f bd f6 c5 3d 3e
       0.10110771 1.115201 -0.050769884 0.18532547
000090 a2 09 20 be 25 56 e5 bc 4f a1 6e 3e b8 8e 2f be
       -0.15628675 -0.027995178 0.23303722 -0.17144287
0000a0 8b b0 dd 3e 8c 5a aa bc b8 40 01 bd 65 0f 5f 3e
       0.43298754 -0.02079513 -0.03155586 0.21783216
0000b0 5b d6 10 3f cd cb 52 3e 2a 98 21 bf 9c 33 16 bf
       0.5657708 0.20585556 -0.6312281 -0.586725
0000c0 d9 e5 46 3f e5 a8 13 bf b7 ca 6a bd 81 44 f7 be
       0.7769447 -0.5767959 -0.05732223 -0.48294452
0000d0 fe b4 af 3f 51 24 bb 3d 64 9d 82 be 0c ca ae bf
       1.372711 0.09137786 -0.25510705 -1.365541
0000e0 f3 c4 0a 3e a0 8d db bd 56 4d d9 3e a4 d1 ca bd
       0.13551693 -0.10720372 0.42441815 -0.09903267
0000f0 0d 23 7e be fd b5 4e bf 1a c7 f8 be 81 57 f7 3e
       -0.24818058 -0.8074644 -0.48589402 0.48308948
000100 a9 5f d2 3e 9a 77 91 3f 23 df 34 bf c6 bf 08 bf
       0.41088608 1.1364625 -0.7065298 -0.53417623
000110 76 d0 27 bd 73 79 2a bf 43 28 81 3f c0 25 e2 bd
       -0.04097029 -0.66591567 1.0090412 -0.110423565
000120 f5 45 8d 3e e4 ff 84 3d 11 4a 77 3f e3 f4 55 3c
       0.27592435 0.0649412 0.9659739 0.013058874
000130 e9 1a 6d bf 64 85 a9 bd 73 f2 41 be 31 97 d2 bc
       -0.92619187 -0.08277395 -0.18940143 -0.02570686
000140 04 ab b2 bd fb b9 2b be 1d 34 df 3d b1 c8 cf be
       -0.08724025 -0.16770165 0.10898612 -0.40582803
000150 d0 80 39 be fe 5e bc bc 5d d9 91 be 58 c6 86 be
       -0.18115544 -0.022994515 -0.28486148 -0.263232
000160 1b cf ab bc 5d c7 8e bc bf 37 3f 3d 71 38 b6 bc
       -0.020972779 -0.017429048 0.046684023 -0.02224371
000170 b4 9d c0 be df 05 87 3e 08 4d 98 3e ef e4 bd 3d
       -0.37620318 0.26371667 0.2974627 0.09272181
000180 6e ab b8 3d e6 1c 28 3d 19 f7 02 bf 2d 65 77 be
       0.090170726 0.041043185 -0.5115829 -0.24159689
000190 dd 63 ed bd f0 fe bb be f8 0c 50 bd ac 6f 02 3e
       -0.11591313 -0.3671794 -0.050793618 0.12737912
0001a0 6d 47 9b 3c 05 04 48 be 23 1d 1a bf b0 66 ed bd
       0.018954957 -0.19532783 -0.6020071 -0.11591852
0001b0 ad da 8c bd 68 46 e9 be aa 53 0b 3f 7c 94 98 be
       -0.068776466 -0.45561528 0.54424536 -0.29800785
0001c0 98 5a 11 3d 89 48 5a 3b 8f de d8 be f3 32 21 bf
       0.035486788 0.0033307394 -0.423573 -0.6296837
0001d0 90 91 00 bf 8b d9 68 3e 62 e0 12 3f d3 b7 7f 3f
       -0.5022211 0.22739236 0.5737363 0.9988987
0001e0 0a e1 f7 be 1b 09 ad be 57 42 88 bd 08 15 9f 3e
       -0.4841388 -0.3379601 -0.06653278 0.31070733
0001f0 87 9b 9d 3e 5e bb b0 bf 8f f8 47 3d 47 3f 57 be
       0.3078272 -1.380718 0.04882103 -0.21020232
000200 7c 7d 3d bf 88 22 9a bd 89 8d 26 be 0d c6 d0 be
       -0.740196 -0.075261176 -0.16264929 -0.407761
000210 2a 47 9d be cd e8 ab 3e b2 b7 89 b8 8d b0 76 bd
       -0.30718356 0.3357605 -6.566885e-05 -0.060226966
000220 05 b9 1d 3f 34 30 86 bf 05 f4 4b bc bb 45 dd 3d
       0.6161044 -1.048346 -0.0124483155 0.10804316
000230 21 78 cb bc d5 34 ab 3e b0 89 a9 3e 65 1d 1d c0
       -0.024837555 0.33438745 0.3311286 -2.454919
000240 87 81 c3 bd 8f b8 21 40 a3 11 7f bf 40 5f 19 be
       -0.0954619 2.5268896 -0.99636286 -0.14977741
000250 3a e8 ec 3e a1 c2 75 bc 0a 1c 7b 3f 25 a8 ab 3f
       0.46270925 -0.015000016 0.9808966 1.3410689
000260 ba 08 14 3f 30 a7 bf bd 5b f5 46 3e c3 fc 83 bd
       0.57825816 -0.0935806 0.19429533 -0.06444695
000270 ae 72 9c be 43 94 7d 3e 35 6c 6b be d1 1d a0 bd
       -0.30556244 0.24763589 -0.22990496 -0.07818187
000280 67 ee 04 3f 66 6a af 3e bc 21 6e bf 38 c4 33 be
       0.51926273 0.34260863 -0.93020225 -0.1755532
000290 60 f6 15 be 4e 63 d8 be 4c 95 09 bf 0c 3e 3e bf
       -0.14644766 -0.42263263 -0.53743434 -0.74313426
0002a0 e7 9b 6b be 33 7a 13 3f e1 2b 24 3d e0 0d c5 3e
       -0.23008691 0.57608336 0.04008091 0.38487148
0002b0 e9 f8 69 3c e5 0b 2b 3e 00 71 27 bd fe 8d 13 be
       0.014280536 0.16703756 -0.04087925 -0.14409634
0002c0 75 2c 0e 3f 88 dd c6 bd fa 9e d9 bd 16 0d bd bd
       0.55536586 -0.097102225 -0.106260255 -0.092310116

head_conv.1.point_wise_1.bias f4 [20]
000000 00 7f e1 bd a3 bc d5 3e 76 99 03 3e 57 36 84 3c
       -0.110105515 0.4174548 0.1285151 0.016139193
000010 9c b5 c0 bd 1c 47 da 3d 38 cb 36 be e3 ea 0a 3e
       -0.09409639 0.10658094 -0.1785096 0.13566165
000020 e2 1f d5 3e ce 2c 9f bd b3 d2 c0 bd 33 02 f0 bd
       0.41625887 -0.07772218 -0.09415188 -0.117191695
000030 7b f1 ce 3e 0a 36 51 3e eb 35 21 be 95 03 04 be
       0.4041861 0.2043077 -0.15743224 -0.12891991
000040 e9 58 64 bc 86 2d 51 be d5 5e cf bc 7c c8 58 3d
       -0.013937213 -0.20427522 -0.025313774 0.05292557

head_conv.1.depth_wise_1.weight f4 [20, 1, 3, 3]
000000 7a 60 cf 3e a1 b5 ae be 8e 06 55 3e f4 68 d8 be
       0.40503293 -0.34122947 0.20803282 -0.42267573
000010 93 8e d2 3f e5 97 24 bf a2 34 13 be f8 96 9b be
       1.644976 -0.6429427 -0.14375547 -0.30388618
000020 01 c9 6b 3d f0 f0 3b 3c bd 22 b7 3e a7 0d 9b 3e
       0.05756474 0.011471018 0.3576869 0.30283853
000030 2e 4c 7a 3b 82 30 2f 3f 19 18 ef bd aa 4b 91 be
       0.003819238 0.6843339 -0.11674518 -0.2837804
000040 f0 75 31 be 32 61 9e 3c dc f6 ed 3e 87 ac f8 be
       -0.17330146 0.019333456 0.464774 -0.48569128
000050 48 f1 68 be d3 8e 68 3f 98 57 87 bf 26 51 40 bf
       -0.22748291 0.9084293 -1.0573606 -0.7512382
000060 49 d2 1d bf d8 23 36 3f c0 b4 11 3f 3e d6 ea 3e
       -0.61648995 0.71148443 0.5691643 0.4586658
000070 68 6c 69 bf f1 af 82 bc c8 ff 66 be 94 d9 95 bd
       -0.9118104 -0.015953036 -0.2255851 -0.0731689
000080 ac f5 58 be df 6f 97 be 51 29 a1 3f c1 6c 98 3e
       -0.21187466 -0.29577538 1.2590734 0.29770473
000090 56 13 f8 3e 5c fd b4 3e e0 73 71 bf 4d af 2c 3f
       0.48452252 0.35349548 -0.94317436 0.6745499
0000a0 d7 df 53 3f 63 8d 79 bf e1 d3 8f bf 9c 5c 2a 3e
       0.8276343 -0.97481364 -1.1236535 0.1663689
0000b0 7c e1 f1 3e 85 ad 80 3e 30 a9 ba bd 06 00 7c 3e
       0.47242343 0.25132385 -0.09114301 0.24609384
0000c0 81 42 56 be ae 2f 8d bd c5 8a 53 bd 4a c4 e3 3e
       -0.20923807 -0.0689386 -0.051646013 0.44485694
0000d0 43 22 a5 3e 3e b2 8d 3e 7b e4 7c 3f 0b 31 e6 bc
       0.32252702 0.2767505 0.98786134 -0.028099557
0000e0 e5 8d af be d4 57 1b be bb 29 3e 3f a9 be 0a bf
       -0.34287944 -0.15170223 0.74282426 -0.54197174
0000f0 4e 1a 6e 3d 07 c6 ca bd ba 0e f6 be c2 20 c6 3b
       0.058130555 -0.09901052 -0.4805811 0.0060463855
000100 41 75 3f 3e 00 f3 07 3e 53 5d 00 3e eb 3b 3b 3f
       0.18697073 0.13276291 0.125356 0.731383
000110 74 6d b1 bb 8e ba 8c bd 6b e5 41 be 38 25 5f bd
       -0.005414659 -0.0687152 -0.18935172 -0.054478854
000120 da 14 60 bf 03 73 07 3f 3a d3 4d bf 2e d6 d3 3e
       -0.87531817 0.5290987 -0.8040043 0.41374344
000130 66 c0 aa 3f 6a 18 27 3e 36 42 1a bf c2 2f f8 3e
       1.3339965 0.16317907 -0.6025728 0.48473936
000140 24 94 64 bf 25 cf f8 be aa 07 71 3e 09 be ad be
       -0.89288545 -0.4859554 0.2353808 -0.33934048
000150 e9 0a 01 3e cb b3 49 3f fc 8b b8 bd e8 e7 67 be
       0.12601818 0.7878997 -0.09011075 -0.22647059
000160 2a 77 a1 3e 9e 87 c0 be 94 bd 70 3d 5a 75 fb 3e
       0.31536227 -0.37603468 0.058774546 0.4911297
000170 d0 21 1d be 63 30 d4 3e 12 bc db 3e a8 dd 1b bf
       -0.1534493 0.41443166 0.42916924 -0.60885096
000180 83 90 51 be 72 e2 be be 37 a3 68 3c 91 47 d3 3e
       -0.20465283 -0.3728214 0.01419907 0.41265538
000190 08 c1 9e 3e 69 d9 46 3e e9 0d 1b bf 5e eb 99 be
       0.31006646 0.19418873 -0.605681 -0.30062383
0001a0 8a 1f e0 be b3 68 e4 3e 76 9f 80 be 69 59 48 3e
       -0.43774062 0.4461113 -0.2512166 0.19565357
0001b0 c7 23 6b be 8f 79 24 3e e5 74 b6 3e d2 90 6f be
       -0.22962867 0.16061996 0.35636058 -0.23395088
0001c0 de 99 31 3f 86 2c a6 3e 16 1e c0 3e 61 3e 64 bf
       0.6937541 0.32455844 0.37522954 -0.8915768
0001d0 5f 64 7a bd 2c 6f d1 be 46 00 26 be e5 55 3f 3e
       -0.061130878 -0.4090513 -0.16211042 0.1868511
0001e0 c4 67 28 bf 0f 62 44 bf 37 b9 08 3f ce 96 70 3e
       -0.65783334 -0.76712126 0.53407615 0.23495027
0001f0 21 df 0c 3f 56 91 b1 3d fb 8a 50 bf 5d c6 08 3e
       0.5502797 0.08670299 -0.8146207 0.1335692
000200 24 6f ca be eb ed 1b 3f c2 b1 3a be 4b f4 91 3f
       -0.3953792 0.6090991 -0.18231872 1.1402677
000210 8e 97 8d be f5 a7 ee 3e fd 9b 69 bf 93 f8 ab 3e
       -0.2765469 0.46612516 -0.91253644 0.33588085
000220 d9 ed 0a 3d a9 9b 62 be c3 99 9d be 72 ed 91 3f
       0.033918235 -0.22129692 -0.30781373 1.1400588
000230 b4 69 0f 3f fc f1 e0 bd 4c 35 1a bf b9 86 39 be
       0.56020665 -0.10983655 -0.60237575 -0.18117799
000240 cb 1b 57 3f dd c1 a0 bf 77 58 ed 3e 2a d0 75 3e
       0.84026784 -1.2559162 0.46356556 0.2400519
000250 da 1d 32 3e 6c f3 3d be f1 2b 7e bf b6 c7 b3 3f
       0.173942 -0.1854989 -0.992858 1.4045322
000260 58 4e 50 bf a9 05 85 3e 76 1d 35 be 87 a6 a9 be
       -0.81369543 0.2598088 -0.1768702 -0.33134863
000270 e5 61 71 3f af 8e 7e 3e 39 61 24 3f 41 be 07 bd
       0.9429 0.24859117 0.6421085 -0.033140425
000280 6c e5 08 bf 72 bd a1 bf b1 1b d5 be 14 98 cc be
       -0.5347507 -1.2635939 -0.4162269 -0.39959776
000290 47 5a b2 be cb 23 ba be 4d cf 30 3f 2c 75 96 be
       -0.348345 -0.36355433 0.69066316 -0.2938627
0002a0 6c fd d9 be c2 d4 93 be 62 59 07 bf 33 e5 41 be
       -0.42576158 -0.2887326 -0.5287076 -0.18935089
0002b0 43 a8 ca be 84 da 24 be c6 a0 f0 be 34 0b e5 3f
       -0.39581499 -0.16098982 -0.4699766 1.7894044
0002c0 0f db 9d be ff be d5 bd 67 25 df be 1b 48 81 bd
       -0.3083119 -0.1043682 -0.43583223 -0.06312581

head_conv.1.depth_wise_1.bias f4 [20]
000000 0d 9e ac 3c 83 9e fe bd 69 59 a2 3c c8 69 e5 bb
       0.021071458 -0.124325775 0.019818025 -0.0070011355
000010 02 e4 d7 3c fd 80 f0 bd a2 8a 24 3c d1 09 f9 bc
       0.02635384 -0.117433526 0.010042818 -0.030400189
000020 cb 50 8d 3d 12 95 83 3c 1c 4f 01 3e 2e dd af bd
       0.06900176 0.016062293 0.12627834 -0.085871086
000030 19 21 9b bc 25 05 d7 3c bb 69 60 3c 66 3b fb 3c
       -0.01893668 0.02624757 0.013697083 0.030667972
000040 a3 a3 ee bb ed 7c c6 bc 72 8b bb 3d 36 d3 14 3e
       -0.0072826906 -0.024229491 0.091574565 0.14533696

head_conv.1.point_wise_2.weight f4 [20, 9, 1, 1]
000000 ef 98 7b bd 54 8a cc 3e af 74 74 3c 58 a2 1f be
       -0.061425146 0.39949286 0.014920398 -0.15589273
000010 56 2a 62 be 0a 7d d8 be 81 34 9b be f2 0f 8f be
       -0.22086462 -0.42282897 -0.30313495 -0.27941853
000020 d7 3e 86 3f 3d 6e 1d 3e 83 9c 8b be 33 c3 43 be
       1.0487927 0.15374084 -0.27267846 -0.19117431
000030 86 d8 87 3e 71 ae 66 be f2 3e 0a 3e b4 72 a0 bc
       0.26532382 -0.22527482 0.13500574 -0.019585945
000040 ee a7 6c 3e 8f 4c 2a bd 7a e2 d7 3e ed bc a1 be
       0.23110935 -0.04157692 0.42164975 -0.3158945
000050 ee 95 04 3f a2 31 53 3e 24 1e f4 be 0b 51 f2 bc
       0.51791275 0.20624402 -0.47679245 -0.02957966
000060 b7 98 4b 3f 90 43 77 3f df 22 c4 be 86 f1 5e 3e
       0.795299 0.9658747 -0.38307855 0.21771821
000070 b0 cb 57 3f 2f b2 8d 3e 45 ba f6 3d 41 ef 9d be
       0.8429518 0.27675006 0.12047247 -0.308466
000080 46 96 16 be d4 ce d6 3d 7d 7d c6 3f 79 36 14 3f
       -0.14705762 0.10488668 1.5507046 0.5789562
000090 03 44 3a 3e 73 a2 86 be c5 d0 0c bf 34 8b d7 be
       0.18190007 -0.26295814 -0.5500606 -0.4209839
0000a0 17 82 cc 3d d3 15 5a 3e 1b f1 89 3e 04 a7 86 3e
       0.0998575 0.21297388 0.2694176 0.26299298
0000b0 9b 0f d0 be 53 e7 11 be 16 d3 5d 3f e0 48 31 3f
       -0.40636906 -0.142484 0.86650217 0.69251823
0000c0 2b 53 6a be a3 c1 52 3f 8b 7b eb 3e 7e d3 c6 3e
       -0.22883289 0.82326716 0.45992693 0.3883323
0000d0 c7 3f 98 bf 46 91 e7 be 24 6e 73 3e fb 4a 95 bf
       -1.1894463 -0.45228022 0.23772484 -1.1663507
0000e0 ec 9c da be 44 b6 19 3f 14 93 09 bf 7a 77 85 3e
       -0.42697847 0.6004374 -0.5374005 0.26067716
0000f0 e0 4d f6 bd a7 12 82 3e ad 56 69 be 45 76 c0 bd
       -0.12026572 0.25404856 -0.2278697 -0.09397558
000100 6f 1a 56 be 2e f4 85 3e c9 11 89 bc 03 e7 03 3e
       -0.20908521 0.26162857 -0.016732113 0.12881093
000110 0e 8b b4 bd ab 1f 85 bd 4e cc 1c bf fa 70 ab 3e
       -0.08815585 -0.06500181 -0.61249244 0.33484632
000120 d2 49 d5 3e 49 d3 d9 be 75 ac 8c 3f 27 de 65 3d
       0.41657883 -0.4254401 1.099013 0.056120064
000130 71 59 b6 bd a3 3c 03 3e 50 b5 20 3e 06 13 91 3e
       -0.08903778 0.128161 0.15694165 0.28334826
000140 b1 a3 13 be 88 ae 82 be f8 4e 2a be d5 0e c3 bd
       -0.14417912 -0.25523782 -0.16631687 -0.09524313
000150 d4 23 06 3d 74 d6 65 3f ee 8b 61 be ec 94 c4 3d
       0.032749012 0.89780354 -0.22026035 0.09598717
000160 0f cf 9c 3e 43 59 33 3e b0 da 27 3f ad 51 d1 3c
       0.30626723 0.1751452 0.65568066 0.025551641
000170 57 c3 1a bf 28 16 36 3c d0 f0 9d bf e2 27 22 3c
       -0.60454315 0.011113681 -1.2339115 0.009897204
000180 b4 81 d5 bd fe ea f2 bd a7 85 17 3c ee cc 67 bf
       -0.104251295 -0.118612275 0.009248174 -0.9054707
000190 82 31 bf bd 03 13 e1 bb 5a 97 82 3e dc c6 30 3d
       -0.09335615 -0.0068687215 0.25506097 0.043158397
0001a0 93 1c d4 3f 45 d8 9c 3e 3f fa 7a 3e cb db 03 3d
       1.657122 0.3063375 0.24509524 0.032192033
0001b0 f8 d3 5b bc 79 a1 06 c0 6b a8 fd bd d2 59 64 3e
       -0.0134172365 -2.1036055 -0.12385639 0.22299889
0001c0 80 24 6e bd 6d 30 a0 bc a3 37 23 bf 61 76 74 be
       -0.058140278 -0.019554341 -0.6375677 -0.23873283
0001d0 07 80 21 bf 66 ed 57 3d 45 74 86 bd 97 88 b7 3f
       -0.6308598 0.052716635 -0.065651454 1.4338559
0001e0 f0 69 7f be 3b 74 e2 3e fe d6 0b be 1a 8e e1 bd
       -0.24942756 0.44229302 -0.13656232 -0.11013432
0001f0 15 85 30 3f b3 53 d7 bc 8d 07 80 3e 8a b6 02 3e
       0.6895307 -0.026285028 0.2500576 0.12764946
000200 f9 96 85 be bb 9e c6 3f 56 ee 18 bf 8e 99 65 bd
       -0.26091745 1.5517191 -0.5973867 -0.056054644
000210 c5 b5 52 be 62 29 50 3e 44 67 9f be 3e 27 89 be
       -0.20577152 0.20328286 -0.31133473 -0.26787752
000220 17 a3 58 3e 38 ed 9d 3d f5 eb c6 bd 13 23 63 3e
       0.21155964 0.077112615 -0.09712974 0.22181349
000230 90 94 95 be 06 6f 59 be f8 7b d0 bd 4b 5e 2f 3e
       -0.29214907 -0.21233758 -0.10179895 0.17125814
000240 08 9f cd be e4 d5 22 c0 af f7 f6 3e a6 db 50 3e
       -0.40160394 -2.5443048 0.48235843 0.20396289
000250 5f 21 1d 3f d9 15 2b bd 67 1c 0d bf 36 58 0e c0
       0.61379045 -0.041768882 -0.55121464 -2.224134
000260 49 f5 aa be f7 f5 3d be 5d 08 99 3e e7 2c 11 bf
       -0.33390263 -0.1855086 0.29889193 -0.5670914
000270 59 20 1b 3d a3 82 3b 3e 79 28 d6 bd 8a b1 38 3f
       0.037872646 0.18311553 -0.10456938 0.72145903
000280 7e 9d d0 3b 68 f1 94 bf a9 40 0c 3c ac c2 d4 be
       0.006366431 -1.1636171 0.008560338 -0.41554773
000290 92 95 ff 3e b5 9a be be 28 54 00 bf a3 33 5f bf
       0.499188 -0.37227407 -0.5012841 -0.87188166
0002a0 d7 18 d8 3c 6d cd b2 3e fd ca 84 be cf 76 17 bf
       0.026379032 0.34922352 -0.25936118 -0.5916566
0002b0 29 38 f0 bc 63 43 05 3d fb 00 3b bd a9 47 2e bf
       -0.029323654 0.032534968 -0.045655232 -0.68078095
0002c0 0a b1 88 3e 16 19 81 bd 67 66 c4 3c eb 46 f4 3c
       0.2669757 -0.06303613 0.02397461 0.029818973

head_conv.1.point_wise_2.bias f4 [20]
000000 7b 93 30 bd 12 eb 00 bd fe 4b ec 3d 50 d7 a6 bd
       -0.0431094 -0.03147418 0.11537932 -0.08146536
000010 fb d8 05 be 8d eb cd 3d f1 e3 53 bd 8c 6a 0b bd
       -0.13071053 0.10054693 -0.051731054 -0.034037158
000020 96 e1 4c bd 7f 88 d6 be 8e 8f cf 3e 1a 23 fa 3d
       -0.050019823 -0.41901013 0.4053921 0.12213726
000030 d6 87 94 be f3 a6 80 be 6f bf 7c 3e d3 6f ee bd
       -0.29009885 -0.25127372 0.24682401 -0.116424225
000040 91 a1 27 be aa 6b 93 bb 7e 90 d6 3d ed 88 ef 3d
       -0.16370226 -0.0044989185 0.104767784 0.116960384

head_conv.1.depth_wise_2.weight f4 [20, 1, 3, 3]
000000 e0 ea 29 3f e7 dd e1 bd c7 44 84 3e 1f 7b d3 3e
       0.66374016 -0.11028653 0.25833723 0.4130487
000010 97 1f 09 bf d5 02 92 be f8 fe a8 be 32 40 26 be
       -0.5356383 -0.28517786 -0.33007026 -0.16235426
000020 d2 05 59 3d d2 19 dd 3e 08 f7 13 bf 2b 40 13 3d
       0.052984066 0.43183762 -0.57798815 0.035949867
000030 6d 59 f7 3e cd e5 9c be e4 8f d9 3e 04 e8 13 be
       0.48310414 -0.30644074 0.42492592 -0.14443976
000040 0c 33 e8 be 58 d1 06 3e f6 08 a3 3e b8 87 66 3d
       -0.45351446 0.13165796 0.31842774 0.056281775
000050 60 e4 5d bd 6f 3c 86 bd 2e ff 04 3e 6b db 21 be
       -0.054172873 -0.065544955 0.12987968 -0.15806358
000060 ad 6f 07 bc a8 05 e2 bc ef 54 83 3e e1 dc 84 3f
       -0.008266372 -0.027590588 0.25650737 1.0379907
000070 cf 8b 63 bf 91 e1 64 be 95 69 10 3f 88 8b af be
       -0.88885206 -0.22351672 0.56411105 -0.3428614
000080 4f 31 5f be 5a c9 6e bf ba 1c 3f 3f 4f 4a 78 bd
       -0.21796153 -0.9327599 0.7465321 -0.06061774
000090 38 ad e3 3e 0e 38 18 bf 13 26 fa be e1 5f e4 bb
       0.44468093 -0.5946053 -0.48857173 -0.0069694375
0000a0 76 04 12 bd 39 f9 95 be 0c 8c cc 3e e5 4c 15 3f
       -0.035648786 -0.29291704 0.39950597 0.58320457
0000b0 ef 5f 79 3e a7 87 d8 3e 73 fe 89 be b2 81 25 3e
       0.24353002 0.42290995 -0.26951942 0.16162756
0000c0 c6 3e 0a be 82 f0 4f bf 46 3a 8b be 2f de c2 3e
       -0.13500509 -0.8122636 -0.27192897 0.38060138
0000d0 29 67 0e 3e 1b 7a 93 3e 74 bc f1 bd 72 e6 dc be
       0.1390654 0.28804097 -0.11803523 -0.43144566
0000e0 e7 31 92 be 29 1e 4a 3f a3 ec 79 3e ac 21 6b 3f
       -0.28553697 0.7895227 0.24406676 0.91848254
0000f0 65 07 dd 3d 9e cc 11 bf c8 aa 15 bf 0a 69 9f bd
       0.10792426 -0.56952846 -0.58463717 -0.077837065
000100 f6 fa 3c be ed 3f 68 be e2 6d 98 3c 8f 4b ae 3e
       -0.18455109 -0.22680636 0.018607084 0.34042022
000110 d1 95 ed 3e a2 e0 67 be dc f5 ce 3e 36 da 14 bf
       0.46403363 -0.22644284 0.4042195 -0.58145463
000120 07 12 78 be 44 4f 0d 3f b7 49 e6 3c 0b 62 4c 3f
       -0.24225627 0.55199075 0.028111322 0.798371
000130 29 64 b5 bf 8c 19 1f 3f 6e 4e d1 be a2 dc 3d 3f
       -1.4171191 0.62148356 -0.4088015 0.74164784
000140 6c 65 38 bc 12 a3 15 bf 9c bb 5b 3f ce f0 0a 3f
       -0.01125465 -0.5845195 0.85833144 0.5427369
000150 e5 a1 84 bf 86 e9 85 3f 3a 30 27 3e bb 88 91 be
       -1.0361906 1.0461891 0.1632699 -0.2842463
000160 4e 74 0d bf 30 c2 8d bd de 70 64 3e 5a 90 ba bd
       -0.5525559 -0.06921804 0.2230868 -0.09109564
000170 c2 67 98 3e 6a 13 dc bd 92 27 d5 bf 87 5e e1 bc
       0.2976666 -0.107458904 -1.6652701 -0.027510894
000180 ed f7 b4 3e d0 99 08 3e 69 52 2f 3e c3 32 5a 3f
       0.35345402 0.13339925 0.1712128 0.85233706
000190 76 6f e5 be 09 0e 52 3f 30 16 ec be 6b 85 34 be
       -0.448116 0.82052666 -0.46110678 -0.1762902
0001a0 9a e1 d1 be cc 4e 51 3f 75 21 e6 be 57 c9 51 3f
       -0.40992433 0.8176086 -0.449474 0.81947845
0001b0 4f f7 1c bf 95 bd 1d 3f 5a 12 e3 3e 65 c9 48 be
       -0.6131486 0.61617404 0.4434994 -0.19608076
0001c0 f5 04 44 be fd 7e 07 bf 8c c1 dd bd fb 99 18 3f
       -0.19142516 -0.52928144 -0.10827932 0.59609956
0001d0 ac 88 1b 3f 3f 50 64 3f 94 17 08 3e 9c e6 1e 3e
       0.6075542 0.89184946 0.13290244 0.15517658
0001e0 e9 28 59 3f 05 14 75 bf d0 de 0e bf 9f 7f de be
       0.8482805 -0.9573367 -0.55808735 -0.43456742
0001f0 2c 0f 4b 3d 38 45 52 be b1 87 69 3e 9f b6 45 3f
       0.049575016 -0.20534217 0.22805668 0.7723178
000200 8b 5c 48 bf d8 32 01 3f 31 72 c2 3f 32 7e 8b bf
       -0.7826621 0.50468206 1.5191098 -1.0897887
000210 e7 32 3c bf 5e 4d ab bf b5 38 4f 3f 9d 7e 0d bf
       -0.7351517 -1.3382986 0.80945903 -0.5527132
000220 91 22 19 3d ef cc f8 bd 6f c3 10 3c 03 eb 3f 3f
       0.03738648 -0.12148463 0.0088356575 0.74967974
000230 bc 24 40 3e 01 9f 68 be a1 37 ac 3c 30 14 9b be
       0.18764013 -0.22716905 0.02102262 -0.3028884
000240 79 6e 79 bf 21 65 b7 3f b7 06 c4 3e ac 44 11 3f
       -0.9743419 1.4327737 0.38286373 0.5674541
000250 0d 61 11 be 94 e5 94 be 01 60 f0 3e f7 c8 a3 bf
       -0.14197178 -0.29081404 0.46948245 -1.2795705
000260 5b 8d b4 be 9a e1 e4 3e ee cc de 3d 13 10 d9 bd
       -0.35264096 0.4470337 0.10878931 -0.10598769
000270 af 7a 32 3f 2f df 06 3e 76 25 94 bf c2 c5 ae 3e
       0.6971845 0.13171075 -1.1573932 0.34135252
000280 22 2c 48 be 46 06 84 bd a9 fd d3 3d 65 74 9d 3d
       -0.19548085 -0.06446509 0.10351116 0.07688216
000290 82 11 b0 3e f3 e9 ac bd 3e ea b6 bf cd 0e 2a 3e
       0.34388357 -0.0844306 -1.4290235 0.16607209
0002a0 8a ea cb 3e b8 ec 9e bd 80 a3 d9 3e 2c 7c 50 3d
       0.39827377 -0.07759994 0.42507553 0.05089967
0002b0 d3 92 0d bd cf 16 0b 3e a8 ae 20 3e 29 da 17 c0
       -0.03456385 0.1358292 0.15691626 -2.3726904
0002c0 3b d5 e5 bd f4 e8 4d 3d 0d 2d 89 3d a4 f9 bd 3d
       -0.11222311 0.05027099 0.06698046 0.09276131

head_conv.1.depth_wise_2.bias f4 [20]
000000 0d 9e ac 3c 83 9e fe bd 69 59 a2 3c c8 69 e5 bb
       0.021071458 -0.124325775 0.019818025 -0.0070011355
000010 02 e4 d7 3c fd 80 f0 bd a2 8a 24 3c d1 09 f9 bc
       0.02635384 -0.117433526 0.010042818 -0.030400189
000020 cb 50 8d 3d 12 95 83 3c 1c 4f 01 3e 2e dd af bd
       0.06900176 0.016062293 0.12627834 -0.085871086
000030 19 21 9b bc 25 05 d7 3c bb 69 60 3c 66 3b fb 3c
       -0.01893668 0.02624757 0.013697083 0.030667972
000040 a3 a3 ee bb ed 7c c6 bc 72 8b bb 3d 36 d3 14 3e
       -0.0072826906 -0.024229491 0.091574565 0.14533696

head_conv.2.point_wise_1.weight f4 [32, 20, 1, 1]
000000 15 d4 49 3f 6a db 0e 3e 2f e5 46 be c3 b9 74 bf
       0.78839236 0.13950887 -0.19423364 -0.9559595
000010 00 41 20 bf 0b e8 36 bf 21 1d d9 be 9a 26 24 be
       -0.6259918 -0.7144782 -0.42405036 -0.1603035
000020 d0 75 87 3c 56 c9 95 bf 41 c4 fd bc 24 f8 07 40
       0.01653567 -1.1702068 -0.03097737 2.1245203
000030 ac 29 09 3f 46 98 e6 3f db cf 0a bf 73 b8 9b bf
       0.5357921 1.801522 -0.5422341 -1.2165664
000040 8d 12 41 3f b0 2f c2 bf 73 ff 93 3e 3a 03 b0 be
       0.7541893 -1.5170803 0.2890583 -0.34377462
000050 36 46 0a 3f 48 d7 9d 3f f5 22 9b bc d6 bf 4b 3e
       0.54013383 1.2331324 -0.018937567 0.19897398
000060 15 ee 13 bf 71 13 48 3f 0d da 78 bd 5a 47 36 bd
       -0.5778516 0.78154665 -0.060754824 -0.04450164
000070 ca 00 86 be b9 3a aa bd f4 07 ec be 17 eb 92 3d
       -0.26172477 -0.08311982 -0.46099818 0.07173746
000080 10 51 61 be 25 07 87 bc 50 27 68 bf c0 c6 c6 3d
       -0.22003579 -0.016482899 -0.90684986 0.09705877
000090 e7 10 74 bd 17 14 5c 3e 61 35 08 3f 74 2b b1 3d
       -0.05958643 0.21492039 0.5320645 0.08650866
0000a0 c2 a1 90 3c 33 aa 49 c0 92 2a 4f 3f ce c8 72 3e
       0.017655257 -3.1510131 0.8092433 0.23709413
0000b0 aa 2f 40 bd 3c c0 43 3f d4 3a ac 3e 61 09 0a bf
       -0.046920456 0.764652 0.33638632 -0.5392056
0000c0 a2 03 a4 be e9 11 b6 3c b2 51 02 bf 8e 44 15 3e
       -0.32034022 0.022225337 -0.5090591 0.14576933
0000d0 69 17 09 3e 15 e0 31 be d6 28 0e bf 8e 89 95 3e
       0.13387837 -0.17370637 -0.5553106 0.29206508
0000e0 c2 a1 ea bd d4 4e a5 3e 66 c6 3a 3f ed a9 a5 bd
       -0.11456634 0.32286704 0.7295898 -0.080890514
0000f0 4e 21 40 be ba 3f a6 3e 4a 59 a1 3f 0d e5 20 3d
       -0.18762705 0.32470495 1.2605374 0.03928094
000100 21 d8 0b 3e aa 5d 8d 3e 9c 4c 3f bd bf 15 3d bf
       0.13656665 0.27610523 -0.04670392 -0.73861307
000110 73 05 06 3d 76 6a a1 3e e8 5a bb 3e 3d 7b b5 bd
       0.03272004 0.31526536 0.36592793 -0.088613965
000120 c8 8e 01 be a4 62 0c 3e a6 11 b6 3e f1 b2 29 be
       -0.12652123 0.13709503 0.3556034 -0.16572167
000130 cd b2 3c bd 5c e6 fa bc a7 0e 11 bf 50 3c e8 3e
       -0.046068955 -0.030627422 -0.5666298 0.45358515
000140 e2 a6 1c bf a1 fb e3 3d 68 ce 00 3e 8a 70 b4 bd
       -0.6119214 0.11131979 0.12578738 -0.088105276
000150 88 ba 77 3d 6b 71 88 be a6 0b 44 3e ec e0 a3 3c
       0.060480624 -0.2664903 0.19145069 0.020004712
000160 29 6b 4d be a9 94 9e 3e 22 bf 13 bf 6f f1 82 3f
       -0.2006041 0.30972794 -0.5771352 1.022993
000170 29 2c 0c 3e 07 00 bf 3d e1 52 76 3e 53 dc a7 3e
       0.13688721 0.09326177 0.24055053 0.32785282
000180 eb 1d d0 3d c2 a6 8d 3f 6f 5d 5c 3e f6 27 b4 be
       0.101619564 1.1066515 0.21520017 -0.35186738
000190 98 55 a9 3d 3e 29 2b be 8a 4a 2a 3e 2d 12 ba bd
       0.08268279 -0.16714951 0.16629997 -0.09085498
0001a0 d4 6f 69 be 37 c0 9c 3e 2a b6 8f bf 0f 7d 22 bf
       -0.22796565 0.30615398 -1.1227467 -0.63472074
0001b0 2f 13 88 3b d6 3d 1e 3f 20 69 48 be a8 c2 27 3e
       0.0041526775 0.61813104 -0.19571352 0.16382849
0001c0 9d 65 72 be 6c 16 a0 bf 7e be 56 3e 9e 4e c3 3f
       -0.23671575 -1.2506843 0.20971105 1.5258367
0001d0 1a 26 4d bf 7a 3c 86 bf 11 bf 24 be b0 96 d0 3c
       -0.80136263 -1.0487206 -0.16088511 0.025462478
0001e0 87 a0 85 be e8 90 83 3e 19 ec 94 bd f7 1e 3f 3f
       -0.26099035 0.25696492 -0.072715946 0.74656624
0001f0 b6 e1 71 3d 8a 00 c2 bc 33 4a 22 3e 5d 22 d3 3d
       0.059053145 -0.023681898 0.15848617 0.10309289
000200 ed 75 fe 3d d4 c5 00 3e 36 9e 2d 3d a4 ec 6b bd
       0.12424836 0.12575465 0.04238721 -0.057598725
000210 60 3c 9b bd 95 ce 51 3e b5 32 3c be d9 d7 1c 3e
       -0.07579875 0.20488961 -0.18378718 0.15316714
000220 10 20 b7 be e5 2d 14 3e a5 85 61 be 8a 07 a0 bd
       -0.3576665 0.14470632 -0.22023638 -0.07813938
000230 8b 0a 03 3e 04 36 ed be 70 a7 36 be 7c b5 a6 3d
       0.1279699 -0.46330273 -0.1783731 0.08140084
000240 e2 ff b5 bd f1 0a 09 be 76 52 c8 bd 7f 0b 70 be
       -0.088866964 -0.1338308 -0.09781353 -0.23441885
000250 ad 8e 92 3e 64 6a 28 be e0 83 07 3d 79 b9 d3 3c
       0.28624478 -0.16446835 0.03308475 0.025845276
000260 ba c2 ad be 3e 45 cf be 1e 1f 17 3e 49 e3 ac bd
       -0.33937627 -0.40482515 0.14757964 -0.08441789
000270 bb f6 e5 bd 7d 6b 29 be c9 94 89 3e 36 32 c6 3c
       -0.11228701 -0.1654491 0.26871327 0.024193864
000280 e3 94 7a 3c 76 b8 b9 3c d4 0f 4f bc 9b f2 02 3e
       0.015294286 0.022670966 -0.012638051 0.12787859
000290 fb 3a 1e 3d 66 7e 90 3e ee fb 3a 3e ec 09 a4 bd
       0.038630467 0.28221434 0.18260166 -0.08009705
0002a0 5b 4c 0e 3f 0e 26 a2 3d bd df 2b 3f 76 c1 48 be
       0.5558526 0.079174146 0.6713827 -0.1960505
0002b0 fc 42 4e 3e 08 0d 18 3d fc c6 6e 3e 6d 74 f2 bc
       0.2014274 0.037121803 0.23318094 -0.029596532
0002c0 f9 ca 4b bd cc 5e 91 bd 37 15 92 bd 4d 1f 11 3e
       -0.049754117 -0.07098159 -0.07132953 0.14172097
0002d0 e9 11 3f 3f 98 42 ce be 20 0a 1e be 9b 42 c4 be
       0.74636704 -0.40285182 -0.1543355 -0.38332066
0002e0 21 99 f0 be 5a 1b 86 bf 06 f4 bf 3c 03 a6 93 be
       -0.46991828 -1.0477097 0.02343179 -0.28837594
0002f0 cf 83 3a 3f 57 b1 e4 3e da 77 5a bd 4b 54 3b c0
       0.72857374 0.4466655 -0.053336956 -2.9270198
000300 52 c2 f7 bd e6 30 99 3f 82 43 44 bf ad 9c bb 3e
       -0.120976105 1.1968048 -0.7666551 0.36642972
000310 dc 13 d5 be d3 ac c2 3e d2 bf a0 3e e9 a3 0a 3f
       -0.41616714 0.3802248 0.31396347 0.5415636
000320 ff 17 2f 3f b7 fc 95 3e 74 60 28 be 46 83 b8 be
       0.6839599 0.2929437 -0.16443044 -0.36037654
000330 2f c5 b4 bf 56 58 db 3e 5a 7a ca 3d f0 39 05 bf
       -1.4122676 0.42840832 0.09886618 -0.5204153
000340 52 a7 89 3e fe 33 0a bf 97 f6 c8 3b 94 75 47 3f
       0.26885468 -0.53985584 0.0061329114 0.77913785
000350 dd bd 58 3e 98 09 81 3e 79 87 d1 3e 63 48 41 3d
       0.21166177 0.25202632 0.4092367 0.047188174
000360 0e 19 05 40 be 21 49 3c 23 45 10 3f 02 a2 8d be
       2.0796542 0.012276111 0.56355494 -0.27662665
000370 42 ec 58 bf 46 0d ef 3e 52 26 85 3e 82 18 25 3f
       -0.847355 0.46689814 0.260058 0.6449052
000380 b8 93 be be b2 4c 45 bf 91 c7 9b bf be 82 9e 3e
       -0.37222075 -0.7707015 -1.2170278 0.30959123
000390 82 bb f5 be 42 b4 10 bd 3a d2 26 bd a5 fd 8d bd
       -0.4799462 -0.035328157 -0.04072783 -0.069331445
0003a0 a3 19 bf bd 87 62 0f 3f c4 68 68 be cf 21 40 be
       -0.09331062 0.56009716 -0.22696215 -0.18762897
0003b0 f3 67 96 be c9 e2 e5 bb 90 d4 4c 3d a2 45 57 bd
       -0.29376182 -0.0070155603 0.050007403 -0.05255664
0003c0 67 f7 33 bf 48 08 f8 3e 6c 3f a3 3e a7 30 f3 3e
       -0.7029938 0.48443818 0.31884325 0.47498056
0003d0 ae 8e 2d 3e 84 d5 f3 3e 51 1c 21 bd 11 67 05 c0
       0.16948959 0.47623837 -0.039333645 -2.0844157
0003e0 81 1c 85 3d 28 4b 65 be b5 da cc 3f 81 e9 b3 be
       0.06499577 -0.22391951 1.6004244 -0.35139087
0003f0 4c ac 23 3c 9b ed 37 3e 14 34 0f 3f 01 42 47 bd
       0.009989809 0.17961733 0.5593884 -0.04864693

head_conv.2.point_wise_1.bias f4 [32]
000000 2e 49 d1 3d b7 b1 f7 3d b7 20 aa bf 57 72 1a 3d
       0.10219036 0.12094443 -1.3291234 0.0377067
000010 82 e6 23 3e b2 6f 83 3e 01 7b dd bd cf 4b 38 3e
       0.160059 0.25671154 -0.10814477 0.17997669
000020 16 02 eb bd b7 88 ff 3e ad 69 44 3e bb 75 ba bc
       -0.11475007 0.49908993 0.19180937 -0.022761216
000030 ca 31 97 3f 61 89 57 bf b6 22 64 be ed fc c0 3d
       1.181207 -0.84194 -0.22278866 0.09423242
000040 54 3e c0 3e 77 65 2c bf ef b5 90 3f 2e 00 de 3e
       0.37547553 -0.67342323 1.1305522 0.43359512
000050 95 8b 31 3f 25 8c 37 be 21 f8 4e 3f 4e 25 86 be
       0.6935361 -0.17924555 0.80847365 -0.26200336
000060 3d 5e 1d 3c e1 ce 8e be 0e 00 f1 bd 0d bb 85 be
       0.009604988 -0.2789221 -0.117675886 -0.2611927
000070 3a 40 12 bd 81 90 65 3e 0b fb 71 c0 c9 ba f8 3c
       -0.035705782 0.22418405 -3.7809474 0.030362504

head_conv.2.depth_wise_1.weight f4 [32, 1, 3, 3]
000000 13 ed bb 3e 1a 0f 1a 3e e9 9b 1d 3d 0f 8c 1e bf
       0.3670431 0.15044823 0.038478766 -0.6193246
000010 87 0f d4 3d 57 cd ca bd aa a3 b2 3d d3 f2 d6 be
       0.10354524 -0.09902447 0.08722623 -0.41982135
000020 3d e3 81 be 00 15 d1 3e 36 57 50 3e a0 ca c5 3d
       -0.25368682 0.40836334 0.20345768 0.09657788
000030 1a dd d3 3d f9 2a 2b bf 88 3c af be ca be dd 3e
       0.10344906 -0.66862446 -0.3422587 0.43309623
000040 c1 b9 96 3e 8d d1 02 3c 06 05 83 be 6b 53 42 be
       0.29438594 0.007984531 -0.2558977 -0.18977134
000050 f8 4e 8f be 71 b7 4f 3d db 88 b5 3f 09 5e 1e be
       -0.27989936 0.050712053 1.418239 -0.15465559
000060 89 30 22 3e 1b f0 5a 3e bc 20 33 bd ae 03 77 3e
       0.15838827 0.21380655 -0.04373239 0.24122497
000070 da ca 86 3e d9 6f 12 bd 30 94 c3 be e2 81 8e bf
       0.26326638 -0.035751197 -0.38198996 -1.1133387
000080 d5 9a 8f 3e a6 b5 c4 bd e2 2c 0f be 92 0c bc 3d
       0.28047815 -0.09604959 -0.13981965 0.09182085
000090 98 c0 4c 3e b7 a5 fc 3c b4 e1 08 3f b6 31 35 bd
       0.19995344 0.030840738 0.53469396 -0.04423686
0000a0 6d 13 db bc d7 5a f2 3b 1e ea 87 3e d3 2c 1c 3e
       -0.026742661 0.007396083 0.26545805 0.15251474
0000b0 ef c4 9f 3e f5 56 5a 3e dc c9 ab 3d 2a 3c 45 bd
       0.31204936 0.21322234 0.08388111 -0.04815308
0000c0 0f 66 6a 3d d4 10 21 be 7a 79 a1 be 97 c4 3b bf
       0.057226237 -0.15729076 -0.31537992 -0.7334685
0000d0 d1 a4 7e bd 8f de 02 3f fb 4b b5 be 9e c2 eb bd
       -0.0621689 0.5112085 -0.3540953 -0.1151173
0000e0 2d bd b0 3d 1e 87 9a bd d8 0d ed 3e 27 b0 22 be
       0.086298324 -0.07545303 0.46299624 -0.1588751
0000f0 1a a6 91 bc 2e cd dd bd 15 c3 80 3e d4 9c 81 bd
       -0.017779399 -0.108301505 0.25148836 -0.06328741
000100 b9 a3 f3 be fa dd be 3d d5 0b 73 be 2b ad ab 3e
       -0.47585848 0.093196824 -0.23734982 0.33530554
000110 2b 15 94 3d 19 21 99 3c 6a fc c7 3e 8b 9a 87 bd
       0.072306 0.01869254 0.39059764 -0.066212736
000120 1a ae e3 bd 96 e0 a6 be 98 41 ec bd 72 7a a8 be
       -0.111171916 -0.3259322 -0.115359485 -0.32905918
000130 f5 50 91 3f 78 92 a4 be 43 a5 67 be 10 be 1f be
       1.1352831 -0.32142997 -0.22621636 -0.15599847
000140 32 c2 43 be 1d 07 80 bf 2b 2e 25 3f 41 06 04 3f
       -0.19117048 -1.0002171 0.6452357 0.5157204
000150 69 0d 75 bf c7 4a 7a be ef bf 6e 3f 7d d6 77 3e
       -0.9572359 -0.24442588 0.9326162 0.24202915
000160 c1 b6 a0 be 3d 63 0f be 26 23 a3 be 7b d2 2a bf
       -0.3138943 -0.140027 -0.31862754 -0.6672742
000170 21 8a 30 bf 10 a5 d7 bd b8 c6 e7 be 02 9e b3 be
       -0.6896077 -0.1052953 -0.45268798 -0.35081488
000180 23 1a d2 3e 4d 0d 80 3f aa 42 40 3f a8 ab e6 3e
       0.41035566 1.0004059 0.7510172 0.45052838
000190 3f 07 df bc 54 73 52 bd 83 49 4a bc 8d ea ac be
       -0.027225135 -0.051379517 -0.012346628 -0.33772698
0001a0 54 ef e2 bd 89 4c ff 3e 78 49 0e be eb b2 e4 be
       -0.110808045 0.4986308 -0.13895214 -0.44667754
0001b0 6f 4f aa 3f dd 86 6d bf 77 23 c3 3d 18 3b 35 bf
       1.3305491 -0.9278391 0.09528249 -0.70793295
0001c0 02 d8 de be 41 c1 33 bf f8 7e 44 3f 02 40 f2 be
       -0.43524176 -0.7021676 0.7675624 -0.4731446
0001d0 56 cc 8b 3f c7 da b9 3e e7 ab 88 3e 1b 1a b4 3d
       1.0921733 0.36299726 0.2669365 0.08794042
0001e0 88 ab ec 3e fa c6 42 3f 97 65 8d bd 3a 22 b4 bd
       0.46224618 0.76084864 -0.06904142 -0.08795591
0001f0 17 f9 ea bd 52 c4 1c bd 0c 12 6d 3d 5b 77 98 bd
       -0.11473291 -0.038273163 0.05787854 -0.0744464
000200 ab 8b 04 be a1 a8 f8 3d 1a 4c 01 3d a5 e3 92 3d
       -0.12943904 0.121415384 0.031566717 0.07172326
000210 5d af f6 bc 46 58 6b 3d c1 31 80 3c 39 9b 69 be
       -0.030112917 0.05745723 0.015648725 -0.22813119
000220 8f cf c6 bd 96 2e f1 bc 07 59 74 3b b8 d0 83 3f
       -0.097075574 -0.02944116 0.003728451 1.0298071
000230 7e d9 2d be 63 15 a3 be ec 38 b9 bc 60 af 0c be
       -0.16977498 -0.31852254 -0.02261015 -0.13738775
000240 80 33 47 3e 9d d2 1c 3d 2b 4c 10 3e 90 e5 88 bd
       0.1945324 0.038286794 0.14091556 -0.066844106
000250 6e af 59 3f 0c c4 21 bc 79 07 8b 3d 74 8a 2e 3b
       0.8503331 -0.009873401 0.06788535 0.0026632817
000260 72 c8 49 3e 1e 9e 03 be 36 ac b0 be 57 af 2b 3d
       0.1970537 -0.12853286 -0.34506387 0.041915264
000270 96 4e fe bc 2d c7 08 40 6d be 8a be 63 d2 4c bd
       -0.031043332 2.1371567 -0.27098408 -0.050005328
000280 1a 79 7c be cb 48 74 3d 7e 02 c5 c0 2a 79 b0 3d
       -0.24655572 0.059639733 -6.156554 0.0861686
000290 72 ba d7 3e 4f 84 ae c0 ec 15 d3 3e d7 67 58 3e
       0.42134434 -5.453651 0.41227663 0.21133362
0002a0 85 34 81 c0 13 2f c9 bd ca 23 00 3f 80 79 45 bd
       -4.037661 -0.09823432 0.5005461 -0.048211575
0002b0 e9 b2 f9 bd a9 34 6b be 14 97 cf 3e 2c f8 f4 be
       -0.121923275 -0.22969307 0.4054495 -0.4784559
0002c0 ba b2 8f 3e cb c5 b9 be 32 df fa 3d 40 cf c4 c0
       0.28066045 -0.36283717 0.122496024 -6.150299
0002d0 a7 93 32 3f 17 7d 8f 3e 1b 70 28 be b6 18 02 bf
       0.6975655 0.28025123 -0.16449015 -0.50818956
0002e0 1d a2 60 be e2 d9 8a 3e 41 ea 2d be 1c 39 c3 bd
       -0.21936841 0.27119356 -0.16983892 -0.09532377
0002f0 02 e2 a6 be 58 92 1c bf da 01 57 be 3a 3b f8 bd
       -0.32594305 -0.611608 -0.209968 -0.121206716
000300 64 23 ee bc c0 62 35 3e 54 99 cd bd e5 07 a8 be
       -0.02906961 0.17713451 -0.10039011 -0.32818523
000310 ec 07 68 3c 35 27 b7 bc 7b 87 d7 bd b9 1b 4f 3e
       0.014162045 -0.022357563 -0.10523888 0.20225419
000320 2b 21 d9 bd 5e 95 99 3e 94 0e 9e bf c5 8f 36 3d
       -0.106020294 0.2999677 -1.2348199 0.044570703
000330 7a fd 80 bd 46 c1 e0 3d d2 fb 28 bc b2 af a7 3d
       -0.06298347 0.10974364 -0.010313945 0.08187808
000340 7b 77 ff bc 97 42 f1 3d fe 1e 83 3d a8 39 44 3e
       -0.031184902 0.11780279 0.06402396 0.19162619
000350 9c af 5c bd af 7b 76 3d 31 d6 65 3c 60 dd 7e bd
       -0.05387841 0.060176548 0.014028118 -0.06222284
000360 c4 27 a0 3c 76 df 93 bc 6a c5 af be 09 82 08 3e
       0.019550212 -0.01805089 -0.34330302 0.13330854
000370 81 8c 50 be 5d 45 a1 bc 26 98 d7 3d 14 d6 33 bd
       -0.20366098 -0.019686395 0.10527067 -0.043905333
000380 76 7f 11 be e2 26 e2 3d 8d df d0 3c bd 81 e7 3d
       -0.14208779 0.110425726 0.025497222 0.113040425
000390 68 49 16 3d 5c 39 f2 3c 38 bd 84 bd fd c4 a1 bc
       0.0366911 0.029568367 -0.06481403 -0.019747252
0003a0 96 3a 1d bd 9f a9 00 3d d2 ad 3d bc 0e aa ae 3e
       -0.03838595 0.031411763 -0.0115770865 0.34114116
0003b0 37 2a 8a 3d 80 53 94 bd 55 f6 75 be 59 1a 6d be
       0.06746333 -0.07242489 -0.2401975 -0.23154582
0003c0 c9 b5 d8 3e 55 be c1 bd 3a d0 6b 3e 2c e4 9a bf
       0.4232619 -0.09460131 0.23028651 -1.2100883
0003d0 eb 76 8e bf 0c 14 28 3f 86 45 49 3f 80 68 8f be
       -1.1130041 0.6565559 0.7862171 -0.28009415
0003e0 bf d1 31 3e c3 08 ec 3e 42 cf 2e 3f 77 23 a9 3e
       0.17365168 0.46100435 0.68285 0.3303487
0003f0 c5 32 23 3e 7b 8c a8 bd bb 6e 5b 3e 00 be 0f be
       0.15937336 -0.082299195 0.21428959 -0.14037323

head_conv.2.depth_wise_1.bias f4 [32]
000000 4a c7 60 3d 05 ff 4c 3e 5c 1e 71 3a a3 e5 99 3e
       0.054877557 0.20019157 0.00091979443 0.3005801
000010 5f b4 0c 3f cc 1e 68 3c 2f 7f 4b 3e 3b b7 aa 3e
       0.54962724 0.014167499 0.19872735 0.3334292
000020 6d 50 33 3f 9c f2 11 3d 66 ca 29 bc fc 71 c3 3d
       0.70044595 0.03563176 -0.010363197 0.09543225
000030 e7 d4 80 3e c0 ae 15 3c 98 0f 8b be 2e bc 25 3f
       0.25162432 0.009135902 -0.27160335 0.64740264
000040 8c 2b aa 3d 7d 4c d7 bd a7 86 ef 3e b6 cf b3 3e
       0.08309087 -0.10512636 0.4678242 0.35119408
000050 8d 7b c2 bd 86 5b 18 3f 0d a9 16 3e 0e 25 0f bf
       -0.09496222 0.59514654 0.14712925 -0.55915916
000060 6f 53 08 3f 3f 80 03 bf b0 2d 52 bd c4 e1 66 3d
       0.5325231 -0.51367563 -0.051313102 0.05636765
000070 61 71 48 3f 81 9b f7 bc 39 3d 18 c0 dc 11 84 3c
       0.78298 -0.030225517 -2.3787367 0.016121797
