codes/Weights/wv3/weight-800.pth (torch, 92405 bytes, 80 tensors)

head_conv.0.point_wise_1.weight f4 [9, 9, 1, 1]
00000000: de4b a53e d61e 5abf 2931 763f 567b cebe
00000010: b190 c1bc a156 66bf 7ce6 863d 6170 36bf
00000020: 391d 883e 95b2 8fbb 716f 80bd fcc9 a9be
00000030: 6010 863e f0a4 06bf ba41 e13f 8744 1ec0
00000040: 2341 95bf 89c3 0c40 587f bc3d a95a 0bc0
00000050: a8fa 09c0 965f e73f dc56 89bf 8f85 c8be
00000060: 613d 1abd 2c7c f43e 3ac1 b1be 3fa1 80bb
00000070: 9115 babf 834d 8fbf ff6d 9dbe 8511 03bf
00000080: 6549 a3bf a9e9 50bf 16d7 2f40 2f32 df3f
00000090: 2a18 25bf ed14 c7bf f360 963f f431 2c3f
000000a0: 07ec b3bf 4bfa 0bc0 6794 cd3f c644 2cbf
000000b0: 5d67 0bbe 2f8c 15c0 8ce0 193f f2e8 a8be
000000c0: 19a2 dfbe fc6e dc3f 5b93 023e 8732 ca3d
000000d0: 8eb7 f53e ae6c 2a3f 722f 5e3d 5506 f8bf
000000e0: 25cc ddbf 9b9f 9fbf 5cbe 153f 3938 693f
000000f0: 38dd 1d40 9f7c acbf 22ac 913e 2b06 2e3c
00000100: d075 6dbf 69ad e2be 012d bb3f 7577 ae3e
00000110: 5b0f e0be a1ea 04c0 1cab ccbf 0066 8240
00000120: c036 52bd 816c dd3e 0fba 89bf 50b1 0dbd
00000130: 3653 2a40 9ca9 27c0 f0f5 37be 8407 70bf
00000140: b2d3 ca3f
0.32284445 -0.852033 0.9616876 -0.40328473 -0.023628565 -0.89975935 0.0658693 -0.71265227
0.26584795 -0.0043853023 -0.06271256 -0.33161914 0.26184368 -0.52595425 1.7598183 -2.4729326
-1.1660503 2.1994345 0.092039764 -2.1774085 -2.1559238 1.8076046 -1.0729632 -0.39164397
-0.03765619 0.47750986 -0.34717733 -0.003925472 -1.4537832 -1.119553 -0.30747983 -0.5119861
-1.2756773 -0.8160654 2.7475028 1.743719 -0.64489996 -1.5553261 1.1748337 0.6726372
-1.4056405 -2.1871517 1.6060914 -0.6729244 -0.13613649 -2.3366811 0.60108256 -0.32990223
-0.43678358 1.722137 0.12751524 0.098729186 0.47991604 0.6657208 0.054244466 -1.9376932
-1.7327925 -1.2470583 0.5849359 0.91101414 2.4666271 -1.3475531 0.2845164 0.010621588
-0.9275789 -0.44272926 1.4623109 0.34075513 -0.43761715 -2.0768206 -1.5989718 4.074951
-0.051321745 0.43246844 -1.0759906 -0.034592927 2.6613288 -2.6197271 -0.17964911 -0.9376147
1.5845854

head_conv.0.point_wise_1.bias f4 [9]
00000000: 06a5 223e c096 143e f6ea 9f3e 21eb fa3c
00000010: 521e 753e bfc5 953c e4ed e03e 803b 4abc
00000020: 08ae 503d
0.15883264 0.14510632 0.31233948 0.030629696 0.23937348 0.01828277 0.43931496 -0.0123432875
0.05094722

head_conv.0.depth_wise_1.weight f4 [9, 1, 3, 3]
00000000: 565c eb3e 9207 3f3e a960 613e c33e 85bc
00000010: 3a05 a9bf 7a32 173e 55d1 42bd 0552 f4bc
00000020: 7e60 6d3e 2136 5a3e 3acd 3ebf 93ae e73e
00000030: 8e13 36bf e048 d8bf 31ff 87bd f7d3 e83d
00000040: 12c2 cdbe 95c7 653e 335e 2e3e a477 1f3f
00000050: 694c aebd a44e 583f 2d7e 0d3f c73e 2a3f
00000060: 86f0 15bd e7bb fe3e 43a7 0cbf 384d 243f
00000070: a916 90bf 7f83 85be f002 a7bf 0ce8 1140
00000080: 514f 1a3f ca12 cfbe 98d3 193f 5107 d9bd
00000090: b363 27bd 44e3 b83d 59b2 1bbe b270 323d
000000a0: b3ab 0f40 de5e 953d f76e 8abd b988 383e
000000b0: 29b9 c6bd b248 5cbe 8128 07bf c467 74be
000000c0: 4547 f0be fd9a 983d 36e9 06bf 7fd3 7bbe
000000d0: 7b1f f0be e553 8ebe 58e9 ac3d a5e8 87bf
000000e0: 46e3 2d3f c53e 0e3f 88ee 4640 5219 8abf
000000f0: 23c4 a0be a2f2 963d 74c0 c63e 20ad e93d
00000100: 8aff 8fbd af49 da3e 41e6 49bf 0c46 25c0
00000110: 0644 e53f bedb 743e 05fe e93e c0ce d83e
00000120: 87b1 16bf 6569 d13d bf78 afbe 05c4 bcbe
00000130: b738 20bf a199 b4be d72a 423e 4ff3 b8be
00000140: e8eb 2e3e
0.45968884 0.18655232 0.22009529 -0.016265279 -1.320472 0.14765349 -0.047562916 -0.029824266
0.2318134 0.21309711 -0.745319 0.45250377 -0.7112359 -1.689724 -0.06640471 0.11368554
-0.40187126 0.22439416 0.17028122 0.6229193 -0.08510668 0.84494996 0.55270654 0.6650204
-0.036606334 0.49752733 -0.5494272 0.64180326 -1.1256915 -0.26076886 -1.3047771 2.279788
0.6027728 -0.40444022 0.6008849 -0.105970986 -0.040866565 0.090277225 -0.15204753 0.043564506
2.2448547 0.07293485 -0.06759446 0.18020906 -0.09703285 -0.21512106 -0.5279618 -0.23867708
-0.46929374 0.07451437 -0.526996 -0.24592398 -0.46899018 -0.2779838 0.08442944 -1.0617872
0.67924917 0.5556453 3.1083088 -1.0788977 -0.3139964 0.07370497 0.38818705 0.11409974
-0.07031162 0.4263434 -0.78866965 -2.5824003 1.7911384 0.2391195 0.45701614 0.42345238
-0.58864635 0.102251805 -0.3427181 -0.368683 -0.6258654 -0.3527346 0.18961655 -0.3612313
0.17082179

head_conv.0.depth_wise_1.bias f4 [9]
00000000: 552f 3c3e 2345 d1bc 8bae 19bd 16ce 90bd
00000010: 7c61 d23d dc2b f3bc 43fa 333c 268a 02bb
00000020: b232 043d
0.1837743 -0.025545662 -0.037519973 -0.07070558 0.102725 -0.029684 0.01098496 -0.0019918769
0.03227491

head_conv.0.point_wise_2.weight f4 [9, 9, 1, 1]
00000000: 9489 dbbf ea95 983d 2ecf d03d 6ae8 893e
00000010: 6139 013f 2c7a ae3f b219 ebbd 8d16 be3e
00000020: 0747 0fbf 6101 e9bb 9557 48bf f9ab 57bf
00000030: 5617 893e 2520 e2be 8379 dc3f 8569 dfbf
00000040: ae23 88bf 851b 2840 c1e5 29bd 53df 3240
00000050: 3915 903f 63c3 2fc0 57af 163f 0a77 b53e
00000060: 8999 b8bd 5129 773e 75a8 b7be e6cc 9e3c
00000070: 7fca 20bf 9a7d 1f3f 630e 683f b5be b2bd
00000080: f1dc ddbf 46cd 533f a571 6c3f 770a f7bf
00000090: 81a4 f03c 1e70 98be 18da 8f3f 573e a13e
000000a0: 1ff6 81be 0ff9 afbf bcf1 f33f ebfd 58bf
000000b0: 571a fcbe c012 88be 7c65 2dbe 0785 6d3f
000000c0: be17 873e 8d4d 2bbe d57a 3f3f c68e 57bf
000000d0: 5ad7 c43f 465c fbbf f0cf 45bd a3f8 e9bf
000000e0: 89df 58bf b6da a9bf 8903 1d3e eee0 2140
000000f0: 74cc 893f 02f0 c7be 7502 d2be 32ef d13d
00000100: 5f4c 2040 8d19 dcbf 211c bcbe 08c0 dc3f
00000110: 3bec a9be 2dc2 eebf 659f 9b3f 4ddf 97bf
00000120: cc8b 98bc 1024 7e3f fce6 12bf e5dd 843e
00000130: 0701 5540 eb0c 3fc0 a0aa a73e 737c 92bf
00000140: 6ad8 cf3f
-1.715136 0.07450469 0.101957664 0.2693513 0.5047818 1.3631034 -0.1147951 0.3712658
-0.55967754 -0.00711076 -0.7825864 -0.84246784 0.26775616 -0.4416515 1.7224582 -1.7454077
-1.0635889 2.6266797 -0.041478876 2.7948806 1.1256477 -2.7463005 0.588613 0.35442382
-0.090136595 0.24136855 -0.3587071 0.019384813 -0.62808985 0.6230103 0.9064695 -0.08727781
-1.7333051 0.827351 0.9236091 -1.9300069 0.029375317 -0.2977304 1.1238432 0.31492874
-0.25383088 -1.3747882 1.9058146 -0.8476245 -0.49238846 -0.26576805 -0.16933244 0.9278111
0.263853 -0.16728802 0.747968 -0.8420223 1.537822 -1.9637535 -0.048294008 -1.8279003
-0.8471609 -1.326987 0.1533338 2.5293536 1.0765519 -0.390503 -0.410175 0.10250701
2.5046613 -1.7195297 -0.3674021 1.7246103 -0.33188042 -1.8653008 1.2158018 -1.1865021
-0.018621348 0.99273777 -0.57383704 0.25950542 3.3281877 -2.9851635 0.32747364 -1.1444229
1.6237919

head_conv.0.point_wise_2.bias f4 [9]
00000000: eeca b7bd b6c7 df3d feba e3bd bb88 0ebd
00000010: 03aa c9bc cc06 c6bd b47c 8c3e e20c 783c
00000020: b4a7 0abe
-0.08974253 0.10926764 -0.1111965 -0.034798365 -0.0246172 -0.09669265 0.2743889 0.01513979
-0.13540536

head_conv.0.depth_wise_2.weight f4 [9, 1, 3, 3]
00000000: cc58 8a3e 2909 8e3e d3de 0d3e b186 323e
00000010: 390f 0e40 3cfa 1e3e d7db c13d e7e2 0a3e
00000020: 5dab e23d ef8a 243f 65b5 41bf 2205 1b3f
00000030: d9c2 45bf 706d 38c0 5f70 803f df16 0d3f
00000040: ec9a 87bf b691 913e 4123 663e 1b48 61bf
00000050: e9b4 043f 38ea 54bf b070 6bbd 46c2 83bf
00000060: 77c5 03be 33e3 9abf d6e4 233e 49be 05bf
00000070: 9b4a f2bd 5752 4b3f 50c8 0e3f 4652 3bbf
00000080: ccd9 593e dbe3 c03e 400f 67be 69ff 2ebe
00000090: 8e60 6f3e 496c 1ebe e0a5 c63e b4ec 46be
000000a0: 850d fbbd db0c a8be 0c78 1c3f 205a 16bf
000000b0: 4f13 da3e b1fc 00bf ecab 04be 7541 2fbf
000000c0: bf96 cc3e bda5 9e3f cd20 0c3f 9d72 9ebe
000000d0: 5dac 86be 8631 16bf ce27 05bf a612 c83d
000000e0: b2eb 4fbe 8a6a 243f 9206 8d3f b78c 1bbf
000000f0: 4b42 b7be c676 2b3f ec62 ddbe 0b54 8ebd
00000100: 7806 2d3f f52a 0cbd 9977 1e3f 56f6 3040
00000110: 3c03 143f 94d2 0fbd f4b2 9a3e 0b2a 97be
00000120: 3a3c 723f e72c d4bd bffa 9dbe 12fe 29bf
00000130: ec2c 28c0 12d8 5ebe 6156 bbbd 4f1a c4bf
00000140: ba9b 753e
0.27020872 0.27741364 0.13854532 0.17434193 2.219679 0.15525144 0.09465759 0.13563119
0.11067841 0.64274496 -0.7566741 0.6055471 -0.7725044 -2.8816795 1.0034293 0.55113024
-1.0594153 0.2843148 0.22474386 -0.8800065 0.51838547 -0.8316989 -0.057480514 -1.0293663
-0.12868296 -1.2100586 0.16005263 -0.5224348 -0.11830636 0.79422516 0.557744 -0.73172414
0.21274489 0.3767384 -0.22564411 -0.17089619 0.23376676 -0.15470995 0.38798428 -0.19426233
-0.12258438 -0.32822308 0.61120677 -0.5873127 0.42592856 -0.50385576 -0.12956208 -0.68459255
0.3995876 1.2394329 0.5473755 -0.30946818 -0.26303378 -0.58669317 -0.5201386 0.09769182
-0.20304754 0.64225066 1.101763 -0.6076159 -0.35792765 0.6697811 -0.43239534 -0.06949624
0.67587996 -0.034220655 0.6190124 2.7650352 0.57817435 -0.035112932 0.30214655 -0.29524264
0.9462315 -0.10360127 -0.30855367 -0.66403306 -2.6277418 -0.21762112 -0.09147335 -1.5320529
0.23985186

head_conv.0.depth_wise_2.bias f4 [9]
00000000: 552f 3c3e 2345 d1bc 8bae 19bd 16ce 90bd
00000010: 7c61 d23d dc2b f3bc 43fa 333c 268a 02bb
00000020: b232 043d
0.1837743 -0.025545662 -0.037519973 -0.07070558 0.102725 -0.029684 0.01098496 -0.0019918769
0.03227491

head_conv.1.point_wise_1.weight f4 [20, 9, 1, 1]
00000000: ea17 bf3e f942 47bf 316f b23f b39c 223e
00000010: 8bd0 aabe 7eae 263f a4c2 0a3e cbf5 593f
00000020: bbce 1cbf a247 e6bd 3364 c23e b435 9d3e
00000030: 8027 c53f cc84 d03e 6116 7ebc 77fc 9fbd
00000040: cb7e 81be 26e7 33be 282a 48be aa04 523f
00000050: 0368 bebe a7f1 34be d4a5 db3e 23fa 853d
00000060: f1a3 0bc0 8e75 9bbe 119f d8be 3f41 9bbe
00000070: d6d9 a63f 0091 c1be 190d 81be 1d94 843f
00000080: 4d59 e53d 2cd5 8d3f a4b2 99bd 6ad5 1e3e
00000090: 7bf6 1abe 3830 28bd 6c1f 723e 11fb 36be
000000a0: 34a4 dc3e c313 95bc 777c 01bd 3547 583e
000000b0: 7e88 0f3f f492 463e af6c 1cbf 20bc 1cbf
000000c0: 7418 4f3f abfe 0fbf 5f68 37bd 645b efbe
000000d0: fcce b13f 5d86 ce3d 863c 81be 6b25 afbf
000000e0: e814 0b3e 1d2e febd ad0d da3e 7217 b1bd
000000f0: 4829 8dbe 5dfa 4abf 7783 f1be 124a fa3e
00000100: 760d ce3e 20e3 8f3f 8563 39bf 49ef 07bf
00000110: 9d79 09bd 11ad 25bf cc3d 7f3f 1e6b ccbd
00000120: 8867 863e e67b 713d 2750 743f 22b2 cdba
00000130: f6b1 6abf adc1 91bd eafb 3dbe 75ef 74bc
00000140: 0edc c9bd ac9d 3ebe cf78 073e 575e d2be
00000150: 9a62 2ebe f8b9 6fbc feb8 97be 1ee7 7bbe
00000160: 995e 67bd 5dee 6ebb 224f 653d 6ac7 27bd
00000170: 2368 c0be efa3 863e 489b 953e 3e07 cb3d
00000180: 3825 a13d 35de fb3c 3ec3 fbbe 35ec 77be
00000190: 46a4 fdbd acfe a8be c13a 6abd e03f e43d
000001a0: 5cff 563c d1ff 53be d7fd 19bf cfa6 93bd
000001b0: 947b 71bd 4956 f8be e95e 0c3f 71b5 a2be
000001c0: a557 69ba 72e0 083c 0344 afbe eacb 1cbf
000001d0: 2797 f1be 95e3 733e 0f68 0c3f 8fef 793f
000001e0: a94c f0be 003d b1be acd6 93bd f319 9c3e
000001f0: 9f44 993e 6912 b3bf 9916 313d 2720 5abe
00000200: dd75 35bf 6e8a 7cbd eb9c 2abe acc2 cabe
00000210: a237 9dbe 8666 ab3e 6b22 873c f72d 87bd
00000220: f52b 1e3f c546 87bf 80bf 6cbb 0d32 e63d
00000230: 0c8a debc 0c29 aa3e 5876 973e aed4 1bc0
00000240: 253c dabd 63ac 1f40 a561 73bf 33c3 fcbd
00000250: ddf2 fb3e 97b2 81bc 6c36 733f 9ef2 aa3f
00000260: 076e 0d3f 520a c0bd 05e5 3e3e 0673 5abd
00000270: c085 93be ef83 8c3e 4967 69be 996d 83bd
00000280: 98a3 fb3e 3121 ad3e c3aa 73bf 9b52 27be
00000290: 5eee 1abe 3646 d0be 9cfd 0cbf 1c77 42bf
000002a0: b877 6fbe 912b 123f 2844 173d e6e6 c33e
000002b0: 874c 733c 1746 243e eb9d 41bd 1b8d 1abe
000002c0: 823c 0c3f 886f c7bd bcec e9bd 4893 cebd
0.37322932 -0.7783657 1.3940183 0.15880089 -0.3336223 0.65110004 0.13550812 0.85140675
-0.61252946 -0.112441316 0.3796707 0.30705035 1.540268 0.40726316 -0.015508265 -0.07811826
-0.25292048 -0.17568645 -0.19547331 0.82038367 -0.3718873 -0.17670308 0.42899954 0.065418504
-2.1818812 -0.30363125 -0.42308858 -0.30323216 1.3035228 -0.3780594 -0.25205305 1.03577
0.111986734 1.108068 -0.07504776 0.15511099 -0.15133087 -0.04106161 0.23644799 -0.17869212
0.43094027 -0.0181979 -0.03161284 0.21120913 0.56067646 0.19391996 -0.6110334 -0.61224556
0.8089669 -0.5624797 -0.04477727 -0.46749413 1.3891292 0.100842215 -0.25241488 -1.3683294
0.13582194 -0.12411139 0.4258856 -0.0864705 -0.27570558 -0.79288274 -0.47170612 0.48884636
0.40244645 1.1241188 -0.7241748 -0.53099495 -0.033563245 -0.64717203 0.9970367 -0.099813685
0.26250863 0.05895605 0.954348 -0.0015693347 -0.91677797 -0.07117019 -0.18553129 -0.014949669
-0.09856425 -0.18614835 0.13229679 -0.410876 -0.17029801 -0.014631741 -0.29633325 -0.24599883
-0.0564867 -0.0036457994 0.05598367 -0.04096166 -0.3757945 0.26296946 0.29220033 0.09913491
0.07868427 0.030745605 -0.49172395 -0.242112 -0.12384848 -0.330068 -0.05718494 0.11144996
0.013122406 -0.20703055 -0.60152954 -0.072095506 -0.058955744 -0.4850333 0.5483232 -0.31779054
-0.00089013047 0.008354293 -0.34231576 -0.6124865 -0.47185633 0.23817284 0.5484628 0.9763116
-0.46933487 -0.34616852 -0.0721868 0.30488548 0.29935166 -1.3989993 0.04323444 -0.21301328
-0.7088297 -0.061655454 -0.16661422 -0.39601648 -0.30706507 0.33476657 0.016495904 -0.06600564
0.61785823 -1.0568472 -0.0036124885 0.11240015 -0.027165435 0.3323444 0.29582477 -2.434856
-0.10656003 2.4948967 -0.9507087 -0.12341919 0.49208727 -0.015832229 0.95004916 1.3355291
0.55246013 -0.093769684 0.18642052 -0.05333235 -0.2881298 0.27444407 -0.22793306 -0.064173885
0.4914825 0.33814386 -0.95182437 -0.16340105 -0.15129992 -0.40678567 -0.5507448 -0.75962996
-0.23385513 0.5709773 0.036930233 0.382621 0.0148497885 0.16042362 -0.047269743 -0.1509289
0.5477983 -0.0973807 -0.114221066 -0.100866854

head_conv.1.point_wise_1.bias f4 [20]
00000000: 56cb 06be cdfe d83e 3a4f 0b3e 388f b53c
00000010: cb4e c4bd 1195 de3d 8aa4 47be 9cf1 153e
00000020: 3649 d23e 1517 9ebd 5a2e c7bd 2888 e3bd
00000030: 888e cd3e 0c15 4d3e 1225 28be 8679 edbd
00000040: 49e1 14bd b86d 51be a0c3 c0bc c7f3 6a3d
-0.13163504 0.42381898 0.13604441 0.022163019 -0.09585341 0.10868276 -0.1949636 0.14642948
0.4107148 -0.07719246 -0.09725638 -0.11109954 0.40147805 0.2002756 -0.16420391 -0.115954444
-0.03634766 -0.2045201 -0.023530781 0.05736139

head_conv.1.depth_wise_1.weight f4 [20, 1, 3, 3]
00000000: 0dc6 d23e 8a53 b6be d3c0 553e 5a52 d7be
00000010: cd39 d33f 5619 21bf 71ad 1dbe f879 9cbe
00000020: 65a2 903d 749b b2ba 14ab b33e d026 9b3e
00000030: a889 063b e1f8 313f 52b8 f6bd 20d9 8fbe
00000040: 7df4 2cbe 9b4f 583c e7c0 ed3e 2337 fcbe
00000050: 9d5f 68be c8e6 6b3f fdbc 88bf 399c 37bf
00000060: b42c 1fbf 8351 3c3f aba1 0d3f ab92 e63e
00000070: cd6a 69bf a197 47bb f925 56be 2530 3dbd
00000080: c442 5bbe 7319 9cbe 7d45 9f3f fb54 913e
00000090: 759f ff3e 681a b63e e811 72bf abe0 353f
000000a0: e764 4e3f 0771 79bf ec25 8ebf ab4e 2b3e
000000b0: 942a f13e 8b0e 7c3e 84da 93bd 8843 753e
000000c0: 8589 45be 8cbc aebd c1bc 5bbd 7cbc da3e
000000d0: 6d0c ae3e 7b39 833e b6c1 7c3f 02cb dcbc
000000e0: abe2 b4be 7554 1bbe cd9f 463f b45d 0bbf
000000f0: 7fe3 ab3c 6ee7 99bd d2cc fdbe dd7c 943b
00000100: 9511 363e 41b7 123e c8f8 103e 25d8 333f
00000110: 7a50 8dbc dc42 a5bd 7171 29be 7e33 6fbd
00000120: ef1e 61bf 839b 033f 4cae 4abf 29d8 d73e
00000130: 191d ab3f 55bd 0f3e 92a8 17bf 0483 063f
00000140: acba 65bf 5070 fbbe 990d 433e 4718 a8be
00000150: 2b1e ba3d a44b 533f 5e7d abbd 08f8 51be
00000160: c69e 953e 22fa bbbe 9d51 8f3d cd67 f93e
00000170: 1776 0abe 4cd7 da3e a840 d93e e29b 15bf
00000180: 5576 5abe a6d9 c7be e245 f93c 6493 df3e
00000190: 7105 8b3e d6b6 4b3e 57d3 18bf 2f77 97be
000001a0: f832 e2be b259 de3e 6114 88be 2e75 563e
000001b0: 6291 5dbe a2a5 1c3e 5e1f c83e 246c 59be
000001c0: 031c 283f bcc4 a83e 9a02 c23e bbc8 68bf
000001d0: d02e adbd c312 cfbe 4189 29be e170 2a3e
000001e0: b2a6 2abf 304e 41bf 2c7e 0d3f 63d6 5a3e
000001f0: c07c 0e3f 1316 a93d 9b07 51bf c786 073e
00000200: 1819 d4be 79d3 113f a728 30be c02c 943f
00000210: 19de 80be 4b31 f13e c3e1 6bbf b2da ae3e
00000220: e5a4 0d3d 4883 63be 23fa 97be b825 913f
00000230: 9517 0e3f 13cf d2bd 47b9 19bf e0ba 38be
00000240: 3810 5b3f 0f14 a1bf 55dc f53e 440f 823e
00000250: 77c2 2d3e ee3c 48be 2ece 7fbf 54dd b43f
00000260: 83e3 4dbf bc6e 943e d3e1 34be 43a8 acbe
00000270: 3b7a 693f 1c50 893e 8ac0 263f 9048 f5bc
00000280: 7c78 07bf 0475 a4bf 4762 d8be dac0 d3be
00000290: 73e4 aebe 6c44 c2be ce8e 2f3f fe3c 93be
000002a0: 1568 d6be 1d1c 95be 76fb 06bf 190a 43be
000002b0: 1dc8 cbbe ec74 1ebe 888b f1be aa59 e63f
000002c0: 1e7a 9fbe 0214 c9bd 7351 e0be cba5 5ebd
0.41166726 -0.3561061 0.20874338 -0.42055017 1.6502014 -0.62929285 -0.15398194 -0.30561805
0.07062224 -0.0013626651 0.3509146 0.3030305 0.0020528827 0.69520384 -0.12046875 -0.2809534
-0.1689014 0.013202573 0.46436235 -0.49260816 -0.22692724 0.9214902 -1.0682675 -0.7172275
-0.62177587 0.73561877 0.5532481 0.45033774 -0.9117859 -0.0030455368 -0.20912923 -0.046188492
-0.21412188 -0.30488166 1.2443081 0.28385147 0.49926344 0.3556702 -0.9455857 0.7104594
0.80622715 -0.9743809 -1.1105323 0.16729228 0.47102797 0.24614923 -0.07219413 0.23951542
-0.19290741 -0.08532056 -0.053646807 0.42721927 0.33993855 0.25629792 0.9873308 -0.02695227
-0.35329184 -0.15168937 0.77587587 -0.54439855 0.020982502 -0.07514845 -0.49570328 0.0045314864
0.17780145 0.14327718 0.14157403 0.70251685 -0.017250288 -0.08069393 -0.1654718 -0.058398716
-0.87937826 0.5140917 -0.79172206 0.42157105 1.3368255 0.14037068 -0.5924159 0.52543664
-0.89737964 -0.49109125 0.19048156 -0.32831022 0.09087785 0.82537293 -0.08373521 -0.20504773
0.29222697 -0.36714274 0.069979884 0.48712006 -0.1352161 0.42742383 0.4243214 -0.58440983
-0.21334203 -0.3903324 0.03042883 0.43667138 0.2715259 0.19893965 -0.5969748 -0.29583117
-0.4417951 0.43427807 -0.26578048 0.20943138 -0.2163749 0.15297559 0.3908643 -0.21232659
0.6566774 0.32962596 0.3789261 -0.9093129 -0.084561944 -0.40444002 -0.16556264 0.16644622
-0.66660607 -0.7550993 0.5527065 0.21370845 0.55659103 0.082561634 -0.8165223 0.13235007
-0.41425395 0.56963307 -0.17203008 1.1576157 -0.25169447 0.4710792 -0.9214136 0.34151226
0.034581084 -0.22218049 -0.29683027 1.1339636 0.55504733 -0.102934025 -0.60048336 -0.18040037
0.8557162 -1.2584246 0.48019662 0.25402272 0.16968714 -0.19554493 -0.9992398 1.4130044
-0.8042528 0.28990734 -0.1766427 -0.33722124 0.91202134 0.2681893 0.6513754 -0.029941827
-0.5291822 -1.284821 -0.4226248 -0.41358072 -0.34158668 -0.37942827 0.6857728 -0.2875747
-0.41876283 -0.2912301 -0.5272745 -0.1904682 -0.39801112 -0.1547429 -0.47176766 1.7996113
-0.31147856 -0.09818269 -0.4381214 -0.05435733

head_conv.1.depth_wise_1.bias f4 [20]
00000000: 0a82 cc3c 0257 fabd aaed a43c ec26 3dbc
00000010: 6a68 f53c a21d f7bd edf9 293c 9944 07bd
00000020: 23c0 8b3d 58e0 5c3c 5c7e fe3d 1daa b6bd
00000030: 4f78 8abc 250a d03c 83b0 903c 5768 c23c
00000040: 440f 86bb c0f4 b4bc 4f4d db3d 20d5 183e
0.024964351 -0.12223627 0.020132858 -0.011544924 0.029957015 -0.12066199 0.010374528 -0.033024404
0.068237565 0.013481222 0.12426445 -0.08919165 -0.01690307 0.025395462 0.017662292 0.023731394
-0.0040911753 -0.022089362 0.10708105 0.1492505

head_conv.1.point_wise_2.weight f4 [20, 9, 1, 1]
00000000: c3f8 82bd c16d cc3e 6420 5b3d 2a11 1abe
00000010: c5a1 69be c87d e3be 047f 98be e744 53be
00000020: cad0 883f 3202 1d3e 1464 92be 6c29 54be
00000030: d084 8e3e f925 5dbe a45e 093e c692 01bc
00000040: 9ad9 643e 754a 88bd f910 e03e 128b 98be
00000050: e323 003f 4158 583e eeb1 f1be b249 bdbb
00000060: 4489 4b3f 7083 713f 5d23 bbbe 69b2 5d3e
00000070: 6a0b 5c3f f4c9 813e 4c24 ec3d 3493 acbe
00000080: 2610 16be f1f1 de3d 5102 c83f 7dad 1b3f
00000090: 798d 413e ed80 81be b91c 0ebf 7174 cfbe
000000a0: a895 d33d f864 503e 89c4 863e 9654 9b3e
000000b0: ef9f cbbe 0fb7 e2bd f6be 573f 0012 2a3f
000000c0: e15b 6abe b4a9 4b3f 2a4b f33e 24a9 bf3e
000000d0: f45c 98bf 46c8 fdbe c015 693e e1c6 99bf
000000e0: cf0a debe 5138 1d3f f7b3 0abf ee0f 853e
000000f0: 52b4 01be 7e96 803e e7c1 81be af65 d7bd
00000100: f83b 55be 2460 b93e 08ba 44bd 8027 1a3e
00000110: c32b c9bd f9d2 6fbd 5401 22bf ebcc b83e
00000120: 67e4 d73e 4496 cebe 75ac 8a3f 41bc 6e3d
00000130: 5502 d7bd c4d8 063e 5de5 173e 158f 903e
00000140: 569f 1cbe 69a6 83be f43d 29be d13e bcbd
00000150: 185d 1d3d 7f77 683f 475d 65be de0b dc3d
00000160: bcfb 923e ba35 2c3e 9f44 273f 0688 b43c
00000170: eb41 0ebf 9747 4a3c 6589 9fbf d6a3 e13c
00000180: a802 d9bd e3db dabd 1b37 273b e7a6 62bf
00000190: 11c4 b4bd 2c04 58bc 568b 843e 831d 313d
000001a0: 22cb d13f 8f0c 953e 7148 833e d6aa 123d
000001b0: 71e7 a6bc 563f 06c0 9c43 ddbd 4bb8 653e
000001c0: d6ad 3fbd 8328 9ebc 3146 21bf 45ae 7abe
000001d0: 8a35 23bf 9b87 5e3d 156c 8abd daf8 b43f
000001e0: 43a0 80be b23e ec3e ffa0 0dbe 165a ccbd
000001f0: 70eb 2d3f 9fc6 a6bc 0488 7d3e 0a8b 0d3e
00000200: b4c6 88be 058d c53f 6742 1dbf c15f 61bd
00000210: 156d 57be c4a1 613e 533a 95be c3bc 8bbe
00000220: 6689 443e 2cbf b83d eb14 c0bd 387a 6e3e
00000230: f442 9abe befe 5bbe c933 7ebd ad50 423e
00000240: 4f6e c9be 2ac8 24c0 d3e1 fa3e d2cc 4a3e
00000250: 7db2 193f 090a 5cbd 0955 10bf c197 0ec0
00000260: a87a abbe c5a6 3cbe b0aa 8e3e 9bf5 12bf
00000270: adb3 293d b3bc 203e 061e efbd 24e5 313f
00000280: ea1f 353c a6d9 98bf 585b e53b 8c66 e4be
00000290: 5c9d fe3e 428a bebe 5a8c 02bf e664 62bf
000002a0: 1f06 463d 6729 a73e a289 86be a358 17bf
000002b0: 0b2e 07bd e6bf ca3c ba8d 3dbd 9572 2dbf
000002c0: edb7 853e b45c 87bd 3fed c83c 711b 0f3d
-0.06395104 0.39927486 0.053497687 -0.1504561 -0.22815616 -0.444319 -0.29784405 -0.20631753
1.0688717 0.15332869 -0.2859198 -0.20718926 0.27835703 -0.21596517 0.13415009 -0.007908529
0.22348633 -0.066548266 0.4376295 -0.29793602 0.5005476 0.21127416 -0.47206062 -0.0057766074
0.79506326 0.9434118 -0.36550418 0.2165009 0.85954916 0.2534939 0.115303606 -0.33706057
-0.14654598 0.108859904 1.5625707 0.608116 0.18901624 -0.25293675 -0.5551258 -0.40518525
0.10331279 0.20351017 0.2632182 0.3033797 -0.39770457 -0.11070072 0.8427576 0.66433716
-0.22886612 0.7955582 0.47518283 0.37433732 -1.1903367 -0.4956686 0.22762203 -1.2013818
-0.4336762 0.61414057 -0.54180855 0.25988716 -0.12666443 0.25114816 -0.25343248 -0.105174415
-0.20823658 0.36206162 -0.048028976 0.1505413 -0.098228 -0.05855081 -0.63283277 0.3609384
0.42166445 -0.4034902 1.083388 0.058285 -0.10498492 0.13168627 0.14833589 0.28234163
-0.15295157 -0.25712898 -0.1652754 -0.09191669 0.03841886 0.90807337 -0.22398864 0.10744451
0.28707683 0.1681737 0.6533908 0.022037517 -0.5556933 0.01234617 -1.2463804 0.027543943
-0.1059621 -0.10686471 0.0025515023 -0.8853592 -0.08826459 -0.013184588 0.25887555 0.043241035
1.6390116 0.29111144 0.25641206 0.035807453 -0.020374032 -2.0976157 -0.10803911 0.22433583
-0.046796642 -0.019306427 -0.6299773 -0.24480541 -0.6375357 0.054328542 -0.06758896 1.4138443
-0.2512227 0.46141583 -0.13830946 -0.0997812 0.67937374 -0.020358382 0.24758917 0.1382257
-0.26714098 1.5433661 -0.61429447 -0.05502296 -0.21037705 0.22034365 -0.2914606 -0.2729245
0.19193038 0.09020838 -0.0937899 0.2328881 -0.30129206 -0.21483895 -0.062061105 0.18976088
-0.3934197 -2.574717 0.49000415 0.19804695 0.60037977 -0.053720508 -0.56379753 -2.2280123
-0.33492017 -0.18422993 0.278646 -0.57406014 0.041431118 0.15696983 -0.116756484 0.69490266
0.011054972 -1.1941421 0.0069994144 -0.44609487 0.4972943 -0.37214857 -0.5099541 -0.8843521
0.04834568 0.32648775 -0.2627688 -0.59119624 -0.033002894 0.024749707 -0.04627774 -0.67752963
0.26116887 -0.066094786 0.02452719 0.03493828

head_conv.1.point_wise_2.bias f4 [20]
00000000: 4242 42bd a49c c2bc c71d fa3d 320b cfbd
00000010: 3b7d 11be 5d5c f33d 6ac7 52bd 352b 8fbc
00000020: 5b48 45bd 83da dbbe a050 cf3e 7a23 f63d
00000030: e3b8 94be b0f2 82be 7208 803e dc59 ecbd
00000040: c549 16be 2f72 1dbc f2e9 f73d ab08 f03d
-0.04742647 -0.023756333 0.12212711 -0.10109557 -0.14207928 0.11882851 -0.051459707 -0.017476657
-0.048164707 -0.4294015 0.404912 0.12018485 -0.29047307 -0.2557578 0.25006443 -0.11540577
-0.14676578 -0.009609743 0.121051684 0.11720403

head_conv.1.depth_wise_2.weight f4 [20, 1, 3, 3]
00000000: ca00 283f 2d67 fbbd 1938 813e 3f4e d83e
00000010: af1c 0abf a1ce 86be cc34 b1be 188a 5cbe
00000020: e1b4 bd3d 86ba da3e 5d95 12bf 3dfd 9f3d
00000030: 5e2e fb3e 80d3 aebe 53a5 cb3e d6d3 1dbe
00000040: 626d dbbe 3d7c 003e 6d7e aa3e b3a5 043d
00000050: f88b 83bd 8e03 0bbd 02c3 ed3d 270f 18be
00000060: e02b 03bc c2c7 0cbc 9dd5 7e3e 60dd 843f
00000070: 8032 61bf 4301 80be e64b 133f ba32 b5be
00000080: ab6a 79be 6762 71bf 13f3 3d3f dd70 4bbd
00000090: 3ab5 e33e 80c0 15bf a363 f9be 4322 ccb9
000000a0: a1c2 6ebd 76b1 98be 7feb be3e 8c00 1b3f
000000b0: 0cca 813e 6e0f e33e 796b 87be 0bf1 2e3e
000000c0: 9556 03be 4d3f 52bf a568 93be 35da c03e
000000d0: d9b8 143e 50ad 913e c427 e9bd 06d8 e3be
000000e0: c911 88be 1cd5 473f 4d9b 733e 51fb 773f
000000f0: a89c fa3d c49c 11bf 3a5a 1abf 73f1 c3bd
00000100: 78af 56be 14ac 48be a7cc 403c 3c9a b93e
00000110: ede4 ee3e c82b 8ebe 840c e43e 0cb1 12bf
00000120: 3211 80be 9707 0f3f 87cc 3a3d 9bcf 4e3f
00000130: b409 b6bf 32dd 1d3f a759 d5be d5e5 383f
00000140: e606 82bc 8c35 14bf 3077 5e3f 1b09 063f
00000150: 10c2 88bf 29ad 873f 1d02 1f3e 35da 8bbe
00000160: d682 0cbf 64b0 9cbd 11d1 623e d550 b3bd
00000170: a826 943e a2f3 e9bd 3c75 d6bf 515a c7bc
00000180: 9838 b63e adcc 0d3e aaeb 253e 664f 583f
00000190: 8235 e9be c708 503f 97c4 f2be 3154 15be
000001a0: a795 d3be fc3d 4f3f a210 ebbe aec0 4f3f
000001b0: 07ab 1fbf 19b6 203f 32fe dc3e 847a 1fbe
000001c0: 6c6b 4fbe d3c8 07bf 17b3 ecbd 1fec 183f
000001d0: 3029 1e3f 1516 623f 88b9 113e 7fb4 2b3e
000001e0: 3c40 5f3f 6430 75bf 5ec1 13bf c784 d7be
000001f0: bef5 0e3d 0394 5fbe e516 723e ba42 403f
00000200: 82ec 45bf 0b49 fa3e 32de c53f adca 8dbf
00000210: 0628 3cbf cec0 acbf 736e 4c3f 1f79 19bf
00000220: d788 5a3d 9313 05be 31e1 ad3c 2441 3a3f
00000230: a745 573e b289 77be c82f 1f3d cf59 abbe
00000240: 32e5 7bbf 321d b43f 4ff5 cd3e 6219 103f
00000250: d7db 1bbe 022f 9dbe 7396 f83e 437b a4bf
00000260: 0b99 b8be f4c0 e63e 5dc1 e83d 665c a9bd
00000270: 8b39 333f 8144 093e 888b 96bf f2af ab3e
00000280: 7f44 68be de3e 5cbd be70 c43d a6ab c93d
00000290: f929 a43e 6c47 babd 2c1f b9bf 0fdd 3a3e
000002a0: 5442 ce3e adf6 99bd 1b6b d93e b6a0 5b3d
000002b0: ffbf 96bc 21ba 103e d1f8 223e ce50 19c0
000002c0: f9a9 dbbd 39de 5a3d e8ce 883d 6255 c93d
0.65626204 -0.122755386 0.25238112 0.42247197 -0.5395002 -0.2632952 -0.34610593 -0.21537054
0.092630155 0.4272043 -0.5725916 0.07811973 0.49058813 -0.34145737 0.3977457 -0.1541284
-0.4285689 0.12547393 0.3329958 0.032384586 -0.06423181 -0.033938937 0.116094604 -0.1484953
-0.008006066 -0.008592548 0.24886174 1.0380058 -0.8796768 -0.25000963 0.57537687 -0.35390264
-0.24357097 -0.94290775 0.74199027 -0.04966818 0.44474202 -0.58496857 -0.4870883 -0.0003893544
-0.05829108 -0.29822892 0.37289044 0.6054771 0.25349462 0.4434771 -0.26449183 0.17084138
-0.12825997 -0.8212784 -0.28790775 0.3766648 0.14523639 0.2845254 -0.11384538 -0.4450075
-0.2657607 0.78059554 0.23789711 0.96867853 0.12236911 -0.5687983 -0.60293925 -0.09567537
-0.20965374 -0.19596893 0.011767543 0.36250484 0.46659032 -0.27767777 0.445408 -0.573014
-0.2501312 0.55870956 0.04560521 0.8078553 -1.4221711 0.6166564 -0.41669962 0.72225696
-0.01587243 -0.57894206 0.86900616 0.52357644 -1.0684223 1.0599719 0.1552815 -0.27314916
-0.5488714 -0.07650831 0.22150065 -0.08755652 0.28935742 -0.114234224 -1.6754527 -0.024335058
0.35590053 0.13847609 0.1620318 0.8449615 -0.45548636 0.81263393 -0.4741561 -0.14582898
-0.41325113 0.80953956 -0.45911127 0.8115338 -0.6237034 0.6277786 0.43162686 -0.1557408
-0.20255822 -0.5304081 -0.11557596 0.5973529 0.617816 0.88314945 0.14230931 0.16768073
0.8720739 -0.95776963 -0.5771693 -0.4209349 0.034902327 -0.21833806 0.23641546 0.75101817
-0.7731401 0.48883852 1.5458434 -1.1077477 -0.7349857 -1.3496339 0.7985603 -0.5995044
0.053353157 -0.12995748 0.021225544 0.72755647 0.21022664 -0.2417362 0.038863927 -0.33466956
-0.983966 1.407141 0.40226218 0.5628873 -0.15220581 -0.30699927 0.48552284 -1.2850116
-0.36054263 0.45069087 0.11365006 -0.08269577 0.7000968 0.13405038 -1.1761332 0.33532673
-0.22682379 -0.053770892 0.09591816 0.098471925 0.32063273 -0.09095654 -1.4462638 0.1824839
0.4028498 -0.07517753 0.42464527 0.053620063 -0.018402098 0.14133503 0.15915228 -2.395557
-0.10725779 0.053434584 0.06680089 0.098307386

head_conv.1.depth_wise_2.bias f4 [20]
00000000: 0a82 cc3c 0257 fabd aaed a43c ec26 3dbc
00000010: 6a68 f53c a21d f7bd edf9 293c 9944 07bd
00000020: 23c0 8b3d 58e0 5c3c 5c7e fe3d 1daa b6bd
00000030: 4f78 8abc 250a d03c 83b0 903c 5768 c23c
00000040: 440f 86bb c0f4 b4bc 4f4d db3d 20d5 183e
0.024964351 -0.12223627 0.020132858 -0.011544924 0.029957015 -0.12066199 0.010374528 -0.033024404
0.068237565 0.013481222 0.12426445 -0.08919165 -0.01690307 0.025395462 0.017662292 0.023731394
-0.0040911753 -0.022089362 0.10708105 0.1492505

head_conv.2.point_wise_1.weight f4 [32, 20, 1, 1]
00000000: 6a2e 4d3f c3dd 0e3e a0a3 58be 9bfb 6ebf
00000010: 46f3 1cbf 3f3c 3abf 3757 dbbe cb68 5ebe
00000020: 3972 043d 1646 96bf 6c0e a0bc 3890 0840
00000030: 99aa 083f 6b51 e73f 9cd7 fcbe 8ed6 9abf
00000040: 5be2 3c3f ece6 bcbf 05df a43e 49a2 b6be
00000050: 43c8 063f 4672 9f3f 0dde e8b9 feba 553e
00000060: ff75 1abf 7598 4c3f 7300 59bd 59c7 bebc
00000070: 08ec 90be 65e6 c8bd aaec ecbe 5c58 8d3d
00000080: e204 52be c835 9fb9 9588 65bf 6b29 b83d
00000090: 431d 88bd b131 413e a9f9 fc3e fb21 c83d
000000a0: b7d0 513c 8506 4ac0 adae 4a3f 4285 843e
000000b0: 78b2 b8bd 8e60 4a3f 861d a93e 9fd6 10bf
000000c0: 1895 a3be dd64 503c 10a2 03bf 833f 103e
000000d0: 5699 283e 10fe 2fbe 480b 15bf 9f0b 8f3e
000000e0: 8f44 f8bd 9de1 9b3e bf6b 3a3f 03d0 b4bd
000000f0: 14c1 47be 0e4a a13e c349 a13f 5ad6 ee3c
00000100: 43ca 083e 864e 873e d02c f8bc cc1b 3cbf
00000110: 24fd 663c c87f 923e bdba b53e b85a bdbd
00000120: 6279 dbbd e0c7 043e b4ad b03e ad1a 2ebe
00000130: 51bf 20bd bd5a b4bc 5a5a 11bf 2403 ec3e
00000140: fd0a 0fbf eb49 013e 1e29 ff3d 7669 7fbd
00000150: 4321 183d 652d 83be 9140 273e bc48 4eba
00000160: 4b70 23be c45d a13e e101 1bbf ea24 813f
00000170: d40b 013e 15ac ed3d d534 793e c553 a93e
00000180: 75b5 c13d 1e30 8f3f 27e8 6a3e 1561 b1be
00000190: 0f27 fd3d f7ee 3ebe fc56 263e 464c a2bd
000001a0: fd67 4bbe d6de 983e e3b0 8abf a5ea 25bf
000001b0: ccdc 923d 15ca 1d3f 0ca7 50be 1eb6 213e
000001c0: d8a4 7dbe 66f9 a3bf 9a4a 633e af4d c63f
000001d0: 69df 46bf a0bd 86bf 9f4d 36be fcd9 6d3d
000001e0: 7474 8bbe 81ab 843e ce3d 77bd 02f9 3b3f
000001f0: e53b 943d f140 c939 98fa 153e 23aa 243e
00000200: d278 203e 80cd 0a3e 45ea 753d f53d 51bd
00000210: ec35 89bd f62d 413e 1441 2bbe 4061 1e3e
00000220: 80f7 b6be df3e 043e 3a15 88be 6bd3 99bd
00000230: b5e1 003e ca43 efbe b6d4 2dbe 7d62 8f3d
00000240: aa6b a6bd 0b9b f3bd 5331 d1bd 566e 36be
00000250: 0af5 993e 75c5 26be 1f65 1e3d 855a c43c
00000260: a277 afbe 273e d2be ed73 143e 1c6a a7bd
00000270: 1d9b c3bd 9b33 2cbe 62df 833e 40d3 b83c
00000280: accc ae3c 0125 443c 1aa8 9dbc 157a f63d
00000290: 0c18 4b3d 312f 913e cb8a 473e 2114 c6bd
000002a0: b677 083f f7e4 8d3d 4a3b 303f 13f6 51be
000002b0: 396c 4f3e 43f7 a33c 8816 783e fe73 44bd
000002c0: 68be 45bd c230 9abd 1845 a8bd 20ba 153e
000002d0: 527e 373f 8c0a d4be 3d42 22be adc2 b6be
000002e0: 0633 d2be 6d9a 8bbf f3d4 5e3c bd58 9ebe
000002f0: d8df 363f 0897 d43e 1a04 62bd 1209 3bc0
00000300: 57a9 2dbe 57f5 993f 2c1c 4abf 896e cd3e
00000310: 8afc ddbe 3a03 a63e 438b 983e 4376 123f
00000320: 7fb1 303f 7005 8f3e 6974 31be 8c98 dfbe
00000330: f00f b2bf af98 e93e 2d48 a63d 5118 0fbf
00000340: 7bd6 973e 55f6 12bf 8ef6 763c f2a0 423f
00000350: 50da 3d3e 65a0 5e3e 9809 da3e 994d 683d
00000360: 7eed 0540 cf93 37bc c8ce 143f 4dd6 89be
00000370: e063 58bf eb4d ed3e ef8a 8c3e 309d 353f
00000380: ca8f c2be 6850 44bf 69fa 97bf 6834 b23e
00000390: 0dc3 fcbe 2ab2 78bc 8c41 2fbd d89a 86bd
000003a0: 6c28 babd 8c29 133f 6b03 57be 40ae 43be
000003b0: bf75 9abe 2314 063c 4901 b23d 07b9 81bd
000003c0: eece 42bf 5991 013f b69f ad3e 108c fb3e
000003d0: 864e 2f3e 8ee6 ef3e 9458 aabc 857b fdbf
000003e0: 38d3 e33d bb62 50be 2e28 cf3f e280 b9be
000003f0: 64c9 a63c 2e5a 413e bf03 0c3f 06ba 1fbd
0.8014895 0.13951783 -0.21156168 -0.9335267 -0.61308706 -0.7274818 -0.42839977 -0.21719663
0.032335494 -1.1740139 -0.019538127 2.1338024 0.5338531 1.8071722 -0.49383247 -1.2096727
0.7378289 -1.4757972 0.322014 -0.3567069 0.52649325 1.2456748 -0.0004441593 0.20872113
-0.603363 0.7992013 -0.052978944 -0.023288416 -0.28305078 -0.09809569 -0.4627431 0.06901619
-0.20509675 -0.00030366913 -0.8966153 0.08992275 -0.06646206 0.18866612 0.49409226 0.09772106
0.012806109 -3.156648 0.79172784 0.25882918 -0.09018415 0.7905358 0.33030337 -0.56577486
-0.31949687 0.01271936 -0.5141916 0.14086728 0.16464743 -0.17186761 -0.5822034 0.27938554
-0.121224515 0.30445567 0.7282066 -0.088287376 -0.19507247 0.31501812 1.2600635 0.029154945
0.13358407 0.26427096 -0.030294806 -0.73479915 0.014098439 0.28613114 0.35494033 -0.09245819
-0.10716511 0.12966871 0.34507525 -0.17002364 -0.039244954 -0.022015924 -0.5677849 0.46096146
-0.5587614 0.12625854 0.12459014 -0.062356435 0.037141096 -0.2562057 0.16333224 -0.00078691146
-0.15960805 0.3151685 -0.6054974 1.008939 0.12602168 0.11605088 0.2433656 0.33071724
0.09458438 1.1186559 0.22940122 -0.3464438 0.123609655 -0.18645845 0.1624412 -0.07924704
-0.19863887 0.2985751 -1.0835232 -0.64811164 0.0717102 0.6163648 -0.20376223 0.15792128
-0.24769914 -1.2810485 0.22196427 1.5492457 -0.77684647 -1.0526619 -0.17803048 0.058069214
-0.27237284 0.25912097 -0.060361676 0.7342683 0.072379865 0.00038386093 0.14646375 0.16080527
0.1567109 0.13554955 0.06003787 -0.051084477 -0.06699738 0.18865189 -0.16724044 0.15466785
-0.35735703 0.12914608 -0.26578695 -0.07511028 0.125861 -0.46731406 -0.16975674 0.07001207
-0.08126004 -0.118948065 -0.10214486 -0.17815527 0.30069762 -0.16286261 0.038670655 0.023968944
-0.3427096 -0.41063043 0.14497347 -0.08174536 -0.0955107 -0.16816561 0.25756365 0.02256167
0.02133783 0.011971713 -0.019245196 0.12035004 0.04958348 0.28356317 0.19486539 -0.09671808
0.53307664 0.06928437 0.6884047 -0.20504026 0.20256127 0.020015365 0.24227345 -0.04796218
-0.04827729 -0.07528831 -0.082163036 0.14621782 0.71677125 -0.41414297 -0.1584558 -0.356954
-0.41054553 -1.0906502 0.013600576 -0.30927077 0.7143531 0.41521478 -0.055179693 -2.9224286
-0.1695913 1.2027997 -0.78949237 0.40123394 -0.43356735 0.32424337 0.29793748 0.57211703
0.6902084 0.27933836 -0.17329563 -0.43671072 -1.3911114 0.456243 0.08119235 -0.5589648
0.29655823 -0.5740712 0.015073432 0.76026833 0.18540311 0.21740873 0.42585444 0.056714628
2.0926204 -0.011204674 0.58128023 -0.2692131 -0.845274 0.4634851 0.27449748 0.70942974
-0.38000327 -0.7668519 -1.1873294 0.34805608 -0.49367562 -0.015179196 -0.04278712 -0.06572503
-0.09089741 0.5748527 -0.20997398 -0.1910944 -0.30167958 0.008183512 0.086916514 -0.06334119
-0.76097 0.5061241 0.33910912 0.49130297 0.17119798 0.46855587 -0.02079419 -1.980332
0.11124271 -0.20350163 1.6184137 -0.36231142 0.020359702 0.18882057 0.54693216 -0.038995765

head_conv.2.point_wise_1.bias f4 [32]
00000000: ea20 ca3d f4f9 013e bfa0 abbf 94c4 153d
00000010: 65af 3b3e 9123 843e 4d14 f7bd 0c1f 483e
00000020: 2774 00be 8d3a fb3e 9a38 4d3e 5688 dcbc
00000030: caad 973f 4c10 56bf f8fe 20be 30f6 cf3d
00000040: 14f9 c13e 34e9 2dbf c1ef 8e3f d879 cd3e
00000050: 6ae4 383f 54c0 38be ba2e 513f 4e25 86be
00000060: b923 8e3b e1ce 8ebe e081 dfbd 5fce 85be
00000070: 47a7 95bc 13a3 653e 578f 71c0 09cd e23c
0.09869559 0.12693006 -1.3408431 0.036564425 0.18328626 0.25808385 -0.12064419 0.19543093
-0.12544309 0.49068108 0.20041123 -0.026920479 1.1849911 -0.8361862 -0.15722263 0.101543784
0.37885344 -0.67933965 1.1166917 0.40132022 0.7222353 -0.18042117 0.81711924 -0.26200336
0.0043377546 -0.2789221 -0.109134436 -0.2613401 -0.01826824 0.22425489 -3.7743738 0.027685659

head_conv.2.depth_wise_1.weight f4 [32, 1, 3, 3]
00000000: a260 c63e a013 1f3e 3e78 d33c cbbd 1cbf
00000010: 16cf dc3d a508 9dbd 21b3 6c3d 303f d6be
00000020: 0e24 85be 4398 c73e e806 533e 5136 bf3d
00000030: 7c8b e53d 3b09 2ebf 7ed2 a3be bea7 de3e
00000040: d60e 9f3e d3ae 1cbb a0ea 79be c25d 3ebe
00000050: e80a 8dbe e0c3 293d c5dc b43f 8d72 16be
00000060: d566 233e 01a7 663e 2c18 59bd 519b 793e
00000070: b92e 8d3e 28e7 1abd 8a6e c1be d538 8fbf
00000080: 4807 923e 1fdf bebd cdc1 03be fb57 b83d
00000090: fa5b 4d3e 6704 063d 455f 0b3f 5dac 31bd
000000a0: 440a 82bc faf4 bc3b 089c 8b3e 0124 163e
000000b0: 9929 9e3e c10e 623e 8f45 6a3d 16e7 30bd
000000c0: 5312 0b3d 1d8c 06be 25b8 b0be b571 3abf
000000d0: 7f0c b2bd 48af 073f 3034 b4be 8521 ecbd
000000e0: 3c33 ba3d 80fb 8bbd 9e26 ea3e 51f0 2abe
000000f0: 78d1 2bbd a204 eebd 955b 903e 2d39 8cbd
00000100: bc8c e2be b892 a73d 357c 64be 78e8 953e
00000110: 4ebf 993d 0ead 8c3c c990 d23e a0cd 83bd
00000120: deb1 e7bd 5d6d a6be 4359 fabd 221c a6be
00000130: 4b43 903f 5525 9dbe 416e 6fbe d5a0 16be
00000140: bede 4abe 5fd6 80bf 0615 2d3f c754 003f
00000150: dbd0 70bf f694 71be 1e96 6d3f 6cef 7f3e
00000160: 5e2e 9cbe cf66 12be a1be a7be c347 28bf
00000170: 6b5b 30bf f6ca e3bd b7b2 e8be a3f4 b1be
00000180: 23f2 d33e ca44 7d3f 044a 3f3f 28b4 e63e
00000190: 48b2 bcbc 7410 91bd fd71 c7bc c911 a0be
000001a0: c764 ddbd a56d 023f 9149 33be f721 ddbe
000001b0: 330e a63f ed54 68bf 376c 9d3d 880c 3dbf
000001c0: 3c40 d6be 5809 37bf a430 493f f9d1 02bf
000001d0: 03c2 8c3f cef3 b93e f38d 7f3e f366 b43d
000001e0: 6740 e13e 4f86 3c3f 3391 80bd dad3 a3bd
000001f0: e25c babd aa1e 17bd 1e52 713d 5e3a d03b
00000200: 07bb f5bc fa9d c03d 5d31 c93d a7d8 153e
00000210: 79ab aabd c4fd 843d 0256 313c deee 79be
00000220: 59b7 d3bd bc83 f2bc 328e 8d3b 472d 833f
00000230: 4704 28be a6ff 96be 957f 28bd 8c38 0abe
00000240: b087 523e 9b38 2a3d 2083 113e b27b 93bd
00000250: f93a 5a3f 6559 5ebb e2ad 963d b430 b9b9
00000260: 6943 4e3e 3b4a 07be b001 aebe 8643 193d
00000270: b1ce ebbc 251f 0840 1a8f 88be 2cc7 4dbd
00000280: 3744 82be 8a2b 603d cd3c cac0 2649 9c3d
00000290: c5cd d43e 3cbe b7c0 b355 cd3e f12a 553e
000002a0: 5a79 75c0 0f41 bbbd 8d19 f43e 5f68 a6bd
000002b0: 7f1d bebd 97dc 8dbe 6aec cd3e 0a61 e8be
000002c0: 8161 933e f9a6 cbbe 6bb1 d13d 0190 c3c0
000002d0: 1880 323f 6bd9 a03e 570e 1bbe 0b3b fbbe
000002e0: 5cd4 7ebe bd75 973e e35b 25be b56e 91bd
000002f0: 2581 b0be eb3d 1cbf 8af3 60be f951 0abe
00000300: 0947 2dbd 19da 473e 82d2 cabd 3ad3 a7be
00000310: 2883 723c 6130 cabc dcf4 f0bd e84e 593e
00000320: 2911 f2bd 1914 a13e 1b05 9ebf 2926 233d
00000330: d943 92bd a389 ef3d 754d 9ebc b2af a73d
00000340: 7b77 ffbc 9742 f13d fe1e 833d a839 443e
00000350: 9caf 5cbd af7b 763d 31d6 653c 60dd 7ebd
00000360: 2199 ec3c a414 84bc 9d04 adbe bb2e 043e
00000370: e960 54be e78d 58bc 2427 cf3d 13d2 13bd
00000380: fab5 12be e226 e23d 8ddf d03c bd81 e73d
00000390: 6849 163d 5c39 f23c 38bd 84bd fdc4 a1bc
000003a0: 963a 1dbd 9fa9 003d b47e 01bd bfea b23e
000003b0: fcee 6c3d 04b2 61bd 4fdf 67be 70d8 6fbe
000003c0: 7066 d13e b5a4 ecbd bd43 773e 3db0 97bf
000003d0: b32b 94bf 5ea6 2b3f 6a75 4b3f af36 84be
000003e0: 745c 363e 6bee d73e eaaf 323f 13a0 b03e
000003f0: cb9f 243e 274c 9dbd d974 583e 5040 10be
0.387456 0.1553483 0.025814172 -0.612271 0.10781686 -0.076676644 0.057788018 -0.41845083
-0.2600407 0.38983354 0.20608103 0.09336532 0.11208245 -0.67982835 -0.3199653 0.43487352
0.31066006 -0.0023907914 -0.24405909 -0.18590453 -0.27547383 0.041446567 1.4129874 -0.14692135
0.15957196 0.22524644 -0.053001568 0.24375655 0.2757471 -0.037818104 -0.37779647 -1.1189219
0.2852118 -0.09319901 -0.12866898 0.09001156 0.20054618 0.032719042 0.54442245 -0.04337727
-0.015874036 0.005766508 0.2726748 0.14662172 0.30891111 0.2207594 0.057195242 -0.04318913
0.033953022 -0.13139386 -0.3451549 -0.72829753 -0.0869379 0.5300183 -0.35196066 -0.11529831
0.090918034 -0.06835079 0.45732588 -0.16693236 -0.04194781 -0.116219774 0.28194872 -0.06846843
-0.44247997 0.08182281 -0.22313006 0.29278922 0.075071916 0.017172363 0.41126087 -0.06435704
-0.11313222 -0.32505313 -0.122240566 -0.3244334 1.1270536 -0.30692545 -0.23381902 -0.1470979
-0.19811532 -1.0065421 0.67610204 0.5012936 -0.9406869 -0.2359198 0.92807186 0.24993676
-0.30504125 -0.14297031 -0.32762626 -0.657345 -0.6888949 -0.11122696 -0.4544885 -0.34756956
0.41395673 0.9893309 0.74722314 0.45059323 -0.02303423 -0.07083216 -0.024346346 -0.3126357
-0.108102374 0.50948554 -0.17508532 -0.43189976 1.2973083 -0.90754586 0.07686656 -0.73847246
-0.41845882 -0.7149863 0.78589845 -0.5110164 1.0996708 0.3631882 0.24956493 0.088086985
0.43994448 0.7364244 -0.062776946 -0.07999392 -0.09099747 -0.036894478 0.058916204 0.006354614
-0.029996408 0.09405132 0.098238684 0.14633428 -0.08333487 0.064937145 0.0108237285 -0.24407527
-0.10337705 -0.029603831 0.0043199295 1.0248193 -0.16407882 -0.2949192 -0.041137297 -0.13498133
0.20559573 0.04155789 0.14210176 -0.072013274 0.85246235 -0.0033927795 0.07357384 -0.00035322236
0.20142902 -0.1321191 -0.33985662 0.03741791 -0.028785082 2.126901 -0.26671678 -0.050238773
-0.2544267 0.054729022 -6.319922 0.076311395 0.4156324 -5.741972 0.40104446 0.20817162
-3.8355317 -0.09143268 0.47675744 -0.08125376 -0.0928297 -0.2770736 0.40219432 -0.45386535
0.28785327 -0.39775828 0.10238918 -6.1113286 0.69726706 0.31415877 -0.15142189 -0.49068484
-0.24885696 0.29582015 -0.16148333 -0.07101194 -0.3447353 -0.6103198 -0.21967903 -0.13507833
-0.042304073 0.19516791 -0.099034324 -0.3277834 0.014801778 -0.024681272 -0.11765453 0.21221507
-0.11819679 0.31460646 -1.2345308 0.039831314 -0.07141847 0.11696174 -0.019324044 0.08187808
-0.031184902 0.11780279 0.06402396 0.19162619 -0.05387841 0.060176548 0.014028118 -0.06222284
0.028881611 -0.016123123 -0.33792582 0.12908451 -0.20740093 -0.013217426 0.10114887 -0.036089014
-0.14327231 0.110425726 0.025497222 0.113040425 0.0366911 0.029568367 -0.06481403 -0.019747252
-0.03838595 0.031411763 -0.031614974 0.34944722 0.0578451 -0.05510141 -0.22643779 -0.23422408
0.40898466 -0.11554853 0.24146934 -1.1850659 -1.1575836 0.6705073 0.79476035 -0.2582297
0.17808706 0.42174086 0.69799674 0.34497127 0.16076581 -0.076805405 0.21138324 -0.14087033

head_conv.2.depth_wise_1.bias f4 [32]
00000000: 18fe 733d e726 3f3e 4d7f d83b d38b 983e
00000010: 8a38 0c3f d94e 993c 28cd 4e3e 3882 aa3e
00000020: 3313 323f 3b8a 1a3d 3b99 a1bb e870 ca3d
00000030: 6c97 873e cca2 203c a9fa 50be 25ca 283f
00000040: 732a 9b3d 2f8a c1bd fd94 f23e 6eb4 aa3e
00000050: 27c8 cdbd dd1c 1a3f 287e 1a3e 0e25 0fbf
00000060: e41d 0b3f 3f80 03bf 8a9f 41bd 425b 6b3d
00000070: ef2b 493f 7292 e9bc ab57 19c0 005b 633c
0.059568495 0.18667184 0.0066069723 0.29794177 0.5477377 0.018714355 0.20195448 0.33302474
0.69560546 0.037729483 -0.0049315966 0.098848164 0.26482713 0.009804439 -0.2040812 0.6593345
0.07576456 -0.094501846 0.47379294 0.33340782 -0.10047942 0.6020029 0.15087187 -0.55915916
0.54342484 -0.51367563 -0.04727129 0.057460077 0.7858266 -0.028512213 -2.3959758 0.013876677

head_conv.2.point_wise_2.weight f4 [32, 20, 1, 1]
00000000: 71ab 9e3e cac5 a63d e7d0 b63d 29c4 36bf
00000010: 49db 4cbf 9364 8fbe 09cf c6be be34 14bf
00000020: 6d42 d3be b784 6f3b 05f2 50bf 09cc 193f
00000030: 3878 65bd 5f9c 8f3c 300f 4b3d 9c67 b93f
00000040: 51e6 5a3e f82a 8abf 879b 53be 9482 94be
00000050: 78eb 0fbe 2241 b63f 8b55 b8be cdc5 bdbe
00000060: 9475 183f 0cd9 3bbf 8f8a b63c f042 22bd
00000070: b25d 043e bc6d 25be ac0f 083c 8154 bdbd
00000080: 1b7f 863d ce2c 523c 836d 433f 9ea3 c0bc
00000090: 73cb 213e 4955 09be 73df bbbe eb71 2cbe
000000a0: f96a 143f 1caf 0340 47c7 c0bd a6ae b33e
000000b0: 20e1 e7be 1e5a 363f 20fd aabd a023 3bbf
000000c0: 343f 4bbe 8ce1 1cbd 35a7 dfbe 5fb2 bb3d
000000d0: a419 68be 9bed 03be 9404 6ebf 3ca0 793d
000000e0: 4fd9 57be 809f 873e 5acc b83e 91fe 7c3d
000000f0: 6146 9dbe 6bae 9abe 4d24 99be 97f2 09be
00000100: 93c9 05bd 3b8a 9c3d cbd8 ee3c 5a70 d43e
00000110: 7742 babe a2b6 6b3d d2cd d73d 6fdc dfbd
00000120: be37 ff3d c071 953e aa88 9d3e c10d 413e
00000130: 61a1 433d 620b a53d 396f 03bf 10c8 983e
00000140: 8844 9abe 171d 433e 296b 163e 0486 933e
00000150: d70e bebe e98f 263e db30 fc3a daf5 123e
00000160: eb2e 953c 6144 e93e e454 b93e d6df 7a3e
00000170: 492a bc3d 0ae8 e43d e879 0ebe 7937 a93e
00000180: 2008 aabd c632 b73e aef1 44be b91d 713d
00000190: 0912 8dbe 72d1 f5be 22cf 203e 649f 75bf
000001a0: 02a1 c0be c1bf fdbd 1e68 993e 5f95 43bf
000001b0: 09ec 16bd db7d 4fbd 8c63 1b3f 0713 48bf
000001c0: a29b d33d 25a6 a3bf 10b6 063e b0f9 c33e
000001d0: 48d6 cf3e e6a2 a13e fd0f bcbc 7a6a 8e3e
000001e0: 52e1 37be c13c efbd 507e 19bc 9d8c b0bc
000001f0: 01e0 123e fb7c e6bd d450 e13c e303 8dbd
00000200: 3199 7c3c c680 b43d 8b7b f9be 733a 4bbd
00000210: 3968 33bd 2fa0 583d 5c6e ab3c 2515 ef3d
00000220: 229f 9a3d cd75 313e d7fa d93b 265e 79bf
00000230: f668 313e 6b5c b2be 7381 e63b 9586 68bb
00000240: d1f7 763e b4fd d4be 2765 45be a0cf 6d3e
00000250: 77df 2fbd f875 dfbd a863 c03e c2db 313e
00000260: e5ee ebbe 6d2c 9fbe 0538 8abe 31ef 303d
00000270: 9afb 1c3d e8b1 2fbe 4169 483e 58a3 493f
00000280: 4089 d5bd 48d5 b3bb 2d48 11bd 4172 713b
00000290: d7a4 3cbd 8620 a4bd 75ac 9dbd f284 55bd
000002a0: 3816 6d3d 9877 343c 10db afbe f83d 6abc
000002b0: ff13 a4bd 00d2 5c3d 5d3d e0bd 344a 153d
000002c0: 6b25 ea3b 5f14 603d 0d77 493d 584b 78bf
000002d0: 020f 4ebe ebe4 f4bd aef5 1a3f 2e5d 6abf
000002e0: e05c aebf 77c8 783d be3d 85be c662 08bf
000002f0: a748 2fbf b21b 313f 9380 4d3f 3470 3b40
00000300: 349f 623e d4c9 253f bf23 183f e09f 0040
00000310: a8c4 333f 57a1 773f 8dee 33be e2ea 8bbe
00000320: 056c 3f3f d159 1a3e ffc2 a4bd d4b6 71be
00000330: b422 36bf 83ff 2d3f a505 4cbf 105e 41be
00000340: efd7 d83d 9603 6abd 9d8f 62bc a165 f43b
00000350: 12f3 db3f d655 b5bd fe28 abbf bef1 fabe
00000360: d37e 5e3f 7482 393f 2ced b33f 7f43 8b3d
00000370: 7471 d9bd ae90 0abf 700b 943e 87b0 c93e
00000380: bf31 31be be80 e6bf dc55 58bf 7b15 9dbf
00000390: a026 24be 714c b83d a483 453e 069c 97be
000003a0: 3d59 1f3f a2a7 c73e 075b c13d 0b8b cf3c
000003b0: 2348 33be df7d ba3e ce43 973f be6c 363d
000003c0: f606 1abe f5c5 1d3f 58c6 443e 24a4 85bf
000003d0: 29bf 42bd cac0 b2bf 76d4 ca3d 52b1 3e3f
000003e0: c2a4 84bf c446 61bf 8a20 82bf ac4a e7be
000003f0: ee72 cb3e dfee ba3e eb13 c93e 5768 c93e
0.30990174 0.08143194 0.08926564 -0.71393067 -0.800221 -0.2800642 -0.3882983 -0.5789298
-0.41261616 0.003654761 -0.8161929 0.6007696 -0.056022853 0.017530618 0.04957503 1.4484744
0.21376921 -1.0794363 -0.20664798 -0.29005873 -0.14054668 1.4238627 -0.36002764 -0.37064973
0.5955441 -0.7337806 0.022282867 -0.039614618 0.12926367 -0.16155142 0.008304518 -0.092446335
0.06567212 0.012828065 0.76338977 -0.023515519 0.15800266 -0.1341144 -0.36693916 -0.16840331
0.5797573 2.0575628 -0.09413009 0.35094184 -0.45288944 0.7123126 -0.08349061 -0.73101234
-0.19848329 -0.038301036 -0.43682256 0.09164881 -0.22666031 -0.12883608 -0.92975736 0.060943827
-0.2107899 0.26488876 0.36093408 0.06176621 -0.30717757 -0.30211195 -0.29910508 -0.13471447
-0.03266294 0.07643553 0.02915611 0.41491967 -0.36378834 0.05754722 0.10537304 -0.10930716
0.12461804 0.29188347 0.3076833 0.18852903 0.047761325 0.08058812 -0.5134159 0.29840136
-0.3013041 0.19054066 0.14689316 0.28813183 -0.37120697 0.16265835 0.0019240634 0.14351597
0.018210849 0.4555998 0.3619758 0.24499449 0.09187753 0.111770704 -0.13913691 0.33050135
-0.08302331 0.35780925 -0.19232818 0.058866236 -0.27552822 -0.48011357 0.15704015 -0.95946336
-0.3762284 -0.1239009 0.29962248 -0.763998 -0.036846194 -0.050657135 0.6069877 -0.78154033
0.10332419 -1.2785078 0.13155389 0.38276434 0.4059317 0.31569594 -0.022956843 0.2781561
-0.17957047 -0.1168151 -0.009368494 -0.021551425 0.14343263 -0.11254307 0.027504362 -0.06885507
0.015417383 0.08813624 -0.48727068 -0.04961629 -0.043800566 0.052887138 0.020926647 0.11673955
0.075498834 0.17330094 0.006652217 -0.97409284 0.17325196 -0.34836134 0.0070344745 -0.0035480608
0.24117972 -0.4159981 -0.19276868 0.23223734 -0.042937722 -0.10911173 0.37576032 0.17368987
-0.460807 -0.31088582 -0.26995865 0.04319686 0.038325883 -0.1715771 0.19571401 0.7876487
-0.10426569 -0.0054880716 -0.035469223 0.0036841782 -0.04605564 -0.08014016 -0.07698909 -0.05212874
0.057882518 0.0110148415 -0.3434682 -0.014297001 -0.080116265 0.05391121 -0.10949204 0.03644772
0.007145574 0.054706927 0.0491858 -0.96989965 -0.20122913 -0.11957725 0.6053113 -0.9154843
-1.3622093 0.060738053 -0.26023668 -0.53275716 -0.68470234 0.69182885 0.80274314 2.9287233
0.22131044 0.6476109 0.59429544 2.009758 0.7022195 0.9673056 -0.17571469 -0.2732764
0.747742 0.15073325 -0.08045005 -0.236049 -0.711467 0.67968005 -0.7969611 -0.18883538
0.10588061 -0.057132326 -0.013828185 0.007458404 1.7183554 -0.088542625 -1.3371885 -0.4901256
0.8691227 0.7246468 1.4056754 0.06799983 -0.106173426 -0.54127014 0.28914976 0.39392492
-0.17304133 -1.8008039 -0.8450601 -1.227218 -0.1603036 0.08998955 0.19288498 -0.29611224
0.6224554 0.3899508 0.0944119 0.025334856 -0.17507987 0.36424157 1.1817567 0.0445373
-0.15041718 0.61630183 0.19216287 -1.0440717 -0.047545586 -1.3965085 0.09903805 0.7448932
-1.036278 -0.87998605 -1.016618 -0.45174158 0.39736122 0.3651037 0.3927301 0.39337417

head_conv.2.point_wise_2.bias f4 [32]
00000000: 7607 653e 430f b63e f5d2 b03e fce4 a23e
00000010: 0705 78bc e57b c53d 0c00 e9be 95b8 1f3e
00000020: 726d f63e 24e7 d1be 91aa 7cbd 0101 dbbe
00000030: b6b4 fc3f cc57 06be fc4c cc3d 40f1 423e
00000040: f79b d9bd 1570 bebe a07d 28bf 9950 5c3f
00000050: f86c 433f d8f7 4d3c 3bac acbe da56 863e
00000060: 8d31 463c efc1 de3d 62e6 7e3d 30b3 68be
00000070: c683 ad3d 039e 083c 8ab6 603f da36 1ebf
0.22366127 0.3555852 0.34535947 0.31815326 -0.015137917 0.09642772 -0.45507848 0.15597756
0.48130375 -0.4099666 -0.061686102 -0.42774203 1.9742649 -0.1311943 0.09975621 0.19037342
-0.10625451 -0.37194887 -0.6581669 0.8606048 0.7633815 0.012571298 -0.3372515 0.26238137
0.012096775 0.10876834 0.06223143 -0.22724605 0.084723994 0.008338454 0.8777853 -0.61802447
