codes/Weights/wv3/weight-640.pth (torch, 92405 bytes, 80 tensors)

head_conv.0.point_wise_1.weight f4 [9, 9, 1, 1]
00000000: f882 d13e 97e2 3abf f163 623f c46c f1be
00000010: da96 53bd 5ef8 72bf 1aa8 643c 868d 33bf
00000020: d3ba 8d3e df50 13bb ca87 f3bd 38a7 99be
00000030: 92e8 5a3e 0ed7 07bf d30d da3f c15c 1dc0
00000040: 00f9 8dbf 227f 0c40 4562 c83d 788a 0ac0
00000050: 027e 08c0 ac3d e03f 1f9a 85bf 70b6 b6be
00000060: 4e24 7dbc 3a2a f33e 2dcc abbe 8ea6 debb
00000070: 8b15 babf f84c 95bf 7e5c abbe 1a2c f2be
00000080: 3655 9cbf 048a 52bf 9146 2f40 b874 d83f
00000090: ca1a 2abf 7411 c5bf a1c7 983f 67e5 2d3f
000000a0: ab7f b0bf ab7c 0bc0 b9b4 c63f 868f 22bf
000000b0: 1615 01be 62ec 12c0 312c 263f 8b47 c3be
000000c0: 728d d4be 53cd d53f 60ca 143e aafe 263e
000000d0: 4380 e63e 647e 2e3f ea52 4b3d d997 ebbf
000000e0: 8502 d9bf fcda 97bf 3269 123f 136c 613f
000000f0: 9c92 1f40 6427 b0bf 0eb2 873e 7e1a 6b3c
00000100: 3f97 2bbf 72db 86be 44d6 a33f e331 b03e
00000110: a830 bcbe 6c45 0ac0 6a21 bebf 32f6 8040
00000120: 09dd 4cbd 3e05 e73e 4dfc 88bf 5b6a 72bd
00000130: bc11 2740 0626 23c0 fb3b d6bd 4dc5 73bf
00000140: e220 c83f
0.40920234 -0.73002 0.8843375 -0.47153294 -0.051657535 -0.9491023 0.013956094 -0.7013782
0.27681598 -0.0022478623 -0.11891134 -0.3001039 0.21377781 -0.5306252 1.7035469 -2.4587862
-1.1091614 2.1952596 0.097843684 -2.1647015 -2.132691 1.7518821 -1.0437659 -0.35686064
-0.01545055 0.47493154 -0.3355421 -0.006794757 -1.4537824 -1.1664114 -0.33469003 -0.47299272
-1.2213504 -0.82241845 2.738682 1.691062 -0.66447127 -1.5395951 1.1935922 0.67928165
-1.3788961 -2.1794841 1.5523902 -0.6350025 -0.126057 -2.2956777 0.6491118 -0.3814052
-0.41514164 1.6703285 0.14530325 0.16308084 0.4501973 0.68161607 0.04963962 -1.8405715
-1.6953894 -1.1863704 0.57191765 0.88055533 2.4933233 -1.3762021 0.26503032 0.014349578
-0.6702766 -0.26339298 1.2799764 0.3441306 -0.36755872 -2.1604872 -1.4853947 4.030053
-0.050015483 0.45121187 -1.0701996 -0.05918346 2.6104574 -2.5491958 -0.10460659 -0.9522293
1.5635035

head_conv.0.point_wise_1.bias f4 [9]
00000000: 6bce 2a3e d517 1a3e d708 a03e 8c3e 0e3d
00000010: 4241 793e bb93 473c fe38 d43e 78f7 3cbd
00000020: 03ba 473d
0.16680305 0.15048154 0.31256744 0.034727618 0.243413 0.012181218 0.41449732 -0.046134442
0.04876138

head_conv.0.depth_wise_1.weight f4 [9, 1, 3, 3]
00000000: b799 df3e ad38 313e 045b 673e 637a 10bd
00000010: 1f45 aebf b0c2 183e 8f67 02bd 73ae debc
00000020: 0cc8 6f3e 89be 5f3e 16ff 2fbf 15f0 cb3e
00000030: eb6f 34bf 496d dfbf bc8f 95bd 1167 da3d
00000040: 42a3 c5be bc52 543e 1ec4 5c3e 3faa 193f
00000050: deae 86bd 4cca 5c3f 0c34 ef3e 44ff 2f3f
00000060: 455e 37bd 16ee 133f 9577 08bf af36 213f
00000070: f055 8bbf 0444 8fbe 701c a7bf 5f76 0f40
00000080: 7476 2a3f d8cb dabe e21d 273f fdcb 04be
00000090: c33a 2abd bc4f b13d 2360 1abe ed08 8b3d
000000a0: be51 0f40 a18f bf3d 1064 97bd e69d 513e
000000b0: 9f7b c4bd d8f3 58be 83c4 08bf b0a0 81be
000000c0: fb5e f6be cf27 b43d 0c6e 09bf 90e0 7dbe
000000d0: b1ab ecbe f7f7 91be 3142 473d 82c6 89bf
000000e0: da4e 2a3f 8820 253f 1fa2 4440 f44d 86bf
000000f0: 6282 afbe 507e 263e 2263 c53e 41a2 f83d
00000100: 9dfa bcbc edba e93e ac00 38bf ceba 25c0
00000110: f846 d13f dc24 5e3e c234 c63e e0c0 003f
00000120: ce17 14bf 2979 a33d 7e36 92be 43d2 b3be
00000130: c3ce 1bbf dd65 dcbe 33d3 fd3d 2ac3 d3be
00000140: e192 423e
0.43671963 0.17306776 0.22593313 -0.035272967 -1.3614844 0.14918017 -0.031837042 -0.027182793
0.23416156 0.21850027 -0.68748605 0.39831606 -0.70483273 -1.7455226 -0.07302806 0.106641896
-0.38601118 0.20734686 0.21559188 0.600254 -0.06576322 0.8624618 0.46719396 0.6874888
-0.044767637 0.57785165 -0.5330747 0.62974066 -1.0885601 -0.2798158 -1.3055553 2.2415998
0.66586995 -0.42733645 0.6527997 -0.1296844 -0.041559946 0.08657786 -0.15075736 0.06788812
2.2393641 0.09353567 -0.07392132 0.2047039 -0.09593891 -0.21186769 -0.53424853 -0.25317907
-0.4811934 0.087966554 -0.53683543 -0.24792695 -0.4622474 -0.28509495 0.04864711 -1.0763705
0.6652657 0.64502764 3.072395 -1.049254 -0.34279162 0.16259122 0.38552195 0.121403225
-0.02306872 0.45650426 -0.71876025 -2.5895267 1.6349783 0.21693748 0.38712126 0.50294304
-0.57848823 0.07982094 -0.285572 -0.35121354 -0.6086237 -0.43046466 0.12393799 -0.41359836
0.19001342

head_conv.0.depth_wise_1.bias f4 [9]
00000000: 4962 363e 1785 d5bc 0bd8 15bd ad22 84bd
00000010: a176 c13d 5b61 d1bc b7e1 853c 22e2 3e39
00000020: 9c7a 103d
0.1781093 -0.026064439 -0.036582988 -0.064519264 0.09446455 -0.025559118 0.01634298 0.00018204053
0.03527318

head_conv.0.point_wise_2.weight f4 [9, 9, 1, 1]
00000000: d43b d8bf 0e53 0d3d 8438 fe3d ef88 7b3e
00000010: a995 053f 97b8 ac3f b420 35be 7f33 c63e
00000020: d749 13bf e82d 2cbc 268c 50bf bf1e 5bbf
00000030: 710e 773e f9bf cdbe 0cd5 de3f 3618 dbbf
00000040: 5f0f 88bf a96a 2240 92dc 53bd 3f90 2f40
00000050: 7a23 893f d8c4 2ec0 bd7e 153f 51bf b33e
00000060: 33fe a7bd 4b42 8f3e 209d a1be 0ee0 f43c
00000070: 32f4 bcbe edd1 1d3f a8f0 643f f5e1 f6bd
00000080: 81ed d2bf 1c31 393f 84ed 6f3f 4e0b f7bf
00000090: 3f6b ce3b 1fb2 8ebe ea48 833f b311 d03e
000000a0: 58ef 47be 95d8 a9bf 451e e73f 8441 51bf
000000b0: 82dd 2dbf 2c56 88be 7a01 b2bd 0442 6c3f
000000c0: 065c a63e 289d 73be 186e 3d3f 9122 6cbf
000000d0: a295 c23f 3dbb edbf 0953 3dbd 00dd cdbf
000000e0: 1296 6abf 8b6c acbf 25c2 593e f229 1e40
000000f0: e1f7 8b3f 80c7 c2be f113 d5be 3097 ba3d
00000100: 6908 1b40 89bc d7bf 4741 bebe 1f2b db3f
00000110: 0bbc b4be 47cb ebbf 5ad0 9d3f e3ba 94bf
00000120: e899 50bc eb01 813f 43cb 0ebf 65df a03e
00000130: b5d6 4f40 2759 3bc0 8ea2 883e fed9 91bf
00000140: 2f8f d13f
-1.6893258 0.034503035 0.12413123 0.24563955 0.5218149 1.3493832 -0.17688257 0.38711163
-0.57534546 -0.010508992 -0.8146385 -0.8559379 0.24126603 -0.40185526 1.7408767 -1.7116764
-1.0629691 2.53776 -0.051724024 2.743179 1.0713952 -2.7307644 0.5839651 0.351069
-0.082027815 0.27980265 -0.3156519 0.029891994 -0.36905056 0.61648446 0.8942971 -0.12054817
-1.647873 0.7234056 0.93721795 -1.9300325 0.006299406 -0.2787027 1.0256627 0.40638503
-0.19524896 -1.326922 1.8056113 -0.81740594 -0.6791612 -0.26628244 -0.08691688 0.9228823
0.32492083 -0.23790419 0.73996115 -0.92240244 1.5201914 -1.8572766 -0.046221767 -1.6083069
-0.9163524 -1.3470625 0.21265467 2.4713101 1.0935022 -0.3804283 -0.41616777 0.09110868
2.4223883 -1.6854411 -0.37159178 1.7122535 -0.35299715 -1.842141 1.2329209 -1.1619533
-0.012732007 1.007871 -0.557789 0.31420437 3.2474797 -2.9273164 0.2668652 -1.1394651
1.6371821

head_conv.0.point_wise_2.bias f4 [9]
00000000: 04cd 9bbd 9e9f f63d 24b7 e6bd 28ae 66bd
00000010: 1ef2 8dbc 65fc dfbd aac3 843e b44e 303c
00000020: 7b43 0ebe
-0.07607463 0.12042163 -0.112654 -0.056318432 -0.017327365 -0.10936812 0.2593053 0.010760952
-0.1389293

head_conv.0.depth_wise_2.weight f4 [9, 1, 3, 3]
00000000: d041 953e 50e7 823e 07bd 243e 563f 303e
00000010: 96bd 0b40 4de6 363e 9887 cf3d 6213 153e
00000020: f339 063e 258e 1c3f e391 46bf a2df 413f
00000030: 1874 46bf a605 3dc0 94d7 5b3f 8c25 073f
00000040: 0bde 80bf f682 a53e a5ab 673e 7c3d 6bbf
00000050: ee86 073f ad8f 51bf 01d0 fdbd 477c 8dbf
00000060: 7967 a4bd d58b a5bf 501a 403e ff28 fdbe
00000070: f7eb dabd 055b 513f 062e e73e 16cc 33bf
00000080: 6cf1 323e 9249 9f3e 5cc4 8cbd dee4 8dbe
00000090: dce6 5c3e 8682 02be 9d1c ad3e cde6 4abe
000000a0: b217 a7bd 1731 86be 1c26 153f 8580 10bf
000000b0: abc9 b73e 5e87 ffbe 92e1 29be 5cb3 25bf
000000c0: 9eb7 d43e 7fc4 9a3f 0ceb 063f f6ea 93be
000000d0: 6286 6fbe c274 0ebf a9e3 04bf 635e eb3d
000000e0: ad1c 4ebe da96 203f 9b17 803f 40bf 13bf
000000f0: d8b1 afbe f7ab 313f 6b99 00bf ec8f 62bd
00000100: 2763 223f c7ab 6b3c 05c0 213f 8b74 3040
00000110: 8b28 263f f7ca 6a3c 06c5 c53e 3556 8cbe
00000120: e91f 733f 3e44 a9bd 47ad 9dbe 9a93 4abf
00000130: 4a02 27c0 3600 3abe e58b 0dbd 012b ccbf
00000140: b86a 9a3e
0.29151773 0.25567102 0.16087733 0.1721166 2.1834464 0.1786129 0.10133284 0.14558175
0.13108043 0.61154395 -0.77566355 0.7573186 -0.77520895 -2.9534698 0.8587582 0.52791667
-1.0067762 0.32326478 0.22624071 -0.9189069 0.5294026 -0.81859857 -0.12393189 -1.1053551
-0.08027548 -1.2933298 0.18760037 -0.4944534 -0.10689538 0.8177951 0.451523 -0.70233285
0.17474908 0.31110817 -0.0687339 -0.27713674 0.21572441 -0.12745103 0.33810893 -0.19814606
-0.081588164 -0.26209328 0.58261275 -0.56446105 0.35896048 -0.49907964 -0.16589954 -0.64726806
0.4154634 1.2091216 0.52702403 -0.28890198 -0.23391107 -0.5564691 -0.5190988 0.11492612
-0.20128126 0.6273018 1.0007204 -0.577137 -0.34315372 0.6940302 -0.502341 -0.055313036
0.63432544 0.014384217 0.63183624 2.7571132 0.64905614 0.014330617 0.3862688 -0.2740952
0.94970566 -0.08264969 -0.30796263 -0.7913147 -2.6095147 -0.18164143 -0.034557242 -1.5950624
0.30159545

head_conv.0.depth_wise_2.bias f4 [9]
00000000: 4962 363e 1785 d5bc 0bd8 15bd ad22 84bd
00000010: a176 c13d 5b61 d1bc b7e1 853c 22e2 3e39
00000020: 9c7a 103d
0.1781093 -0.026064439 -0.036582988 -0.064519264 0.09446455 -0.025559118 0.01634298 0.00018204053
0.03527318

head_conv.1.point_wise_1.weight f4 [20, 9, 1, 1]
00000000: 3bcb ca3e 10b9 47bf f96e b03f b48e 3e3e
00000010: 69bd acbe 0fbb 2e3f 4f71 d23d 5dda 423f
00000020: b90f 25bf fd12 00be 1f1f c73e 5780 a43e
00000030: cca1 c63f 9717 cf3e d78a 43bd a660 9ebd
00000040: b5d0 5ebe 68d2 3ebe e6e1 5cbe 95b4 5e3f
00000050: 3702 9bbe 7e2e 48be 5846 f43e 428a 933d
00000060: 72ec 06c0 ab34 bfbe d29c cabe 9d8a a9be
00000070: d408 ab3f 5fd6 a9be f365 8bbe 4348 873f
00000080: 8a6d b03d f104 933f 5c5f 093c 4291 5f3e
00000090: 91bb 26be 4225 f5bc e186 5d3e b641 36be
000000a0: 4391 e13e d036 e1bc b981 22bd 479b 623e
000000b0: 1b01 0d3f fa04 593e c228 27bf 3e92 14bf
000000c0: beb3 383f ac5e 18bf db53 89bd 6e6b 03bf
000000d0: 9753 ac3f 6656 8d3d c812 85be d4c6 adbf
000000e0: 3077 f83d 7f91 b5bd d2b3 d93e 48d2 d4bd
000000f0: bd57 58be ba8b 59bf 60e6 f8be 4e5b f43e
00000100: 6169 cf3e 09bc 903f 1d67 31bf ec17 0cbf
00000110: f20c 39bd e635 32bf 5e2d 803f f5d5 f8bd
00000120: c5e8 943e 0f3e 973d feac 7a3f d611 ff3c
00000130: 5699 6cbf 76cf bfbd 14e8 54be c452 14bd
00000140: cb36 92bd ab98 22be 9455 a53d 0ad9 c0be
00000150: b8c4 41be 623d 34bd 56f7 8ebe 4ed0 8ebe
00000160: 2a2a 8e3c 4df9 35bd 5aba 013d 7b00 3abc
00000170: 99e2 bbbe c517 783e 881f 9b3e d623 bd3d
00000180: 5af7 d93d dcc0 7b3d 66ca 0abf 5f4c 75be
00000190: 35ae d8bd 1380 c6be 3f27 76bd 3948 193e
000001a0: c429 ab3c 8ac7 2cbe c291 1cbf 3b1c 17be
000001b0: 4d34 98bd a3f9 d8be 3fe9 073f 8f95 93be
000001c0: cc58 923d 2322 06b9 8279 08bf 6541 24bf
000001d0: d8c8 05bf c372 5e3e 8963 1a3f 692f 813f
000001e0: c259 00bf 4ead a6be 5db6 82bd fe06 973e
000001f0: ac0a a63e 82b8 afbf f9e4 2c3d 1b69 5dbe
00000200: c6b9 43bf ded8 b3bd b0fb 19be 8953 d6be
00000210: 76da a3be a587 ae3e 88ae d5bc 5279 42bd
00000220: 1540 1b3f b31c 84bf 61b7 c2bc 3f63 f53d
00000230: 0a8b ebbc 401c b93e 57e9 c43e 8011 1ec0
00000240: 6507 aebd 50b3 2340 63e8 82bf 4c78 41be
00000250: 388e e03e fc81 dabb 735d 7f3f e501 b33f
00000260: 3ea4 193f 30f1 89bd 4670 293e cf63 4bbd
00000270: 7c3a a7be b70c 663e c094 78be 6e2d ecbd
00000280: e4cf 0d3f d608 ae3e e108 67bf 0e63 3fbe
00000290: a702 15be 8102 debe 2fd4 05bf 7ed2 39bf
000002a0: 91f5 79be f4cd 123f a26e f93c d6ed c93e
000002b0: b2ae 963b 8907 343e 9edf 02bd ca8d 08be
000002c0: 1914 0f3f 83d4 cbbd 3305 babd d37a bbbd
0.39608178 -0.7801676 1.3783866 0.18609124 -0.33738258 0.6825418 0.10275518 0.76114446
-0.64477116 -0.12507243 0.3889093 0.32129166 1.5518126 0.40447685 -0.04773983 -0.07733278
-0.21759303 -0.18634951 -0.21570548 0.86994296 -0.30275127 -0.19548985 0.47709918 0.07204105
-2.1081815 -0.3734487 -0.3957277 -0.33113566 1.3362069 -0.33171365 -0.2722622 1.0568928
0.08614643 1.1485883 0.008384552 0.21832755 -0.16282488 -0.029924992 0.21633483 -0.17798504
0.44056138 -0.027491957 -0.039674494 0.22129546 0.5507981 0.21193305 -0.65296566 -0.5803565
0.72149265 -0.5951946 -0.06705447 -0.513358 1.346301 0.06901245 -0.2599089 -1.3576303
0.12132108 -0.08865642 0.42520005 -0.103916705 -0.2112722 -0.8497883 -0.48613262 0.4772591
0.40510085 1.1307384 -0.69297963 -0.54724 -0.04517836 -0.6961349 1.0013845 -0.12150184
0.2908384 0.073848836 0.97920215 0.031136435 -0.9242147 -0.09365742 -0.20791656 -0.036211744
-0.07139357 -0.1587855 0.08072963 -0.37665588 -0.18922698 -0.04400385 -0.27923077 -0.278933
0.01735409 -0.044427205 0.03167186 -0.011352654 -0.36696318 0.24227817 0.30297494 0.09235351
0.10642882 0.061463222 -0.54215086 -0.23954915 -0.10580102 -0.38769588 -0.06009602 0.14968957
0.020893939 -0.16872993 -0.6115991 -0.14756863 -0.074318506 -0.42377958 0.5309028 -0.28825042
0.07145843 -0.00012791953 -0.53310406 -0.64162284 -0.5225959 0.21723466 0.6030813 1.0092593
-0.5013696 -0.32554096 -0.06382439 0.29497522 0.32430017 -1.3728182 0.042210553 -0.21622126
-0.7645534 -0.087815985 -0.15037417 -0.41860607 -0.3200261 0.34087864 -0.0260842 -0.04747898
0.60644656 -1.0321258 -0.023769083 0.1198182 -0.028752822 0.36154366 0.38459274 -2.469818
-0.08497504 2.5578194 -1.0227169 -0.18893546 0.43858504 -0.0066683274 0.9975197 1.3984953
0.6001624 -0.06735456 0.16546735 -0.04965573 -0.32661808 0.22465788 -0.24275494 -0.115321025
0.5539534 0.33991116 -0.90247923 -0.1869013 -0.14551793 -0.43361285 -0.5227689 -0.7258681
-0.24410082 0.5734551 0.030448262 0.39439267 0.004598462 0.17581 -0.03195154 -0.13335338
0.5589004 -0.09952643 -0.09083023 -0.09154286

head_conv.1.point_wise_1.bias f4 [20]
00000000: 5b47 a7bd ec74 d13e fba9 ee3d e61b 7e3c
00000010: a756 c9bd 1877 d53d 9f26 2cbe 0c3c f83d
00000020: 9d7f d83e fc76 abbd 7153 c5bd 1cc9 02be
00000030: 0a0d cf3e 20f2 543e 2849 25be dd59 16be
00000040: f71c a83a 1f8d 55be 0ed3 f0bc 4d4a 4f3d
-0.08167907 0.40909517 0.11653515 0.015509581 -0.09830981 0.10423106 -0.16811608 0.12120828
0.4228486 -0.08372304 -0.09635056 -0.1277203 0.40439636 0.20795488 -0.16141188 -0.14682718
0.0012826015 -0.20854615 -0.029397514 0.050607968

head_conv.1.depth_wise_1.weight f4 [20, 1, 3, 3]
00000000: 3911 cc3e 4726 afbe a98a 603e af04 d9be
00000010: 5820 d23f c1f4 26bf ad6d 07be a861 9bbe
00000020: e57d 103d c8ab e23c d6e8 b83e b240 943e
00000030: 0f78 f43b a5bf 2c3f a028 d6bd e708 92be
00000040: f7b0 38be 1b7b cc3c 5e54 ed3e 92ec f3be
00000050: f74e 67be f5e8 633f 27ae 84bf fec1 48bf
00000060: 25d6 1bbf 48c2 2e3f 55d2 173f c0bd ee3e
00000070: aa47 6abf 5650 d5bc 9bd9 7dbe 5b14 efbd
00000080: 0783 4fbe ef8b 93be b6e2 a13f d8d2 9b3e
00000090: 5948 e83e 046a b73e 16aa 71bf aa88 253f
000000a0: 86c8 5e3f 5430 79bf 7bfe 8ebf ac3d 313e
000000b0: 22bc e93e 50f3 833e ae1f f8bd d9fb 813e
000000c0: 5664 81be 96ed 4abd fdc0 15bd c24c f93e
000000d0: 5fab 983e 1f68 953e 16a3 7c3f 2c5b e1bc
000000e0: 2e73 aabe 18b8 1fbe ca32 333f f50d 06bf
000000f0: 7816 c43d f1ef 0cbe a68f e8be 7b51 043b
00000100: 8401 4b3e 36e5 f33d 3cd6 bc3d f85a 433f
00000110: 95c5 06bc 17a1 41bd cdbc 70be 228e 4abd
00000120: c227 5ebf fc2a 0b3f bb86 50bf 1b41 d23e
00000130: 1b0a aa3f 9f5f 4c3e c6d7 17bf 39d0 df3e
00000140: f239 62bf 7454 febe b6f1 8f3e d5fd babe
00000150: b4af 2d3e 8b54 3a3f d0a2 b6bd ff1c 80be
00000160: 7102 b63e 2aec cabe 0a5c 473d 6c91 fd3e
00000170: f6c8 27be de26 cf3e 5263 e43e d3c0 22bf
00000180: c508 43be 7e09 b1be 1fee 693b ec62 c33e
00000190: c4c9 b43e d5ba 393e 6ae9 20bf cbb3 9abe
000001a0: 4cd1 dbbe 2f81 e73e 1784 6fbe 562c 243e
000001b0: 3f43 6bbe a449 373e 1598 9e3e 0232 8abe
000001c0: f7bc 3b3f 346a 9e3e 2f94 bd3e 46a1 5cbf
000001d0: 623b b8bc 78bc d9be a253 2cbe c163 443e
000001e0: 2738 25bf ae0b 49bf bb02 013f 678c 803e
000001f0: c29b 093f 5671 ab3d 8a3f 4ebf 06d9 003e
00000200: f13f bcbe df1f 293f 50ba 41be c7b5 8f3f
00000210: 1463 9ebe 308c e83e 071e 65bf 2771 a73e
00000220: 88be 1e3d 8eb8 5abe 450c a1be beaf 923f
00000230: 5739 0f3f 8b75 e0bd a3f3 17bf 68da 3abe
00000240: a86d 523f 8f6d 9fbf e35c e63e 4e30 6d3e
00000250: 7842 3f3e 0961 2bbe 55c6 79bf 71b7 b23f
00000260: f0c4 4fbf 3906 643e 6a25 2dbe e856 a4be
00000270: 52c4 7c3f 993e 673e 5ff2 1f3f 188e 34bd
00000280: a991 0abf e0f6 9cbf 5bcc dcbe cc00 c3be
00000290: 4d64 bcbe 9f7e b6be 1e88 333f 27a0 9abe
000002a0: d0b0 d7be 7f20 94be c9e0 08bf c72d 42be
000002b0: 3524 c4be e287 29be 7ac4 f0be f6b1 e33f
000002c0: 2c24 98be 157e dbbd c643 ddbe 14a4 7dbd
0.3985689 -0.3420889 0.21927895 -0.42386386 1.641612 -0.65217215 -0.13225432 -0.30347943
0.035276312 0.027669802 0.3611514 0.2895561 0.007460601 0.67479926 -0.10456967 -0.28522417
-0.18036257 0.024961045 0.4635343 -0.47641426 -0.22588716 0.8902734 -1.0365647 -0.7842101
-0.60873634 0.682652 0.59305316 0.46629143 -0.915156 -0.026039284 -0.24790041 -0.116738044
-0.20264827 -0.28817698 1.2647312 0.304343 0.45367697 0.3582307 -0.94400156 0.6466166
0.87024724 -0.9733937 -1.1171411 0.17308682 0.45651346 0.2577157 -0.121154174 0.25387457
-0.25271863 -0.049542986 -0.036561 0.48691374 0.29818246 0.29181 0.9868635 -0.027509294
-0.33291 -0.1559757 0.6999937 -0.52365047 0.09574598 -0.13763405 -0.45422095 0.0020190168
0.19824797 0.11908953 0.092205495 0.7631068 -0.008225818 -0.047272768 -0.23509522 -0.049451955
-0.86779416 0.54362464 -0.8145558 0.41065297 1.3284334 0.19958352 -0.5931362 0.4371355
-0.8836967 -0.49673808 0.28114098 -0.36521783 0.16961557 0.7278525 -0.08917773 -0.25022122
0.35548738 -0.39633304 0.04867176 0.4952501 -0.16385254 0.4045934 0.44607025 -0.63575476
-0.19046314 -0.34577554 0.003569491 0.3816141 0.35310185 0.18137677 -0.6285616 -0.30215296
-0.42933118 0.45215747 -0.23390232 0.16032538 -0.22974871 0.17899185 0.30975404 -0.26991278
0.7333521 0.30940402 0.37027118 -0.86183584 -0.022489253 -0.42526603 -0.16828778 0.19178678
-0.64538807 -0.78533447 0.5039479 0.25107118 0.5375329 0.083712265 -0.805657 0.12582788
-0.36767533 0.66064256 -0.18918729 1.1227349 -0.30934966 0.45419455 -0.89498943 0.32703516
0.038755924 -0.21359465 -0.31454673 1.1459882 0.5594687 -0.109599195 -0.59356135 -0.18247378
0.8219857 -1.245531 0.44992742 0.23162958 0.186777 -0.16736235 -0.97568256 1.3962232
-0.8115988 0.22267999 -0.16908804 -0.32097554 0.9873706 0.22582473 0.62479204 -0.044080824
-0.5412851 -1.226284 -0.4312466 -0.38086545 -0.36795273 -0.3564348 0.70129573 -0.30200312
-0.42127085 -0.28931043 -0.53467995 -0.18962775 -0.38308874 -0.16555741 -0.470249 1.7788684
-0.29715097 -0.107174076 -0.4321577 -0.061924055

head_conv.1.depth_wise_1.bias f4 [20]
00000000: 5345 693c 04f4 ffbd 7e19 953c cb02 31bb
00000010: d2e3 c33c 871b ebbd 0067 5f3c a043 c9bc
00000020: 05e7 903d b9e3 893c b66c 003e 8715 adbd
00000030: b907 99bc 16ed dd3c db08 143c 5b2a 0c3d
00000040: 31f0 18bc 09df c3bc c09c 983d e016 103e
0.01423772 -0.12497714 0.018200632 -0.0027009721 0.023912344 -0.1147986 0.013635397 -0.024568379
0.070753135 0.01683222 0.1254147 -0.08451372 -0.01868044 0.02709059 0.009035314 0.03422008
-0.00933461 -0.023910062 0.07451773 0.14071226

head_conv.1.point_wise_2.weight f4 [20, 9, 1, 1]
00000000: 21d0 6fbd df78 d13e 65f8 dfbc 9837 1ebe
00000010: 8366 5ebe 6949 d1be 4584 99be 964c b1be
00000020: 685d 843f 2727 283e c526 81be 322b 36be
00000030: c334 803e 8942 74be 7c80 093e a19a c5bc
00000040: a1d1 6f3e 0580 0cbd 8608 d63e 21c3 b5be
00000050: 404d 083f 9a0d 633e 486d fcbe b71b 80bd
00000060: 1856 4d3f 650d 7b3f 1e6d c6be 5326 583e
00000070: d12a 593f 2a91 973e a3d0 023e f55f 91be
00000080: 989f 0bbe 449a 203e 894e c13f 160e 0e3f
00000090: 36c6 3a3e 1576 8ebe 72bf 09bf d878 d8be
000000a0: 8788 de3d 0979 5e3e 9865 953e cc7e 663e
000000b0: fcca d0be 3fde 28be 1d7e 603f 47fa 393f
000000c0: e165 67be d0b2 603f e23b e03e 5b6c ce3e
000000d0: 51ff 9abf 174e ccbe 88dc 6a3e d06a 91bf
000000e0: 6ac3 dbbe 46b1 173f 773c 07bf 8764 883e
000000f0: 7aec 02be 445d 863e 35e8 57be 97f6 a7bd
00000100: 4970 44be 6b41 213e abbb 383d 7133 d63d
00000110: 3731 b6bd 217a a2bd c79c 15bf 6151 a03e
00000120: b258 d23e ae11 e8be 7efa 8d3f d9b1 813d
00000130: ca09 98bd 2575 003e 88a4 2c3e 530a 973e
00000140: 21bd 12be 3775 81be 10c0 33be e585 abbd
00000150: 03e1 133d 8f7e 623f 9977 62be 9c8d 8d3d
00000160: 0908 a33e c140 403e 4c58 273f 97ce 3f3d
00000170: 802c 27bf 96a0 c13c c1f5 9cbf d646 24bb
00000180: fa4b e7bd ef4c 08be c743 053c f053 6abf
00000190: 494c c2bd b121 d6bb 4848 843e 1e6c 293d
000001a0: 7ec8 d63f fbfd 9f3e 946d 603e 771e 143d
000001b0: 98e6 52bc 2550 06c0 bf52 25be ff69 6d3e
000001c0: 26a5 a6bd 32ec cb3a 905e 27bf 9224 74be
000001d0: 0b06 23bf a685 533d fe7c 86bd bc0b b93f
000001e0: d822 7dbe 71ca da3e a288 0abe 7018 fabd
000001f0: 8dc5 373f 59bb 00bd a320 743e 055f 053e
00000200: 7e7c 87be 486f c53f 8d79 14bf 7ee1 28bd
00000210: d087 48be 5fc8 293e 8915 a9be 08ac 84be
00000220: b2e2 643e 9275 9a3d bf64 e1bd 626a 553e
00000230: d7ee 94be 2087 70be 904b 31be f943 153e
00000240: 5cd2 cdbe f801 1fc0 f111 ee3e 2451 3f3e
00000250: 8c27 233f c719 1cbd aa49 0abf 1dd6 0dc0
00000260: 729d b0be a05d 48be 2657 ae3e fe27 0dbf
00000270: 3a17 263d b639 543e 78c6 c1bd dc63 3a3f
00000280: 34df 22bc 12e1 8ebf fba6 4e3c a07d c8be
00000290: 3883 fc3e 01e4 b6be 96df 01bf 808f 5bbf
000002a0: 790e 61bb 464a be3e 7b0d 7fbe 171f 18bf
000002b0: 9a00 bcbc 8d98 2c3d e8b0 29bd 1a45 30bf
000002c0: f4e6 8a3e 238f 80bd 0ca7 bf3c 4d88 b83c
-0.058548097 0.4091253 -0.027340123 -0.15450895 -0.21718793 -0.4087632 -0.29983726 -0.34628743
1.0341005 0.16421185 -0.2522489 -0.17789915 0.25040254 -0.23853506 0.13427919 -0.024121584
0.23419811 -0.034301776 0.41803378 -0.35500434 0.53242874 0.22173157 -0.49302125 -0.06255286
0.80209494 0.98067313 -0.38755125 0.2110837 0.8483096 0.2960294 0.12774901 -0.28393522
-0.13635099 0.15683848 1.5102092 0.55490243 0.18239674 -0.27824464 -0.5380775 -0.42279696
0.10865884 0.21725859 0.29179072 0.22509307 -0.40779865 -0.1649103 0.87692434 0.7264752
-0.22597457 0.87772846 0.43795687 0.40317044 -1.2109166 -0.39903328 0.22935688 -1.1360722
-0.42922527 0.5925487 -0.5282664 0.26639196 -0.12785521 0.2624303 -0.21084674 -0.0820133
-0.19183458 0.15747611 0.04510085 0.104590304 -0.08896106 -0.079334505 -0.5844235 0.31312087
0.41083294 -0.4532599 1.1092069 0.0633275 -0.07423742 0.12544687 0.16859639 0.29500064
-0.1432996 -0.2528474 -0.17553735 -0.08375148 0.03610326 0.88474363 -0.22115935 0.069117755
0.31842068 0.18774702 0.65369105 0.04682788 -0.65302277 0.023636144 -1.2262498 -0.0025066636
-0.11293788 -0.13310598 0.008133835 -0.9153433 -0.094872065 -0.006534778 0.25836396 0.041362874
1.6779935 0.3124846 0.219168 0.036161866 -0.012872361 -2.0986416 -0.16144846 0.23184966
-0.08136968 0.0015558063 -0.65378666 -0.23842075 -0.63681096 0.05164113 -0.06566809 1.4456706
-0.24720323 0.42732576 -0.13528684 -0.12211692 0.71785814 -0.03142867 0.23840575 0.13024528
-0.26462168 1.5424585 -0.5799797 -0.04123067 -0.19583058 0.16580342 -0.33024243 -0.259125
0.22352102 0.07541956 -0.11005544 0.20841363 -0.2908847 -0.23489046 -0.17313981 0.14576711
-0.40199554 -2.4844952 0.46498063 0.18683296 0.6373222 -0.03811052 -0.5401865 -2.2161934
-0.3449512 -0.19566965 0.34050864 -0.5513915 0.040549494 0.2072514 -0.09461683 0.72808623
-0.009940911 -1.1162436 0.012613053 -0.39158344 0.49318862 -0.35720828 -0.5073179 -0.8576584
-0.0034340902 0.3716604 -0.24907486 -0.5942244 -0.022949506 0.04213767 -0.041428477 -0.6885544
0.27129328 -0.06277301 0.023395084 0.02252593

head_conv.1.point_wise_2.bias f4 [20]
00000000: ccac 2dbd 2395 debc 153e e33d 4224 7cbd
00000010: dddc e6bd f349 873d c831 5dbd d137 34bd
00000020: c8cf 35bd 2f2c d2be 0a9d cf3e 4bdd fc3d
00000030: 16d1 93be b637 7bbe 1b51 6c3e 2b5c e2bd
00000040: c373 43be 9812 9b3a fdb0 c73d d30b ed3d
-0.04240112 -0.027170723 0.110958256 -0.061558016 -0.11272595 0.066059016 -0.054002553 -0.043998543
-0.04438761 -0.41049334 0.405495 0.12346896 -0.28870457 -0.24532971 0.23077814 -0.11052736
-0.19087128 0.0011831103 0.09750555 0.11574521

head_conv.1.depth_wise_2.weight f4 [20, 1, 3, 3]
00000000: 7059 2c3f 14ef abbd a27c 913e 05af cb3e
00000010: 8481 08bf 7410 9fbe bafd a7be 0686 d9bd
00000020: 6ac7 d2bb 0e1f e13e 8d56 15bf 064d 29bc
00000030: 3ac3 f03e 2893 80be 9025 e33e 482f 0fbe
00000040: 15e2 ffbe 06d2 163e bf84 943e 219f e63d
00000050: cb21 3abd 522b bcbd fbc5 0e3e bd9b 28be
00000060: 406f 583b 1eb5 6bbd 8d0d 843e 2ce4 833f
00000070: 9b00 6abf 999c 39be 3d7f 0a3f 5322 a5be
00000080: ea22 3cbe 62a5 6cbf 1c26 403f 5e9a babd
00000090: 59a4 e23e c96f 1fbf c2df fabe be6d 4bbc
000000a0: 096e 2ebc 99a1 93be 2e9c da3e febb 0a3f
000000b0: 7328 683e 5298 ce3e ccf5 8bbe bd3e 1c3e
000000c0: 1b9a 14be 9802 4dbf 8c3f 72be 7d23 c63e
000000d0: fe7b 083e 9749 913e c236 f8bd 75ef cfbe
000000e0: c869 9ebe 2c71 4d3f 505f 883e 6b5a 593f
000000f0: e0d7 b93d 88e2 0fbf 23e9 0abf a931 0fbd
00000100: fd2b 20be 05a6 96be 475b 103c ddbe 9b3e
00000110: 8574 ee3e e5c3 28be 2f25 ab3e 6b2e 16bf
00000120: 2eb7 6abe 52c0 0c3f a0ce 1b3c dd71 483f
00000130: 3da2 b4bf c1f1 1e3f 1c37 c1be 1386 413f
00000140: 03a4 c0bb a98c 16bf a209 583f 1f02 113f
00000150: b8aa 7dbf 386e 833f 0355 2a3e 8902 9bbe
00000160: 002c 0ebf f940 5abd c928 663e ff60 c3bd
00000170: 6a94 963e 4039 cebd 2d11 d3bf 1ab4 12bd
00000180: 9530 b23e 9595 023e b851 373e 5d84 5b3f
00000190: ff95 e1be eba2 523f 75e6 e5be 9db4 5fbe
000001a0: 0489 d2be 28cd 503f 2e6d e1be d03a 513f
000001b0: 1077 1abf ff80 193f 71e2 e93e 2326 7cbe
000001c0: 05b9 29be 532c 05bf 0389 aebd 253e 193f
000001d0: d80c 153f bdab 663f b230 f03d 8420 0d3e
000001e0: fca8 533f c606 74bf a099 07bf 0c51 e2be
000001f0: 66d8 973d b2b3 42be 8404 5d3e 03c6 4c3f
00000200: 3678 4bbf 2f77 053f ba6d bd3f d717 89bf
00000210: 6893 3bbf a752 a8bf 7ecb 4e3f 8372 f9be
00000220: dbf7 67bb 459b f8bd 1267 72bc 18e9 483f
00000230: a726 0a3e c73d 55be e0b5 f9bb 58b9 84be
00000240: ce0e 76bf 0eac ba3f 7fa9 a93e b36e 113f
00000250: 0ed1 07be e778 90be d99f e53e 8813 a2bf
00000260: d561 b1be 447a e53e 2ff2 ce3d a492 09be
00000270: 9727 2f3f 2739 e93d cca0 90bf c41b ae3e
00000280: 2a78 27be 5dd2 a0bd 3a4e f03d 3e7a 313d
00000290: 6b7e c23e 6be9 a5bd 8c31 b4bf 8b62 103e
000002a0: 9cbb ca3e 4a52 b9bd fa52 d93e 6905 493d
000002b0: cb79 61bd 3a21 023e 91be 193e ecb5 15c0
000002c0: de3a f6bd 66c0 3c3d fd0a 883d ece9 b73d
0.6732397 -0.0839521 0.284154 0.39781967 -0.53322625 -0.3106724 -0.32810766 -0.10621266
-0.0064324634 0.43969005 -0.5833519 -0.010333305 0.47023946 -0.2511227 0.44364595 -0.1398288
-0.49977174 0.14728555 0.29007527 0.1126082 -0.045442384 -0.0918795 0.13942711 -0.1646566
0.0033025295 -0.057545774 0.25791588 1.0304008 -0.91407174 -0.18126144 0.541004 -0.3225275
-0.18372694 -0.92439854 0.7505815 -0.091114745 0.44266012 -0.62279946 -0.4899884 -0.012416301
-0.010646352 -0.28834227 0.4269728 0.54193103 0.2267168 0.40350586 -0.27335966 0.15258308
-0.14511912 -0.8008208 -0.23657054 0.3869895 0.1332855 0.28376457 -0.12119819 -0.4061238
-0.3094008 0.8025081 0.26635218 0.8490359 0.09074378 -0.56205034 -0.5426199 -0.03495947
-0.1564178 -0.29423538 0.008810825 0.30419055 0.46573272 -0.16480978 0.33426806 -0.5866458
-0.2292144 0.5498096 0.009509712 0.7829874 -1.4112011 0.6208764 -0.37737358 0.75595206
-0.0058789267 -0.5880838 0.843897 0.5664386 -0.9908862 1.0268011 0.16633992 -0.30275372
-0.5553589 -0.05328462 0.22476496 -0.09539985 0.29410106 -0.10069513 -1.6489617 -0.03581629
0.3480269 0.12752374 0.17902267 0.85748845 -0.4405975 0.82279843 -0.44902387 -0.21846242
-0.4112016 0.81563044 -0.4402861 0.81730366 -0.60337925 0.5996246 0.45680574 -0.24623923
-0.16574486 -0.5202076 -0.08522227 0.5986045 0.58222723 0.901058 0.11728038 0.13781935
0.82679725 -0.95322835 -0.5296879 -0.4420246 0.074143216 -0.19013861 0.21583754 0.7998964
-0.794803 0.52134985 1.4799111 -1.07104 -0.732718 -1.3150223 0.80779254 -0.48720178
-0.0035395536 -0.1213899 -0.014795082 0.7848067 0.13491307 -0.20824347 -0.007620558 -0.25922656
-0.9611634 1.4583757 0.33137128 0.5680954 -0.13263342 -0.2821724 0.44848517 -1.266221
-0.34644952 0.44819844 0.101047866 -0.13434845 0.68419784 0.11387854 -1.1299071 0.34005558
-0.16354433 -0.078526236 0.117336705 0.04332947 0.37987074 -0.081011616 -1.407762 0.14100091
0.3959626 -0.090488985 0.4244612 0.049077425 -0.05504779 0.12707987 0.15014102 -2.3392286
-0.12022947 0.046081923 0.06642721 0.08980164

head_conv.1.depth_wise_2.bias f4 [20]
00000000: 5345 693c 04f4 ffbd 7e19 953c cb02 31bb
00000010: d2e3 c33c 871b ebbd 0067 5f3c a043 c9bc
00000020: 05e7 903d b9e3 893c b66c 003e 8715 adbd
00000030: b907 99bc 16ed dd3c db08 143c 5b2a 0c3d
00000040: 31f0 18bc 09df c3bc c09c 983d e016 103e
0.01423772 -0.12497714 0.018200632 -0.0027009721 0.023912344 -0.1147986 0.013635397 -0.024568379
0.070753135 0.01683222 0.1254147 -0.08451372 -0.01868044 0.02709059 0.009035314 0.03422008
-0.00933461 -0.023910062 0.07451773 0.14071226

head_conv.2.point_wise_1.weight f4 [32, 20, 1, 1]
00000000: b152 3f3f 8850 093e 6a39 38be 6f73 73bf
00000010: 79c7 25bf b7fb 37bf c5bd d8be 93f8 c4bd
00000020: 12d4 143c ec95 97bf b6fd 61bd 3b25 0640
00000030: 41c7 083f fccf e33f 0a10 16bf b452 9bbf
00000040: 0198 3f3f 42b6 c7bf c2f3 763e 8c0b a2be
00000050: 4182 0f3f 0625 9b3f 60a6 24bd d4c9 3d3e
00000060: 2afb 0dbf c5d4 423f aa76 a1bd 55cd adbd
00000070: c4f2 7fbe 4725 94bd 464f e9be 115a 963d
00000080: 371b 7fbe 8ccd ecbc 6231 67bf 6abc d23d
00000090: 3e27 0ebd 0cd7 7f3e 97c8 133f 5add 983d
000000a0: 8f42 1b3d 1caf 48c0 6e7c 543f 01f0 6a3e
000000b0: 3f32 923c f177 3a3f eb38 bb3e f0f7 00bf
000000c0: a022 95be a063 223d a531 f7be eee3 103e
000000d0: 72e8 233e e72e 4bbe 9d5c 04bf a2fa 973e
000000e0: 935d edbd b4d1 ad3e 1bfd 3f3f 45dc 9bbd
000000f0: 11ac 54be 3041 ab3e 583e 9f3f 96b4 373d
00000100: 3cc0 103e 4d53 8e3e a11a 90bd 75a6 40bf
00000110: 809b 693d 202e b03e b9ed c13e ac0d abbd
00000120: f808 27be cda4 163e 5d42 b93e 9814 27be
00000130: 4fca 57bd 2cc2 2bbd 1ab6 0fbf a47c e23e
00000140: c368 28bf 95cd bb3d 99c9 033e d926 d4bd
00000150: a22e c43d 0db7 87be a546 5d3e ced9 9d3c
00000160: 535e 59be 6048 9e3e 1881 0fbf 4f5b 843f
00000170: b930 213e a2d8 353d 3aba 703e e1b8 a83e
00000180: 6bd3 e33d 17af 8a3f 7a4f 4e3e 3727 b7be
00000190: 1a88 f53d 95f9 0ebe 8f3a 243e 5187 c3bd
000001a0: efb1 6dbe 7091 9a3e 1528 95bf 3aeb 24bf
000001b0: 31b8 7dbd d5c3 1b3f 462d 3bbe d43d 1c3e
000001c0: 44e6 6ebe 5835 9dbf 42db 633e efa2 c03f
000001d0: c93d 4ebf 8d1c 87bf bf23 febd 751b 29bb
000001e0: b607 7abe bf4e 7b3e ceed bbbd 901f 443f
000001f0: 60ed 0b3d 2738 fabc 68bf 3e3e e9a1 703d
00000200: 1bfa a63d 510c fd3d 2f88 023d 51bc 43bd
00000210: aa42 80bd 65df 6c3e a5c8 4abe a284 1e3e
00000220: 21c7 bcbe a119 263e 9f56 49be 69c4 8abd
00000230: 867d 153e 3eca ebbe 5893 4fbe f33c ba3d
00000240: a82a bbbd d4ec 10be 464d a8bd 72de 98be
00000250: 660b 903e bfd8 21be 3598 4c3b 730f f13c
00000260: 1af5 a3be 9646 cebe 471e 253e 63f9 d5bd
00000270: 9b34 fabd 8436 35be e76e 8d3e 2e45 913c
00000280: 3563 293c 9321 223d 9143 9abb 2937 103e
00000290: cc89 da3c 8166 933e edd5 313e 52d7 8bbd
000002a0: 23a8 103f 1be0 b13d edfe 2a3f 6f9d 44be
000002b0: 434a 493e 1c9e 853d 7af7 5f3e 9d90 83bc
000002c0: 6572 70bd 1329 91bd 5913 84bd 4afe 073e
000002d0: 24c9 463f ad9d c7be 80af 2dbe b29b cfbe
000002e0: 20a2 05bf 13a8 7fbf 1833 2d3d 171a 84be
000002f0: 04e4 3d3f 0699 ed3e 261c 6dbd 4b0d 3bc0
00000300: b3a4 9bbd 3fdf 923f d7c7 3abf 6a1e b83e
00000310: 9c9f bbbe 9ab3 e63e c62b a63e a3e3 033f
00000320: 46a0 2a3f 3dc0 963e 316c 0fbe a6be 84be
00000330: 7202 b5bf 46f4 d13e d9b5 033e 032f f0be
00000340: d9c3 7f3e 3271 f5be 4125 a93c c2c9 493f
00000350: 143b 7b3e 615d 973e 9165 ca3e 1835 c33c
00000360: 834c 0340 73ac 763d da64 0e3f 5956 9cbe
00000370: e04e 52bf 22e3 e53e 09c3 643e 51b1 0e3f
00000380: aa4d b9be d887 45bf 8cd8 a6bf 8c84 8e3e
00000390: a583 efbe 18c1 80bd 1ad4 4abd 5bbc 74bd
000003a0: 46b5 d9bd 0c56 0c3f ca37 61be d810 28be
000003b0: cb30 87be 2d49 2fbc bdd8 dcbb c90c 14bd
000003c0: e324 28bf f38a e13e 881b 873e 4958 d23e
000003d0: d5c0 193e 6e7d ee3e 120f 13bd 3c9c 09c0
000003e0: abb3 893c 0f78 74be 7fad c93f f89f adbe
000003f0: 1481 093c 0564 463e 7b11 163f 7b3b 7bbd
0.7473555 0.13409626 -0.17990652 -0.9509801 -0.64757496 -0.7186846 -0.42332283 -0.09617724
0.009083765 -1.1842628 -0.0551736 2.0960224 0.5342904 1.7797847 -0.58618224 -1.2134614
0.74841315 -1.5602496 0.24116424 -0.31649435 0.56058127 1.2120674 -0.04019773 0.18534023
-0.5546137 0.7610591 -0.078839615 -0.084864296 -0.24994951 -0.072336726 -0.45568293 0.073413976
-0.24912725 -0.028906606 -0.9030973 0.102898434 -0.034705393 0.24984378 0.5772795 0.074640945
0.037905272 -3.1356878 0.83002365 0.22943117 0.017846225 0.72839266 0.36566862 -0.5037832
-0.2912798 0.03964579 -0.48280063 0.14149448 0.1600664 -0.1984211 -0.51703817 0.29683405
-0.115901135 0.33949053 0.74995583 -0.076103725 -0.20768763 0.33448172 1.2440901 0.044849955
0.14135832 0.27797928 -0.07036329 -0.75253993 0.057033062 0.3441019 0.3787668 -0.08352217
-0.16312015 0.14711304 0.36183444 -0.1631645 -0.05268317 -0.041933224 -0.5613724 0.44235718
-0.65784854 0.09170071 0.12869872 -0.10358972 0.09579207 -0.26506844 0.2160898 0.019268896
-0.21227388 0.30914593 -0.56056356 1.0340365 0.15741242 0.04439605 0.2350854 0.3295355
0.11124309 1.0834683 0.20147505 -0.35772106 0.1198885 -0.13962395 0.16037963 -0.09547294
-0.23212408 0.30189085 -1.1652857 -0.6442143 -0.061943237 0.6084569 -0.18278989 0.1525796
-0.23330027 -1.2281904 0.22251609 1.5049723 -0.80563027 -1.0555588 -0.12409162 -0.002580372
-0.24417004 0.24541758 -0.09176217 0.7661066 0.034161925 -0.030544354 0.18627703 0.05874816
0.081531726 0.12355865 0.031868156 -0.047787014 -0.06262715 0.23132093 -0.19803102 0.15480283
-0.36870673 0.16220714 -0.1966195 -0.067757435 0.14598665 -0.46052736 -0.20271051 0.090936564
-0.091389954 -0.14152843 -0.08217864 -0.29857212 0.28133696 -0.15805338 0.0031218652 0.029426312
-0.32022935 -0.40288228 0.16124831 -0.10447957 -0.12217065 -0.17696577 0.27623674 0.017733183
0.010338594 0.0395828 -0.0047077616 0.14083542 0.026677035 0.28789142 0.17366762 -0.068281785
0.56506556 0.08685323 0.66795236 -0.19200681 0.19657235 0.065242976 0.21871749 -0.016060168
-0.058702845 -0.070879124 -0.06449003 0.13280597 0.77650666 -0.38987485 -0.16961479 -0.40548474
-0.5220051 -0.99865836 0.042285055 -0.25801155 0.7417605 0.4640581 -0.057888173 -2.9226863
-0.07599773 1.1474379 -0.7296118 0.35960704 -0.3664521 0.450589 0.3245527 0.5151922
0.6665081 0.2944354 -0.14006115 -0.25926703 -1.4141371 0.41006678 0.12862338 -0.46910867
0.24977054 -0.47937924 0.020647647 0.78823483 0.24534255 0.2956343 0.39530614 0.023829028
2.051545 0.060223054 0.5562264 -0.30534628 -0.82151604 0.4489985 0.22340025 0.55739313
-0.36192065 -0.77160406 -1.3034835 0.278355 -0.46780124 -0.0628683 -0.049518682 -0.059749942
-0.10630278 0.548188 -0.21993938 -0.16412675 -0.26404414 -0.010698599 -0.0067397044 -0.036145005
-0.65681285 0.44051322 0.26388192 0.4108298 0.15014966 0.4658007 -0.035903044 -2.1501608
0.016809305 -0.23873924 1.5756072 -0.3391111 0.008392591 0.19374092 0.58620423 -0.061336022

head_conv.2.point_wise_1.bias f4 [32]
00000000: 75e0 d73d fe63 dc3d 3e44 a7bf 5251 333d
00000010: 0d3d f93d fa7c 7a3e 8abf ccbd 8c3c 3f3e
00000020: ea62 e3bd 101a 033f 70ca 373e d48b 65bc
00000030: a8da 963f 9101 59bf b622 64be 74d3 d43d
00000040: 6a5e bd3e 3075 2abf 130e 943f c804 eb3e
00000050: efa2 283f dafa 37be c802 4c3f 4e25 86be
00000060: 793d 623c e1ce 8ebe 382e 02be 82f7 85be
00000070: 4bd8 69bd 1297 603e 4079 72c0 2d31 1e3d
0.10540859 0.107612595 -1.3067701 0.043778725 0.12169848 0.24461737 -0.09997471 0.1867544
-0.11102851 0.51211643 0.17948318 -0.014010388 1.1785479 -0.84768015 -0.22278866 0.10391894
0.36986095 -0.66585064 1.1566795 0.45902085 0.65873617 -0.17966786 0.79691744 -0.26200336
0.013808602 -0.2789221 -0.12712944 -0.26165396 -0.05709104 0.21932629 -3.7886505 0.038621116

head_conv.2.depth_wise_1.weight f4 [32, 1, 3, 3]
00000000: bc2e b03e bf4d 123e 7a6f 583d 15f5 18bf
00000010: 9b54 d33d 312c f6bd bc63 da3d b093 dbbe
00000020: 3555 7bbe 4d12 da3e bb26 4b3e e475 cd3d
00000030: 76d3 b83d 47ae 27bf 1d40 bdbe b659 de3e
00000040: 7ef6 913e b54b aa3c e98d 8dbe a92a 32be
00000050: 9042 8abe a94c a53d 3414 b53f 9949 22be
00000060: 550f 1c3e 36e4 5f3e 6939 b6bc 40bb 6c3e
00000070: 2b37 843e 6cd2 e2bc 3f30 c1be 44b4 8cbf
00000080: 1ff0 8d3e 0d31 cabd 002f 16be 038a cc3d
00000090: 3794 493e 02f7 f53c 45bd 053f 7701 30bd
000000a0: 929c e1bc c352 8b3c 2169 823e c27b 203e
000000b0: 7486 9f3e 80c7 3a3e 6fee c73d baf2 54bd
000000c0: 6d37 903d 8cd1 4cbe 23c7 94be b3b8 3fbf
000000d0: 1557 27bd 173c f93e db15 b3be 7d74 f1bd
000000e0: d8d8 ad3d b161 b0bd 36cc f33e 8925 29be
000000f0: 08fc 47bb 41fe 9cbd 5146 563e 99e5 20bd
00000100: c28f 05bf 7f01 c83d 8845 81be 48ff ca3e
00000110: dc32 923d bcc9 503c 5f1f bd3e 2442 93bd
00000120: 6b6b ebbd ba32 aabe da07 cebd ab26 abbe
00000130: b1a0 933f 236e acbe f6c2 61be 6967 2cbe
00000140: b77b 33be 3d1e 7abf 73cd 1c3f 3ad9 073f
00000150: ca98 77bf 38a2 7cbe c997 723f 69a8 703e
00000160: bae3 a2be c1a8 0bbe a8d6 9ebe 22d8 2cbf
00000170: be73 2dbf 9090 c2bd bf6c e6be 43f5 b9be
00000180: 0356 d23e d189 813f 93a0 413f c505 e53e
00000190: 38d7 f9bc 6e80 8dbc 407a 0f3b af91 bbbe
000001a0: 1c5c dabd 4620 fa3e a87b a5bd a974 f7be
000001b0: 4667 af3f f0f9 74bf c14d e03d 6a39 2bbf
000001c0: 942d eebe 9f65 2dbf 6608 3c3f 3b37 dcbe
000001d0: a277 883f afdc bb3e 4f9b 853e 35a4 b23d
000001e0: f98a f13e 020c 493f e8b0 a7bd 56a0 b4bd
000001f0: 1fda 05be 1591 ecbc 0c12 6d3d 5b77 98bd
00000200: ab8b 04be a1a8 f83d 1a4c 013d a5e3 923d
00000210: 5daf f6bc 4658 6b3d c131 803c 8b3c 62be
00000220: 29a7 cabd 624b febc 99c6 0bba 6eb4 853f
00000230: e040 36be 04e7 a8be 3c29 7bbc 2db0 0fbe
00000240: 89b0 3e3e d787 dd3c d326 0d3e a73e 5dbd
00000250: 074b 593f 92ae 7fbc b758 883d ab13 dc3b
00000260: 7d0c 453e 76c1 f2bd b859 b4be 85a7 3e3d
00000270: 2bfc 14bd 2d71 0840 0afe 90be fb58 50bd
00000280: 60ec 76be 54b1 6f3d fe5e c3c0 1d46 c73d
00000290: 8c6f de3e 789f aac0 cdd4 d13e 1bdf 643e
000002a0: 8351 83c0 eb8a cdbd 62e2 053f a75f afbc
000002b0: bd90 26be 20f0 41be 6db8 d13e dc03 01bf
000002c0: d8a0 8b3e 322f a3be cbef 1d3e 704d c5c0
000002d0: a675 373f 633a 843e 0064 1dbe 70c0 04bf
000002e0: 96a5 33be 223e 733e eab3 24be e5b1 efbd
000002f0: 56be 9ebe 0b6a 1dbf 5199 4fbe 080b dabd
00000300: 156a 9bbc 85c9 183e 7cdc cbbd 0a7c a7be
00000310: da9c b33c 0891 b3bc 443b b2bd db55 463e
00000320: 9f61 bdbd c78a 883e 074e 9dbf a24d 093d
00000330: 0b53 3abd 1e85 c73d f1df 66ba b2af a73d
00000340: 7b77 ffbc 9742 f13d fe1e 833d a839 443e
00000350: 9caf 5cbd af7b 763d 31d6 653c 60dd 7ebd
00000360: 4a4d 8f3c dbac 3dbc d4fe abbe 909b 043e
00000370: d604 3ebe 3e8a 1fbd 5d66 dd3d 3298 96bd
00000380: a21c 01be e226 e23d 8ddf d03c bd81 e73d
00000390: 6849 163d 5c39 f23c 38bd 84bd fdc4 a1bc
000003a0: 963a 1dbd 9fa9 003d 658e 4a3b 4c2c a93e
000003b0: 3903 a23d c3c1 b4bd 74f5 84be 7932 5ebe
000003c0: 0aa0 d53e f2bf 97bd 7399 543e d32f 9dbf
000003d0: 49e7 86bf ae71 203f 8d1b 443f 2a95 92be
000003e0: 567c 283e ece9 ff3e b907 2c3f f2c5 ab3e
000003f0: 85cc 1b3e 6020 afbd ae4f 563e 6b59 11be
0.34410655 0.1428747 0.052840687 -0.59748966 0.103188716 -0.120201476 0.10663554 -0.42886114
-0.24544223 0.42592087 0.19838993 0.100322515 0.09024708 -0.655003 -0.36962977 0.4342782
0.2850837 0.020788053 -0.2764733 -0.17399086 -0.27003908 0.080712624 1.414679 -0.15848388
0.15240224 0.218644 -0.022244172 0.23118305 0.2582334 -0.027688228 -0.3773212 -1.0992513
0.2772226 -0.09872637 -0.14666367 0.09987261 0.19685446 0.030025009 0.5224193 -0.042970147
-0.027540479 0.017007237 0.25470832 0.1567221 0.31157267 0.18240166 0.097622745 -0.051989295
0.07041822 -0.20001811 -0.2905818 -0.74891204 -0.040854532 0.48678657 -0.34977612 -0.117897965
0.08488625 -0.08612383 0.47616738 -0.16518225 -0.0030515213 -0.076656826 0.20925261 -0.03928146
-0.5217248 0.0976591 -0.2524836 0.3964789 0.07138607 0.01274341 0.36937997 -0.0719035
-0.11495098 -0.33241826 -0.10060091 -0.3342794 1.1533414 -0.33677778 -0.22047028 -0.16836323
-0.17527662 -0.9770239 0.6125099 0.53065836 -0.9671751 -0.24671257 0.94762856 0.23501743
-0.31814367 -0.13638593 -0.31023145 -0.6751729 -0.67754734 -0.09500229 -0.45004842 -0.36319932
0.41081247 1.0120183 0.7563564 0.44730964 -0.030498132 -0.017273154 0.0021892935 -0.36634585
-0.106621 0.48852748 -0.08080226 -0.48331192 1.3703392 -0.95693874 0.109523304 -0.6688448
-0.46519148 -0.67733186 0.73450315 -0.43010888 1.0661509 0.36691806 0.26095054 0.08722726
0.4717634 0.7853395 -0.08188039 -0.08819644 -0.13071488 -0.028877774 0.05787854 -0.0744464
-0.12943904 0.121415384 0.031566717 0.07172326 -0.030112917 0.05745723 0.015648725 -0.22093408
-0.098951645 -0.031041805 -0.00053320226 1.0445688 -0.17798185 -0.3298875 -0.015329655 -0.1403205
0.1862203 0.027042313 0.13784342 -0.054014828 0.8488011 -0.015605586 0.06657546 0.006716212
0.19243045 -0.11853306 -0.352247 0.046546478 -0.0363733 2.1319077 -0.28318816 -0.05086611
-0.24113607 0.058518723 -6.1053457 0.0973017 0.4344448 -5.3319664 0.40982667 0.22350733
-4.1037 -0.10036262 0.5229856 -0.021407915 -0.16266151 -0.18939257 0.40961018 -0.50396514
0.27271152 -0.31871945 0.15423505 -6.165703 0.7166389 0.25825796 -0.15370178 -0.51856136
-0.17543635 0.2375417 -0.16084257 -0.117038526 -0.3100459 -0.61489934 -0.2027333 -0.10646635
-0.018971482 0.14920624 -0.099541634 -0.32711822 0.021925379 -0.021919742 -0.0870271 0.19368689
-0.09247135 0.2666838 -1.2289437 0.033521302 -0.045489352 0.09742187 -0.00088071736 0.08187808
-0.031184902 0.11780279 0.06402396 0.19162619 -0.05387841 0.060176548 0.014028118 -0.06222284
0.017492909 -0.0115768565 -0.33592856 0.12949967 -0.18556532 -0.038950197 0.1081054 -0.07353248
-0.12608579 0.110425726 0.025497222 0.113040425 0.0366911 0.029568367 -0.06481403 -0.019747252
-0.03838595 0.031411763 0.0030907628 0.33041608 0.07910771 -0.088260196 -0.25968516 -0.21698941
0.41723663 -0.074096575 0.20761661 -1.228022 -1.0539333 0.6267346 0.7660454 -0.28629428
0.1645368 0.49983156 0.67199284 0.33549458 0.15214737 -0.08551097 0.20928833 -0.14194266

head_conv.2.depth_wise_1.bias f4 [32]
00000000: 5c3f 523d 3b87 5e3e 62d4 15bc 5d93 983e
00000010: 55b5 103f b192 7b3c 8334 423e 343c a83e
00000020: c33b 343f c5e8 063d dd20 8bbc bb2f b63d
00000030: a3ab 843e 7024 503b 980f 8bbe 2ae5 223f
00000040: d008 c43d be0a f3bd c781 e73e 7598 b83e
00000050: 3726 a3bd 1bbb 153f 2856 0c3e 0e25 0fbf
00000060: b664 073f 3f80 03bf 9582 56bd efe7 5d3d
00000070: ad97 473f 7cad e6bc 0ec0 16c0 4276 aa3c
0.051329955 0.21731274 -0.009144874 0.2979993 0.5652669 0.015354798 0.18965344 0.3285843
0.7040369 0.03293683 -0.016983444 0.088958226 0.25912198 0.003176 -0.27160335 0.63630927
0.09571993 -0.11867283 0.452162 0.36053815 -0.07966273 0.58488625 0.13704741 -0.55915916
0.5288805 -0.51367563 -0.052370626 0.054176267 0.77965814 -0.028158896 -2.355472 0.020808343

head_conv.2.point_wise_2.weight f4 [32, 20, 1, 1]
00000000: 8bb7 b83e bbed 9d3d e35f 853d 39eb 3abf
00000010: 12d8 55bf 648c 38be cd08 c4be cae1 04bf
00000020: 35c8 e2be 9a8a 113d e098 50bf 5461 0a3f
00000030: e56a b5bd d34f fabd 9ce6 183e 8851 bc3f
00000040: 31ea 693e 2e8b 84bf deba 23be 38d4 9abe
00000050: f85e 42be 61b3 b43f fc74 c5be 931e c1be
00000060: 6939 173f fd78 34bf 40ce c63c 016b 71bd
00000070: 6744 243e a532 47be 088e cc3c ab31 cdbd
00000080: 8966 bd3c 4e81 fb3c ba12 423f 8a8b 03bd
00000090: 8da4 2d3e bf54 3fbe d3f0 cebe 5705 20be
000000a0: 1e24 1f3f 66f4 0040 d4dd 03be 49f4 a53e
000000b0: c70f c6be 34c1 253f 14e0 c6bc 5c29 3abf
000000c0: dbbd 58be 31dc 0fbc 539d d6be c29b c13d
000000d0: 06db 68be faac e0bd 01fe 60bf 8a1f a73d
000000e0: 2f69 58be bab6 a63e 9fa0 dc3e 0c92 033d
000000f0: 2162 8dbe 9593 c6be 889b 72be e5f9 62be
00000100: c319 973c 78bc 22bd 1f4a cb3d d64f ba3e
00000110: fe3f eebe d7c8 053d efbc f23c e307 9fbd
00000120: e580 3d3e 6e6b 8c3e 7f43 ae3e fef8 0b3e
00000130: 428a a83d f6e0 763d e652 dcbe f4ba 963e
00000140: 2f4b b6be 35c6 753e ae6f 423e cf2c 993e
00000150: f114 b3be 7521 423e 7037 21bb 1371 1f3e
00000160: 9262 ebbc 45e1 e63e 04e4 c43e e289 793e
00000170: cf4b b73d 1c0f df3d 05ad 20be 3812 da3e
00000180: 6d27 a3bd a906 be3e 3a9f 3ebe 5ee2 813d
00000190: f7ad dfbe e7fe f3be 0b4e 233e f380 6fbf
000001a0: d293 bebe 402a 84bd 7bc5 aa3e 6ae4 38bf
000001b0: 862b 76bd 7155 82bd 5880 233f bbb6 46bf
000001c0: e68f c93d 6802 aebf e7e1 1f3e 9fba b93e
000001d0: 96b3 c23e 254d 8c3e 1e8a 99bd d95d 8d3e
000001e0: b21f 4cbe 7e75 11be 921e 02bd 0159 3bbd
000001f0: b10a 303e 5d73 c0bd 2fb5 7c3c fd67 e8bd
00000200: c477 733d e18b 953d 0ea3 f8be c3a6 7dbd
00000210: 6e57 1abd b6db c03c 446d 943c 921c e83d
00000220: 0133 b03d df22 163e 540e 263c 7522 79bf
00000230: 9598 4b3e 8044 bfbe ec66 58bc 7efe 3f3c
00000240: c683 663e e08b c6be 3557 4dbe a543 713e
00000250: 9fd4 68bd ceef bdbd 9778 c83e e943 273e
00000260: b172 f6be fd92 9cbe c9a8 93be 0f12 563d
00000270: db68 003d 4742 27be 980f 343e c216 463f
00000280: 34f1 dbbd cbef 83bc cb93 46bd c404 36bc
00000290: 6fb5 27bd 81b6 62bd bb1d 93bd 3107 3cbd
000002a0: f80a 593d 0641 093c 9b8f b0be d3f7 cfbc
000002b0: aa67 a2bd 6179 4b3d 0ea1 d1bd 7307 fc3c
000002c0: c0c3 693c 3a35 7b3d 26f4 463d 7472 79bf
000002d0: 9b82 8bbe 46e3 04be ece4 213f b284 7bbf
000002e0: 1fc4 a2bf 54cb 4e3a 0d6c 2bbe 894b f1be
000002f0: cc68 4bbf f5ef 233f d1b4 4d3f c709 3740
00000300: b213 633e a56a 203f 40b8 153f e90b 0340
00000310: 77d4 2d3f 6f8d 5f3f 2eb2 5dbe affd 8fbe
00000320: 2791 223f 8ec4 df3d 53fd 123d c813 52be
00000330: 2912 1abf d896 1f3f b790 49bf 1c11 79be
00000340: fae1 b33d 5aa2 82bd adc2 c1bc b484 63bc
00000350: acba d63f 7a3a 19be 9961 a6bf 7805 d5be
00000360: 1360 773f 991a 493f 7a75 af3f 127a c93d
00000370: ccad d5bd 73e2 f6be 5b69 973e e936 ab3e
00000380: 8024 54be 5d1e f0bf 9fa1 53bf b42a 9dbf
00000390: bf34 18be 9ef1 e93c dc7c 113e 8a5b 96be
000003a0: daa3 373f 72e9 c73e 9f3d a63d 055e 4f3d
000003b0: fb39 5dbe eace a43e 2224 873f 245c 743d
000003c0: 469d 86bd f0a3 d83e 6944 283e c019 7fbf
000003d0: 8d58 4bbc 3028 a3bf 9ea1 493e 682f 653f
000003e0: ec46 77bf 8b7f 84bf 10aa 78bf f190 e7be
000003f0: 787a d83e a96f 923e 7f5d f13e 096d c73e
0.36077532 0.07711359 0.065124296 -0.7301517 -0.8353282 -0.18022305 -0.38287964 -0.51907027
-0.4429337 0.03553257 -0.8148327 0.5405476 -0.08858279 -0.122222565 0.1493172 1.4712381
0.22843243 -1.0354974 -0.15989253 -0.30240035 -0.1898154 1.4117242 -0.38565814 -0.3771864
0.59071976 -0.70497113 0.02426827 -0.058939938 0.16041718 -0.19452913 0.02497007 -0.10019239
0.023120182 0.030701306 0.75809824 -0.032115497 0.16957302 -0.18684672 -0.4041811 -0.15627037
0.62164485 2.014917 -0.1287759 0.32412937 -0.38683912 0.6474793 -0.02427677 -0.7271936
-0.21166174 -0.008780525 -0.41916904 0.094535366 -0.22739801 -0.10970493 -0.8788758 0.081603125
-0.21133874 0.32561284 0.43091294 0.032121703 -0.2761393 -0.3878447 -0.23692143 -0.2216564
0.018444901 -0.03973052 0.09926247 0.36389035 -0.46533197 0.03266224 0.029631106 -0.07765176
0.185062 0.27425712 0.3403587 0.13669202 0.082294956 0.060273133 -0.43031996 0.2943951
-0.35604236 0.24001391 0.18987915 0.29917 -0.34976915 0.18958075 -0.0024599694 0.15570478
-0.028733525 0.45093742 0.38455212 0.24369004 0.08950006 0.10891554 -0.15691002 0.42592025
-0.07966504 0.37114456 -0.18615428 0.06342004 -0.43687412 -0.47655413 0.1594774 -0.93556136
-0.37222153 -0.06453371 0.3335379 -0.7222353 -0.0601001 -0.06363953 0.6386771 -0.77622575
0.098418996 -1.3594484 0.15613519 0.36275193 0.38027638 0.27402607 -0.07497047 0.27610663
-0.19933966 -0.14204976 -0.031767435 -0.045739178 0.17191578 -0.09397004 0.015424057 -0.11347959
0.05944039 0.073020704 -0.485619 -0.061926614 -0.037681036 0.023542266 0.018118508 0.11333574
0.08603478 0.1466174 0.010135252 -0.973182 0.19882424 -0.3735695 -0.013208132 0.0117183905
0.22511205 -0.3877859 -0.20052798 0.2356096 -0.056843396 -0.09274255 0.39154503 0.163345
-0.48134378 -0.30580893 -0.2883971 0.052263316 0.031349998 -0.16333877 0.17584074 0.77378476
-0.10739365 -0.016105553 -0.04848079 -0.011109535 -0.040944513 -0.05534983 -0.07183405 -0.045905296
0.052988976 0.008377319 -0.34484562 -0.025386726 -0.079299286 0.049676303 -0.10235797 0.03076527
0.014267862 0.061330058 0.04857268 -0.97440267 -0.27248082 -0.12977323 0.6323993 -0.9824935
-1.2716101 0.00078885746 -0.16740437 -0.4712794 -0.7945678 0.6403802 0.8035403 2.8599718
0.22175482 0.62662727 0.5848427 2.047602 0.6790232 0.87325186 -0.21650001 -0.28123233
0.63502735 0.10926162 0.03588612 -0.20515358 -0.6018396 0.62339544 -0.7873644 -0.24322933
0.08783336 -0.06378622 -0.023652399 -0.013886619 1.6775718 -0.14963713 -1.2998534 -0.41605735
0.9663097 0.7855621 1.3707726 0.09837736 -0.1043354 -0.48219642 0.29572567 0.3344033
-0.20717049 -1.8759266 -0.8266849 -1.2278657 -0.14863871 0.028557595 0.14207786 -0.29366714
0.7173439 0.39045292 0.08117222 0.050626773 -0.21604149 0.32189113 1.0557902 0.059658185
-0.06572966 0.42312574 0.16432346 -0.99648666 -0.012411249 -1.2746639 0.19690558 0.8952546
-0.96592593 -1.0351423 -0.97134495 -0.4522777 0.42280936 0.28600815 0.47141644 0.38950375

head_conv.2.point_wise_2.bias f4 [32]
00000000: 296c 393e da61 8e3e 4355 a63e 5977 903e
00000010: 314b 97bd fafa d03d 25aa e5be 68c3 073e
00000020: 0c81 fc3e 59fa cdbe 9341 8ebd a059 e5be
00000030: d790 0140 d5ab 7fbd 8cae c23d 7f8b 383e
00000040: 44d5 9ebd e700 abbe 6361 30bf 256a 5d3f
00000050: 5e78 483f 8005 f53b 2001 b4be da56 863e
00000060: 07aa c1bc efc1 de3d 4d39 bd3d 8fa1 68be
00000070: 0b5b 0b3e 2d44 243c 1b90 4a3f b2a3 1dbf
0.18107666 0.2780903 0.32486925 0.28216055 -0.073873885 0.1020412 -0.44856372 0.13258135
0.49317205 -0.40230063 -0.06946101 -0.4479494 2.0244653 -0.06241973 0.095059484 0.18021964
-0.07755521 -0.33399126 -0.688986 0.8649009 0.78308666 0.0074774623 -0.35157108 0.26238137
-0.023640646 0.10876834 0.09239445 -0.2271788 0.13608949 0.01002602 0.7912614 -0.61577904
