codes/Weights/wv3/weight-700.pth (torch, 92405 bytes, 80 tensors)

head_conv.0.point_wise_1.weight f4 [9, 9, 1, 1]
000000 39 7f bc 3e f1 e6 47 bf d3 11 6c 3f 18 09 e3 be
       0.36815813 -0.78086764 0.922147 -0.44342875
000010 0f 53 1a bd 20 bc 6b bf da 52 14 3d a3 de 33 bf
       -0.037676867 -0.9208393 0.036211826 -0.7026159
000020 15 18 8c 3e 87 1c 6a 3a 87 31 c3 bd b6 cd a2 be
       0.27362123 0.00089306425 -0.09530931 -0.3179757
000030 ed 59 6e 3e 89 d1 07 bf d1 0d dd 3f aa eb 1d c0
       0.23276491 -0.530541 1.7269841 -2.4675088
000040 e6 14 91 bf 07 c8 0c 40 89 5c d0 3d df ea 0a c0
       -1.1334503 2.1997087 0.101739 -2.1705854
000050 6c 41 09 c0 65 a1 e3 3f c6 4d 87 bf 63 e5 be be
       -2.144618 1.7783629 -1.057061 -0.37284383
000060 b3 ea ce bc 46 a6 f2 3e 46 88 af be 35 ae 3a bb
       -0.025258398 0.47392482 -0.34283656 -0.0028485183
000070 32 a4 ba bf 5e e0 92 bf f4 69 a6 be 44 b9 fb be
       -1.4581358 -1.1474721 -0.3250271 -0.49164784
000080 63 7f 9f bf 73 9b 52 bf 3e 90 2f 40 e8 13 db 3f
       -1.246075 -0.82268447 2.7431788 1.711545
000090 a9 42 27 bf 8c fd c5 bf c0 ba 97 3f 59 98 2d 3f
       -0.6533609 -1.5468001 1.1853867 0.6781059
0000a0 0f e4 b1 bf 34 b3 0b c0 e4 f6 c9 3f 64 af 26 bf
       -1.3897723 -2.1828127 1.577847 -0.65111375
0000b0 65 f9 06 be e8 1e 14 c0 51 2f 21 3f 30 84 b6 be
       -0.13181074 -2.3143864 0.62962824 -0.35647726
0000c0 64 f1 d7 be 70 1f d9 3f 1c 81 0f 3e a2 b7 0c 3e
       -0.42176354 1.6962719 0.14014095 0.13741925
0000d0 17 ed ed 3e 0e c1 2c 3f bb 09 5a 3d 66 12 f1 bf
       0.46469948 0.6748208 0.053231936 -1.883374
0000e0 c1 5b db bf 49 58 9b bf 0a 93 13 3f 8a cc 64 3f
       -1.7137376 -1.2136317 0.5764624 0.893746
0000f0 3d f8 1e 40 63 ae ae bf 26 9d 8c 3e 2f e8 98 3c
       2.4839013 -1.3646969 0.27463645 0.018665401
000100 8b 8e 4a bf 1a 80 b0 be a6 1b ae 3f a4 1c b1 3e
       -0.79123753 -0.34472734 1.3602188 0.34592164
000110 c9 8d ca be c6 f1 07 c0 b0 03 c5 bf 7f b4 81 40
       -0.39561298 -2.1241317 -1.539175 4.053283
000120 00 18 31 bd 56 76 e2 3e 5a a1 89 bf be 12 4b bd
       -0.04323578 0.44230908 -1.0752366 -0.04957842
000130 d1 65 28 40 54 6a 25 c0 31 20 0f be 67 2a 73 bf
       2.6312144 -2.5846148 -0.13977124 -0.94986576
000140 46 05 c9 3f
       1.5704734

head_conv.0.point_wise_1.bias f4 [9]
000000 ad 2d 26 3e 33 f0 18 3e be 37 a0 3e ad bf 02 3d
       0.16228361 0.14935379 0.31292528 0.031921078
000010 d4 0e 78 3e 9b 80 79 3c 9c ed d9 3e cf ac 0e bd
       0.24224406 0.015228416 0.42564094 -0.034832772
000020 8d 16 4e 3d
       0.050314475

head_conv.0.depth_wise_1.weight f4 [9, 1, 3, 3]
000000 b1 13 e6 3e c3 6d 35 3e 42 eb 64 3e 78 42 b4 bc
       0.44936898 0.17717652 0.22355369 -0.022004351
000010 de 24 ab bf 46 ea 1a 3e 05 7a 09 bd 3b ec ca bc
       -1.3370626 0.1512843 -0.033563633 -0.024770847
000020 28 76 71 3e 1c a5 5c 3e d3 84 35 bf cd 2e db 3e
       0.2358023 0.21547359 -0.709058 0.42809144
000030 48 31 37 bf 91 ea dc bf 9d 49 9d bd 58 25 d4 3d
       -0.7155957 -1.7259084 -0.07680056 0.10358685
000040 51 e3 c7 be 85 4e 5f 3e fb 07 4d 3e da a0 1b 3f
       -0.39040616 0.21807297 0.20022576 0.60792315
000050 9a b9 94 bd 59 45 5c 3f 09 da 01 3f 24 51 2e 3f
       -0.07261963 0.86043316 0.5072332 0.6809256
000060 75 fb 4a bd e9 eb 0a 3f 72 45 0c bf 3e 4e 22 3f
       -0.049556214 0.5426622 -0.54793465 0.6340064
000070 e9 56 8d bf 00 f4 89 be 5b 32 a7 bf 28 b7 10 40
       -1.1042148 -0.2694397 -1.3062242 2.261179
000080 0a 0e 23 3f e9 ac d3 be 85 07 22 3f 59 8e f2 bd
       0.63693297 -0.41342857 0.63292724 -0.11843557
000090 a7 40 2e bd 46 bc ad 3d e1 86 1e be e2 e8 73 3d
       -0.042542126 0.08483176 -0.1548114 0.059548266
0000a0 db 57 0f 40 df 1e b3 3d 21 9b 8a bd 84 f2 48 3e
       2.2397373 0.087461226 -0.0676787 0.19623762
0000b0 b8 f4 c0 bd 75 b6 5f be a4 78 09 bf 22 72 7d be
       -0.094216764 -0.21846946 -0.5369971 -0.2475057
0000c0 80 c6 f3 be 9c ce ad 3d 18 5d 07 bf 38 9f 7a be
       -0.4761238 0.08486673 -0.52876425 -0.244748
0000d0 23 ba ed be 93 45 8f be bc 54 7b 3d fd af 89 bf
       -0.46431074 -0.27982768 0.061360106 -1.0756832
0000e0 ad bf 2b 3f e1 06 1d 3f 14 a0 45 40 f1 68 88 bf
       0.6708935 0.6133862 3.0878954 -1.0657026
0000f0 77 bf a8 be 83 c7 00 3e 32 1e c9 3e 79 a1 e7 3d
       -0.32958576 0.12576108 0.3928085 0.11310095
000100 10 ec 27 bd fe 5a e3 3e c0 4c 40 bf f8 57 25 c0
       -0.04099661 0.4440536 -0.7511711 -2.5834942
000110 5e f7 d9 3f fa 9e 6a 3e 2e d9 d9 3e 0a 6e f2 3e
       1.7028615 0.22912207 0.42548507 0.47349578
000120 15 66 14 bf 59 e4 c1 3d 8c d2 9f be e9 d8 bd be
       -0.57968265 0.09467382 -0.31215322 -0.37079552
000130 a6 55 1d bf 73 03 cb be bc 9e 1b 3e 28 3c c7 be
       -0.61458814 -0.3965107 0.15197271 -0.38913083
000140 8c 3d 3a 3e
       0.18187541

head_conv.0.depth_wise_1.bias f4 [9]
000000 d3 f8 38 3e 16 03 db bc 3f 2e 16 bd 5b 79 8a bd
       0.18063669 -0.02673487 -0.036665197 -0.06761428
000010 9f a0 ca 3d 98 b7 e7 bc 00 86 6c 3c 9c b2 e2 39
       0.09893917 -0.028285787 0.014436245 0.00043239153
000020 8e 58 0f 3d
       0.03499656

head_conv.0.point_wise_2.weight f4 [9, 9, 1, 1]
000000 2c cf d9 bf 87 73 53 3d 14 4d ec 3d e8 bf 83 3e
       -1.7016349 0.051623847 0.11538139 0.2573235
000010 16 1a 04 3f e6 9f ad 3f 2d 14 1a be eb dd c1 3e
       0.51602304 1.3564422 -0.15046759 0.37864622
000020 2e 78 12 bf 65 40 34 bc 14 57 4d bf c6 c4 5a bf
       -0.5721463 -0.011001681 -0.80210996 -0.854565
000030 b1 0f 81 3e 5f 04 d7 be 1f fd dd 3f e8 1c dd bf
       0.25207284 -0.41995522 1.7342871 -1.7274446
000040 23 08 88 bf 76 15 25 40 eb 6b 3b bd 1b 1a 31 40
       -1.0627483 2.5794349 -0.045757215 2.7672184
000050 dd 86 8c 3f a5 4b 2f c0 89 6d 16 3f b3 4d b5 3e
       1.0978657 -2.738992 0.5876089 0.35410842
000060 b6 2d af bd b1 ab 87 3e 7f 0d aa be 3b e5 82 3c
       -0.085536405 0.26498178 -0.33213422 0.015978446
000070 12 30 fb be 3f 86 1f 3f 1e 3a 67 3f 51 e4 d3 bd
       -0.49060112 0.6231422 0.90323055 -0.10346282
000080 f9 23 d8 bf ee 38 43 3f ea bb 6d 3f 55 87 f6 bf
       -1.6885978 0.7625874 0.9286486 -1.926005
000090 3b a9 b6 3c 22 f1 93 be c5 75 88 3f 27 8a bb 3e
       0.022297492 -0.28894907 1.066094 0.3662884
0000a0 0f 3a 5c be 45 0c ac bf 1c 3c ed 3f 48 1a 54 bf
       -0.21506523 -1.3441244 1.8533969 -0.828526
0000b0 d7 e4 19 bf 72 81 89 be d7 08 ec bd 74 8f 6e 3f
       -0.60114807 -0.2685657 -0.115251236 0.9318764
0000c0 c4 fe 99 3e 58 86 53 be 2f 32 3d 3f 21 55 62 bf
       0.30077183 -0.20656717 0.739047 -0.88411146
0000d0 c9 58 c4 3f 1a 68 f3 bf 6f 0b 31 bd 2c 1a da bf
       1.5339595 -1.9016144 -0.043223795 -1.7039237
0000e0 ac 2a 62 bf 64 51 ab bf 60 98 39 3e 55 07 20 40
       -0.8834636 -1.3384213 0.18124533 2.5004475
0000f0 9a 58 8b 3f 72 54 c7 be a0 5d d2 be ce fd be 3d
       1.0886414 -0.38931614 -0.41087055 0.09325753
000100 7f 51 1d 40 1b c4 d9 bf 33 2f bd be 1a 6c dc 3f
       2.4580991 -1.7012972 -0.36950073 1.722049
000110 68 6e ae be 72 16 ed bf d8 31 9d 3f 7c 04 96 bf
       -0.34068608 -1.8522475 1.2280836 -1.1720119
000120 6c 26 55 bc 16 40 80 3f 19 31 11 bf 73 2f 94 3e
       -0.013009649 1.0019557 -0.5671554 0.2894245
000130 3f 0c 52 40 00 39 3d c0 fd 01 96 3e c5 70 92 bf
       3.2819974 -2.956604 0.29298392 -1.1440665
000140 cf af d0 3f
       1.6303653

head_conv.0.point_wise_2.bias f4 [9]
000000 87 75 a7 bd 3f 3f ef 3d 43 ca e3 bd ca 83 48 bd
       -0.081767134 0.11681985 -0.11122563 -0.04895381
000010 de 88 99 bc f8 62 d2 bd 8c 15 88 3e 03 18 54 3c
       -0.018742021 -0.10272783 0.2657894 0.012945178
000020 0d fa 0c be
       -0.13767262

head_conv.0.depth_wise_2.weight f4 [9, 1, 3, 3]
000000 e1 e8 91 3e cd cf 87 3e e5 45 1b 3e ed 08 33 3e
       0.28497985 0.26525727 0.15163381 0.17483874
000010 cb d6 0c 40 92 a5 2b 3e 26 5b c5 3d 64 da 10 3e
       2.20061 0.16762379 0.09636526 0.1414581
000020 3c f2 fa 3d 9c 55 20 3f 9d 50 47 bf 8c 1f 30 3f
       0.12253234 0.6263063 -0.7785738 0.68798137
000030 f7 83 47 bf f4 df 3b c0 b8 16 68 3f 67 12 08 3f
       -0.7793574 -2.935544 0.90659666 0.5315308
000040 0f 47 85 bf f7 bb 98 3e 76 a2 6a 3e 2c 20 68 bf
       -1.041231 0.29830906 0.22913536 -0.9067409
000050 47 df 05 3f f5 53 53 bf 73 da c5 bd e7 92 8a bf
       0.5229382 -0.82549983 -0.096608065 -1.0826081
000060 6b 21 c5 bd ef fb a0 bf 8d 74 32 3e 79 04 03 bf
       -0.096255146 -1.2576884 0.17427273 -0.511787
000070 6e 38 ea bd 6e 94 4e 3f c9 cf f7 3e 3e 9c 38 bf
       -0.11436544 0.80695236 0.48400715 -0.72113407
000080 15 7f 3e 3e d1 9d a7 3e 1d 09 0a be 40 a9 6d be
       0.18603165 0.32737592 -0.13480039 -0.23209095
000090 b5 a5 62 3e db f6 0f be cb 98 b8 3e 2d a4 4d be
       0.22133525 -0.14059012 0.36054072 -0.2008216
0000a0 41 05 cf bd 5a 3f 96 be cb 90 16 3f d2 56 12 bf
       -0.10108424 -0.29345208 0.58814687 -0.5716373
0000b0 3d e9 c2 3e f7 ae 00 bf 0e ab 1c be 97 5b 2a bf
       0.38068572 -0.50266975 -0.15299627 -0.66546005
0000c0 2c 54 d3 3e 51 b3 9c 3f c0 19 09 3f da e3 96 be
       0.41275156 1.2242223 0.53554916 -0.29470712
0000d0 83 c9 7b be 22 e5 11 bf 95 72 06 bf ca 4e d3 3d
       -0.2458859 -0.56990254 -0.5251859 0.10317762
0000e0 00 19 56 be a7 aa 21 3f bb 51 85 3f 47 f4 16 bf
       -0.20907974 0.6315102 1.0415567 -0.5896649
0000f0 8f f2 b5 be 20 3e 2e 3f bb d5 f1 be 04 f0 96 bd
       -0.3553662 0.68063545 -0.47233376 -0.07369998
000100 43 15 25 3f e9 ab 8f bc 87 af 1e 3f 86 fa 30 40
       0.6448557 -0.017538028 0.61986583 2.7652907
000110 89 b1 1e 3f 72 7f 53 3b e4 c5 bc 3e 0d 6e 90 be
       0.6198965 0.0032272008 0.3686973 -0.28208962
000120 01 7e 74 3f 9b 13 ac bd a1 eb 9e be 7d 1a 3c bf
       0.95504767 -0.08402177 -0.31039146 -0.7347792
000130 ce 21 27 c0 35 a5 4a be ff bc 71 bd 3a ff c8 bf
       -2.6114383 -0.19789584 -0.05901813 -1.5702889
000140 21 bd 8a 3e
       0.2709742

head_conv.0.depth_wise_2.bias f4 [9]
000000 d3 f8 38 3e 16 03 db bc 3f 2e 16 bd 5b 79 8a bd
       0.18063669 -0.02673487 -0.036665197 -0.06761428
000010 9f a0 ca 3d 98 b7 e7 bc 00 86 6c 3c 9c b2 e2 39
       0.09893917 -0.028285787 0.014436245 0.00043239153
000020 8e 58 0f 3d
       0.03499656

head_conv.1.point_wise_1.weight f4 [20, 9, 1, 1]
000000 58 bc c1 3e 50 26 48 bf ce 66 b1 3f e5 67 32 3e
       0.37839007 -0.7818346 1.3859499 0.17422445
000010 cf 0b af be fb 07 2c 3f 76 86 e4 3d 77 b0 4d 3f
       -0.34188697 0.6719968 0.11158459 0.8034739
000020 5f 7c 20 bf f1 0e f9 bd a9 a2 c5 3e e4 e0 a6 3e
       -0.62689775 -0.12161053 0.38600662 0.32593453
000030 f4 9c c5 3f 13 bd cf 3e 59 ac ef bc b8 58 95 bd
       1.5438523 0.4057394 -0.029256986 -0.072923124
000040 05 4b 72 be b8 2a 37 be 87 a4 52 be b6 44 5a 3f
       -0.2366143 -0.1788739 -0.20570575 0.85261095
000050 01 83 ad be 8e 64 3c be df 1b e9 3e 48 d3 8d 3d
       -0.3388901 -0.18397734 0.45529076 0.06925064
000060 cb 54 09 c0 cf d4 b2 be 5c 7e d0 be 26 e6 9f be
       -2.1458004 -0.34927985 -0.40721405 -0.31230277
000070 e2 87 a9 3f 03 8e b3 be 43 7e 87 be 8f 68 87 3f
       1.3244593 -0.35069284 -0.26463518 1.0578784
000080 83 03 c1 3d 2e 45 90 3f 38 09 1f bd ad f4 48 3e
       0.09424498 1.1271112 -0.03882715 0.19624586
000090 e0 d8 20 be 0d 0d ca bc a6 40 6a 3e f9 a6 27 be
       -0.15707731 -0.024664426 0.22876224 -0.16372289
0000a0 a9 e5 de 3e fa ff b1 bc 6c 1f da bc 49 86 60 3e
       0.43534592 -0.021728504 -0.026626311 0.21926226
0000b0 04 e7 0d 3f 21 a0 52 3e ce aa 23 bf 94 3e 17 bf
       0.55430627 0.20568897 -0.639325 -0.5907986
0000c0 e4 db 42 3f 36 b6 14 bf 9b 6c 81 bd a0 3b fa be
       0.76116776 -0.5809053 -0.06319543 -0.48873615
0000d0 d3 eb ae 3f 3d 1f 9f 3d 4e d4 86 be df 69 ae bf
       1.3665718 0.0776963 -0.2633385 -1.3626059
0000e0 6f e1 01 3e 64 ce db bd 0f 84 d7 3e 0e cb be bd
       0.12683652 -0.10732725 0.4209294 -0.09316073
0000f0 85 b9 7d be d4 6f 51 bf 62 db fb be 63 6f f7 3e
       -0.24777801 -0.8181126 -0.49190813 0.4832717
000100 83 fc d1 3e da ec 8f 3f 4a e9 34 bf f3 7a 09 bf
       0.41012964 1.1244156 -0.7066847 -0.5370323
000110 f9 6f 1a bd 1f 73 2d bf 25 9b 80 3f c7 d2 e1 bd
       -0.03770444 -0.67753786 1.0047346 -0.11026531
000120 3f fb 8c 3e aa 91 83 3d 0c a9 78 3f 9f da 81 3c
       0.27535436 0.064242676 0.97132945 0.015851317
000130 ed 5f 6d bf 96 fb b5 bd c9 41 47 be 8a 89 e4 bc
       -0.92724496 -0.08885877 -0.19458689 -0.027897615
000140 9d 56 ac bd 14 66 23 be e8 da da 3d b4 9e cc be
       -0.08414958 -0.15956908 0.10686284 -0.3996483
000150 9d 4d 3b be 72 5d b8 bc 5e cc 8e be ec c8 8a be
       -0.18291326 -0.022505496 -0.27890295 -0.27106416
000160 01 91 b4 bc c4 38 f1 bc 30 a1 48 3d b8 37 bc bc
       -0.0220418 -0.029446013 0.048981845 -0.022975788
000170 b9 65 be be 5d 14 85 3e 9f 3f 9b 3e 2f fc b8 3d
       -0.37186983 0.25992098 0.30321977 0.09032475
000180 94 58 bb 3d 57 8f 19 3d ea 46 04 bf df 2c 78 be
       0.09147754 0.037490215 -0.51670706 -0.24235867
000190 56 55 ec bd 1e 9a bd be 8b 44 2b bd 84 19 0a 3e
       -0.11539714 -0.37031645 -0.041813415 0.13486296
0001a0 0e 92 83 3c 10 36 3a be 57 1a 1a bf 14 6e 00 be
       0.016060855 -0.18184686 -0.6019644 -0.12541991
0001b0 53 59 88 bd 76 55 e7 be bb 01 0b 3f e1 46 97 be
       -0.06657662 -0.4518239 0.54299515 -0.29546264
0001c0 ef 79 45 3d 96 65 cc bb d4 5e e2 be d9 0d 23 bf
       0.048211988 -0.006237696 -0.44212973 -0.63693005
0001d0 f5 85 00 bf f3 37 6b 3e 66 91 13 3f f0 2e 7f 3f
       -0.502044 0.22970562 0.57643735 0.99680996
0001e0 38 d8 f8 be d4 4f a9 be 7b df 91 bd b8 d0 9a 3e
       -0.48602462 -0.33068717 -0.07122704 0.30237365
0001f0 e7 fc a0 3e b5 a2 b0 bf 05 a9 38 3d c0 bf 5f be
       0.3144295 -1.3799654 0.045083065 -0.2185049
000200 0d 34 3f bf 52 35 9c bd b2 d3 23 be 4e 02 d4 be
       -0.746888 -0.076273575 -0.15998724 -0.41408008
000210 8a ca a1 be 4a 4a ab 3e ff dc 62 bb 9c 75 72 bd
       -0.31599838 0.33455116 -0.0034616587 -0.059194192
000220 70 e2 1c 3f 76 ec 84 bf d0 84 1d bc 00 53 e0 3d
       0.61283016 -1.0384662 -0.0096141845 0.10953331
000230 6e 98 0a bd 65 13 b0 3e b0 41 b1 3e 58 44 1d c0
       -0.033836775 0.34389797 0.34620428 -2.4572964
000240 26 60 b4 bd 0b a4 22 40 68 5a 80 bf d4 3d 1d be
       -0.08807401 2.5412624 -1.002759 -0.15355617
000250 5b 9c ec 3e d2 86 4c bc 03 09 7f 3f 56 96 ab 3f
       0.4621304 -0.012483316 0.99623126 1.3405254
000260 f1 71 14 3f 12 d3 ab bd 83 f4 42 3e b1 7c 68 bd
       0.5798636 -0.08389868 0.19038586 -0.05675954
000270 d8 d5 a2 be 4c 87 79 3e d7 58 73 be 0f c0 c4 bd
       -0.31803775 0.24368018 -0.23764358 -0.09606945
000280 5d 13 07 3f 80 35 b0 3e 52 87 6b bf 85 13 30 be
       0.5276392 0.34415817 -0.9200336 -0.17194946
000290 fa 4a 1a be 01 9d da be 04 89 08 bf cb 3b 3d bf
       -0.15067664 -0.4269791 -0.5333407 -0.7391936
0002a0 8d 89 75 be 9f 4f 13 3f 47 5d 0b 3d dc 37 c6 3e
       -0.23978253 0.5754337 0.034024503 0.38714492
0002b0 5e 10 0a 3c 91 25 25 3e 57 86 25 bd 7c 9c 10 be
       0.008426754 0.16127612 -0.04041132 -0.14122194
0002c0 68 08 0e 3f 52 a3 c9 bd 9a 92 cb bd a1 54 b7 bd
       0.55481577 -0.09845604 -0.099400714 -0.089516886

head_conv.1.point_wise_1.bias f4 [20]
000000 8a d9 d0 bd 47 fb d4 3e 0c 8d ff 3d ef 20 8c 3c
       -0.10197742 0.4159796 0.124780744 0.017105548
000010 f0 0f c5 bd d6 6a db 3d 90 79 33 be 1e 8d 07 3e
       -0.096221805 0.10713737 -0.17526841 0.13237426
000020 4a 5e d5 3e 8a a7 a3 bd 71 f9 b9 bd 42 2a eb bd
       0.416735 -0.0799094 -0.0908078 -0.114826694
000030 02 5f d0 3e ad 26 52 3e 1e 46 25 be c5 49 0b be
       0.40697485 0.20522566 -0.16140029 -0.1360236
000040 3b ae 51 bc 2f c2 50 be 74 1c cf bc 2f 0c 59 3d
       -0.012797887 -0.20386575 -0.025282122 0.052990135

head_conv.1.depth_wise_1.weight f4 [20, 1, 3, 3]
000000 e3 65 d2 3e 4a 82 ad be 99 de 57 3e d5 f2 d6 be
       0.41093358 -0.33888465 0.21081008 -0.4198214
000010 2e 55 d2 3f 77 d4 24 bf 32 bd 0d be 7a 2b 9c be
       1.6432245 -0.64386696 -0.13841704 -0.3050192
000020 5c b1 58 3d 0c 85 89 3c cd 83 b7 3e e3 a0 99 3e
       0.052903518 0.016787075 0.35842744 0.3000556
000030 7d 33 03 3c 5d 02 2f 3f 85 58 e8 bd b1 6a 8f be
       0.008007881 0.6836298 -0.11345009 -0.28011087
000040 3d 80 31 be e8 23 ae 3c c0 72 ed 3e d2 69 f7 be
       -0.17334075 0.021257356 0.4637661 -0.48322922
000050 bb b6 68 be e0 ae 67 3f 76 62 86 bf 01 ad 41 bf
       -0.22725956 0.90501213 -1.0498798 -0.7565461
000060 a7 a4 1d bf 77 b4 34 3f 95 ef 13 3f c5 52 ec 3e
       -0.61579365 0.7058787 0.5778745 0.46156898
000070 17 dd 69 bf 47 7b 87 bc 90 49 68 be 9e 04 a2 bd
       -0.9135298 -0.016538275 -0.22684312 -0.07911037
000080 56 f0 4f be 32 76 97 be 71 95 a1 3f 6a 05 9b 3e
       -0.20306525 -0.29582363 1.2623731 0.30277568
000090 16 58 f5 3e 14 d6 b6 3e 98 d0 70 bf 84 8c 2b 3f
       0.47918767 0.35710204 -0.9406829 0.67011285
0000a0 c1 2c 57 3f 9d 2f 79 bf 02 fb 8e bf 43 61 2f 3e
       0.84052664 -0.9733828 -1.1170352 0.17126946
0000b0 1f da f0 3e e8 af 80 3e e8 85 cb bd 86 31 7e 3e
       0.47041413 0.25134206 -0.0993765 0.24823579
0000c0 c5 ab 5e be bb 80 82 bd 49 35 46 bd 5b 07 e8 3e
       -0.21745212 -0.0637221 -0.04839066 0.45318112
0000d0 3e 57 a3 3e c1 69 91 3e 72 76 7c 3f fe 50 f1 bc
       0.31902498 0.28400996 0.98618233 -0.029457565
0000e0 6d 87 af be f9 ef 1e be f0 d1 3a 3f c2 b0 0a bf
       -0.3428301 -0.1552123 0.7297659 -0.5417596
0000f0 fa 2c 86 3d b1 2f e2 bd e0 9a f4 be 75 ed 31 3a
       0.06551547 -0.11044253 -0.4777441 0.0006787398
000100 c2 8f 3e 3e 3a df 00 3e 20 2c f3 3d fd 3f 3d 3f
       0.18609527 0.12585154 0.118736506 0.73925763
000110 d8 2a e4 bb 18 ae 8b bd 09 ca 4c be c7 d3 55 bd
       -0.006963115 -0.06820315 -0.19998945 -0.05220392
000120 90 b8 5f bf 22 a7 07 3f 20 81 4f bf 87 6c d3 3e
       -0.87390995 0.529894 -0.81056404 0.41293737
000130 48 52 aa 3f c3 bf 2c 3e 00 c5 19 bf 98 98 f2 3e
       1.330636 0.16870026 -0.60066223 0.47382045
000140 1e 63 64 bf aa f0 fb be 03 45 7e 3e 90 94 ae be
       -0.8921374 -0.4920705 0.24831013 -0.3409772
000150 00 59 03 3e df ba 44 3f 92 6d b9 bd d5 bb 69 be
       0.1282692 0.7684764 -0.09054102 -0.22825558
000160 8e 08 a7 3e fb c7 c6 be 2a d6 53 3d a9 70 fb 3e
       0.32623714 -0.38824448 0.051717915 0.4910939
000170 1f 56 1d be 74 63 d3 3e 00 d3 dc 3e 4c 6f 1c bf
       -0.15364884 0.41286814 0.4312973 -0.61107326
000180 f1 7e 50 be 31 bd bf be a3 f2 00 3c d2 54 cc 3e
       -0.20360924 -0.3744903 0.007870349 0.39908463
000190 44 9a a2 3e cc 67 41 3e b5 3a 1d bf b0 f6 9a be
       0.3175832 0.18887252 -0.61417705 -0.30266333
0001a0 d5 a1 df be 6b 4c e4 3e d6 da 7c be 58 31 3f 3e
       -0.43678156 0.44589552 -0.24692854 0.18671167
0001b0 e7 78 6b be f6 11 29 3e b1 26 b1 3e 81 88 76 be
       -0.2299534 0.16510758 0.34599832 -0.2407551
0001c0 8b dc 33 3f 65 ef a3 3e a2 d0 c0 3e c0 e3 62 bf
       0.70258397 0.3201858 0.37659174 -0.8862877
0001d0 f0 49 56 bd b1 f6 d2 be c0 5f 29 be 2c 79 3d 3e
       -0.052316606 -0.41203836 -0.16540432 0.18503255
0001e0 6f 8a 27 bf 22 db 45 bf b0 b7 05 3f 18 1e 76 3e
       -0.6544561 -0.77287495 0.5223341 0.24034917
0001f0 2b ca 0b 3f 7f f8 a5 3d 48 c6 50 bf 2b 79 03 3e
       0.5460536 0.081040375 -0.81552553 0.1283919
000200 9b 81 c9 be 1c 89 1e 3f f3 d7 3d be ae 18 91 3f
       -0.39356694 0.6192796 -0.1853941 1.1335657
000210 76 7b 92 be fb 90 ed 3e a0 c3 68 bf 65 aa ac 3e
       -0.28609818 0.46399674 -0.909235 0.3372375
000220 90 37 23 3d 17 0d 5c be 76 47 9e be fa 11 92 3f
       0.03984791 -0.21489368 -0.30913895 1.1411736
000230 5a 50 0e 3f 75 b4 d8 bd 7e 97 19 bf 25 87 3e be
       0.55591357 -0.105812944 -0.59996784 -0.18606241
000240 12 69 56 3f c1 fa 9f bf 99 7d ed 3e 68 41 75 3e
       0.83754075 -1.2498399 0.46384886 0.23950732
000250 53 45 37 3e 35 9a 36 be 0d cd 7c bf f7 e9 b3 3f
       0.17897539 -0.17832263 -0.9875038 1.4055775
000260 46 32 4f bf 4b cb 80 3e 89 16 32 be 08 1c a8 be
       -0.80936086 0.251551 -0.17391409 -0.32833886
000270 a6 3a 74 3f 16 c0 7a 3e d4 ac 23 3f b5 fb 1c bd
       0.9540199 0.24487337 0.6393559 -0.038325984
000280 70 46 09 bf 1c b9 a0 bf 72 2b da be 8f 7b cd be
       -0.53623104 -1.2556491 -0.4261127 -0.4013333
000290 a9 f9 b7 be 81 01 b7 be c0 e9 30 3f 38 70 9a be
       -0.35932663 -0.35743335 0.69106674 -0.3016374
0002a0 25 91 d6 be 7a b9 91 be 07 91 05 bf 46 d6 41 be
       -0.4190761 -0.2846182 -0.5217442 -0.18929395
0002b0 09 30 ca be 8e cf 26 be 53 11 f1 be 34 b7 e4 3f
       -0.39489773 -0.16290113 -0.4708353 1.7868409
0002c0 83 76 9b be a8 13 d5 bd b4 eb dc be 91 41 6e bd
       -0.30363855 -0.1040414 -0.43148577 -0.058167998

head_conv.1.depth_wise_1.bias f4 [20]
000000 d2 c0 a8 3c 65 78 fd bd 1c 3d a6 3c ce dc f3 bb
       0.020599756 -0.12376479 0.020292811 -0.0074420935
000010 5f 6e db 3c 6a 5a ed bd 16 10 3d 3c eb f7 e7 bc
       0.026786027 -0.11589511 0.01153948 -0.028316459
000020 aa 1a 8e 3d ed 6b 8c 3c d1 9e 01 3e b7 9c b2 bd
       0.069386795 0.017141307 0.1265824 -0.08721297
000030 e8 58 a5 bc 2a cf d0 3c be 82 4e 3c f4 cb f5 3c
       -0.020183995 0.025489409 0.012604414 0.030004479
000040 c0 29 14 bc 92 9f c2 bc 4d 7d b0 3d f0 e0 14 3e
       -0.009043157 -0.02375773 0.08617649 0.14538932

head_conv.1.point_wise_2.weight f4 [20, 9, 1, 1]
000000 d5 4a 6d bd 14 c2 cc 3e da 41 4c 3c 88 d4 22 be
       -0.057932694 0.3999182 0.012466872 -0.15901387
000010 70 b8 62 be c3 64 d4 be 6e a1 96 be ba 60 9c be
       -0.2214067 -0.41483125 -0.29420036 -0.30542547
000020 ee 22 87 3f 7c 10 22 3e 44 0b 89 be 70 b3 46 be
       1.0557535 0.15826601 -0.26766407 -0.19404387
000030 a5 31 88 3e c2 a8 67 be d6 5d 07 3e e1 ea b7 bc
       0.26600376 -0.2262297 0.1321939 -0.022450866
000040 d0 59 6e 3e 97 5d 36 bd bc 03 d4 3e 67 ac a7 be
       0.23276448 -0.044522848 0.414091 -0.3274872
000050 c4 bf 06 3f 79 e6 58 3e 03 c1 f5 be 06 30 0f bd
       0.5263636 0.21181668 -0.4799882 -0.034957908
000060 95 38 4c 3f d7 14 79 3f 58 b7 c2 be 65 4a 62 3e
       0.7977384 0.97297424 -0.38030505 0.22098692
000070 85 97 57 3f 7c 46 8d 3e 71 4f fd 3d ff 2d 99 be
       0.84215575 0.27592838 0.12368668 -0.29917905
000080 62 1a 15 be e0 c0 f8 3d 88 00 c4 3f e8 51 14 3f
       -0.14560845 0.12146163 1.5312662 0.5793748
000090 30 31 45 3e 4f bc 89 be 16 9e 0c bf c4 bb d5 be
       0.19257045 -0.2690148 -0.5492872 -0.41744816
0000a0 a2 f7 e4 3d 71 cb 5d 3e f1 fb 8c 3e fe b3 7e 3e
       0.11180045 0.21659638 0.27535966 0.24873349
0000b0 94 70 d1 be 92 33 13 be 61 c3 5f 3f 36 e7 33 3f
       -0.40906203 -0.14375141 0.874075 0.70274675
0000c0 a6 23 6b be 50 62 56 3f d5 65 e8 3e c9 2d c6 3e
       -0.22962818 0.8374376 0.45390192 0.38706806
0000d0 00 94 98 bf 25 1f dd be ad 33 78 3e 25 fc 93 bf
       -1.1920166 -0.43187824 0.24238463 -1.1561323
0000e0 62 98 db be 79 45 1a 3f c2 5b 08 bf 8a f8 8a 3e
       -0.42889696 0.60262257 -0.5326501 0.27142745
0000f0 d2 ba 04 be 1c 57 7a 3e 77 b2 68 be 61 5c b1 bd
       -0.12961891 0.24447292 -0.22724329 -0.08660198
000100 9e dc 51 be b4 7a 80 3e ac 5d 0f ba 7c 3f 05 3e
       -0.20494315 0.25093615 -0.0005468975 0.13012499
000110 e8 e9 bb bd b0 fd 88 bd 70 7f 1a bf e8 48 a8 3e
       -0.091754735 -0.06689012 -0.60350704 0.32868123
000120 81 78 d4 3e df de dd be 6a aa 8d 3f 0f 65 71 3d
       0.41498187 -0.433341 1.1067631 0.058934268
000130 49 d7 af bd 35 c2 fb 3d 1c 7d 2c 3e 1e 81 92 3e
       -0.08585984 0.122929014 0.168446 0.28614134
000140 73 83 12 be bd e0 82 be e2 d6 29 be a4 de b2 bd
       -0.14307956 -0.25562087 -0.16585878 -0.087338716
000150 f3 04 13 3d ac 95 64 3f b0 d4 65 be bf 57 b1 3d
       0.03589339 0.8929088 -0.22444415 0.08659314
000160 02 38 9e 3e d8 3b 2b 3e 95 54 27 3f 92 44 d7 3c
       0.30902106 0.16722047 0.65363437 0.026277814
000170 db 8d 1e bf e5 93 5d 3c cb fa 9d bf 78 da 5d 3c
       -0.61935204 0.01352403 -1.2342161 0.013540857
000180 e9 8b d9 bd a2 8e f4 bd de 18 36 3c e8 93 67 bf
       -0.10622389 -0.119412675 0.011114327 -0.9046006
000190 4c 7e c6 bd f4 d9 c9 bb 90 53 82 3e 40 0f 21 3d
       -0.09692058 -0.0061600152 0.25454378 0.039321184
0001a0 4b 8e d4 3f 70 cf 9d 3e 7d d3 79 3e b7 78 ed 3c
       1.6605924 0.30822325 0.24397083 0.028988225
0001b0 2b 51 e7 bc f7 ba 06 c0 14 a6 09 be c6 1f 6b 3e
       -0.028236946 -2.1051614 -0.1344226 0.2296134
0001c0 55 a6 94 bd ae 5d 76 bc f2 52 23 bf fa 3b 71 be
       -0.07258288 -0.015036983 -0.6379844 -0.23558035
0001d0 ef 63 21 bf 87 4d 49 3d 4e 34 82 bd 94 33 b8 3f
       -0.6304311 0.0491462 -0.063576326 1.439074
0001e0 db d3 7f be 02 89 df 3e 57 ce 09 be 20 8a cd bd
       -0.2498316 0.43659216 -0.13457619 -0.10036111
0001f0 1e 94 34 3f 8c 56 fb bc df 6d 7a 3e 3d ec fe 3d
       0.7053851 -0.030680917 0.24455975 0.124474026
000200 1d 6f 8b be 3c 69 c6 3f 6f b9 17 bf 20 f7 3e bd
       -0.2723321 1.5500865 -0.59267324 -0.046622396
000210 f5 5b 4c be 7a c7 45 3e 79 b8 a4 be 89 73 8b be
       -0.19956954 0.19314376 -0.3217199 -0.27236584
000220 8e f6 56 3e 68 3f a4 3d 94 1e d2 bd 45 43 59 3e
       0.2099249 0.08019906 -0.102597386 0.21217068
000230 7b af 94 be cd a5 4e be 3d d0 d9 bd 09 f8 35 3e
       -0.2904013 -0.20180435 -0.106354214 0.17770399
000240 1e 42 cd be 59 63 22 c0 90 2e f3 3e 10 9d 4e 3e
       -0.40089506 -2.5373137 0.47496462 0.20177102
000250 ca 5b 1f 3f 8c 79 16 bd 41 ad 0b bf ab 31 0e c0
       0.62249434 -0.03673701 -0.5456124 -2.2217815
000260 4f b6 ac be 01 21 43 be 87 a3 9b 3e 42 18 0f bf
       -0.3373284 -0.19055559 0.303982 -0.5589639
000270 fa 72 1a 3d bc e3 3b 3e 2a 11 cf bd c8 73 38 3f
       0.037707306 0.18348593 -0.10110696 0.7205167
000280 13 95 89 3b 58 f0 92 bf 9c 8c 0b 3c e4 23 d4 be
       0.0041986792 -1.1479597 0.008517411 -0.41433632
000290 96 f3 fc 3e c8 f4 ba be a8 f4 00 bf f0 d5 5f bf
       0.4940459 -0.36514878 -0.50373316 -0.8743582
0002a0 48 06 35 3c c2 76 b3 3e ca 9e 86 be ae d9 17 bf
       0.011048861 0.35051543 -0.2629302 -0.5931653
0002b0 46 c5 dd bc b5 f6 fc 3c c7 67 3b bd 74 c2 2e bf
       -0.027071606 0.030879358 -0.045753267 -0.6826546
0002c0 35 3c 8a 3e 3d 84 82 bd 0b 0c cc 3c e8 aa d9 3c
       0.2699906 -0.06372879 0.024908086 0.026570752

head_conv.1.point_wise_2.bias f4 [20]
000000 d8 7f 2b bd 51 27 e3 bc a1 0a ed 3d 89 27 9c bd
       -0.04186997 -0.027728708 0.11574293 -0.07624728
000010 b2 be 00 be e1 5e c2 3d a0 c7 54 bd 52 24 0b bd
       -0.12572744 0.09490753 -0.05194819 -0.033970185
000020 63 d5 4b bd ba e2 d6 be ee 8a cf 3e 09 45 f9 3d
       -0.04976405 -0.41969854 0.40535682 0.121713705
000030 11 2d 94 be 7f 9e 7d be de 76 73 3e 2c bb ea bd
       -0.28940633 -0.24767493 0.23775813 -0.114614815
000040 7d ca 2f be 66 26 e6 b8 90 a7 dd 3d e9 20 ec 3d
       -0.17167087 -0.00010974407 0.10822976 0.115297146

head_conv.1.depth_wise_2.weight f4 [20, 1, 3, 3]
000000 fe 64 29 3f ed 8f e2 bd 7a db 83 3e 01 57 d0 3e
       0.66169727 -0.11062608 0.25753385 0.4069138
000010 89 8b 0a bf 5b c9 98 be 43 95 aa be b6 a1 1e be
       -0.54119164 -0.29841122 -0.33317003 -0.15491375
000020 0d 9a 10 3d 51 18 dc 3e 28 51 15 bf 02 b9 af 3c
       0.035303164 0.42987302 -0.5832696 0.021450523
000030 28 32 f2 3e 6b f1 98 be 52 ea d9 3e 41 e5 19 be
       0.4730389 -0.29871687 0.42561585 -0.1502886
000040 be 51 f1 be 17 df 02 3e 93 2a a2 3e 97 ed 94 3d
       -0.47132677 0.12780415 0.31673107 0.07271879
000050 b5 74 4a bd be 24 90 bd 73 d2 08 3e 28 f2 27 be
       -0.049427707 -0.07038258 0.1336153 -0.16400969
000060 c8 f9 c9 ba 8e 14 09 bd 1c 90 82 3e 8e 1a 85 3f
       -0.0015409524 -0.033466868 0.25500572 1.0398729
000070 67 33 64 bf 85 47 59 be 82 06 10 3f a7 80 ac be
       -0.89140934 -0.21218689 0.5625993 -0.33691904
000080 3c 7a 57 be d4 33 6c bf fd a5 3f 3f eb 86 8d bd
       -0.21042722 -0.92266583 0.74862653 -0.06910499
000090 a0 e9 df 3e d3 3c 1c bf ba 2d fe be d9 a3 11 bc
       0.4373293 -0.6103031 -0.49644262 -0.008889162
0000a0 45 9a 05 bd 95 ce 96 be 09 54 d0 3e 32 6b 13 3f
       -0.032617826 -0.29454485 0.40689114 0.5758544
0000b0 5f b3 74 3e 28 e8 d7 3e 64 27 88 be a2 01 29 3e
       0.2389655 0.4216931 -0.26592553 0.16504529
0000c0 20 87 0d be 15 08 4f bf c1 51 86 be 63 dd c3 3e
       -0.13821077 -0.8087171 -0.26234248 0.38254842
0000d0 25 8a 09 3e 28 51 92 3e 24 36 fa bd b3 2a da be
       0.13431604 0.28577542 -0.12217358 -0.42610702
0000e0 4f 18 95 be 90 be 4b 3f 3d d6 81 3e fd 6d 67 3f
       -0.29120108 0.7958765 0.25358763 0.90402204
0000f0 37 18 d5 3d 4f 6a 10 bf 34 51 13 bf 03 ae 88 bd
       0.10405009 -0.56412214 -0.5754578 -0.06673815
000100 c7 0c 37 be 35 00 76 be 45 01 9c 3c 38 35 a9 3e
       -0.17875968 -0.24023516 0.019043574 0.33048415
000110 42 a0 ee 3e cb c0 5b be d0 38 c4 3e a4 49 15 bf
       0.46606642 -0.21460263 0.38324594 -0.5831549
000120 da ac 68 be 3a 3f 0e 3f 0f 82 03 3d 0c 7d 4c 3f
       -0.22722188 0.55565226 0.032106455 0.79878306
000130 e4 9f b4 bf ad 71 1f 3f e3 51 c7 be 2c d1 3f 3f
       -1.4111295 0.6228283 -0.38929662 0.74928546
000140 38 bf 4c bc d3 da 15 bf 18 05 5b 3f 13 47 0c 3f
       -0.012496762 -0.58537024 0.8555465 0.5479595
000150 c8 1a 83 bf aa 7b 85 3f 2e 77 29 3e 1d 8a 93 be
       -1.0242548 1.0428364 0.1654937 -0.2881631
000160 aa 60 0d bf 14 07 81 bd a3 20 65 3e 49 d0 ba bd
       -0.5522562 -0.06300178 0.22375731 -0.091217585
000170 40 05 98 3e 76 f3 d9 bd a3 b4 d4 bf 3e d8 eb bc
       0.29691505 -0.106421396 -1.6617626 -0.028789636
000180 32 27 b4 3e 42 74 05 3e 04 02 2f 3e 5b 94 5a 3f
       0.35186154 0.1303263 0.17090613 0.8538262
000190 f5 67 e6 be a6 3d 51 3f a6 84 ea be eb ce 3f be
       -0.45001188 0.81734693 -0.45804328 -0.18731277
0001a0 1e ab d2 be a7 4a 50 3f 5c 80 e5 be 83 4a 51 3f
       -0.41146177 0.8136391 -0.44824493 0.8175432
0001b0 8b 61 1c bf e2 c8 1c 3f 29 87 e5 3e e5 4d 53 be
       -0.6108634 0.6124402 0.44829682 -0.20635183
0001c0 a2 f5 3c be d7 d8 06 bf 65 9d c8 bd 5b 73 19 3f
       -0.18453076 -0.5267462 -0.097956456 0.59941643
0001d0 1b 8c 1a 3f 95 e1 64 3f 6b 0d 02 3e fc e1 19 3e
       0.60370034 0.8940671 0.12700431 0.15027612
0001e0 19 29 58 3f b1 07 75 bf 4c 74 0d bf 76 12 de be
       0.8443771 -0.9571486 -0.5525558 -0.4337346
0001f0 2b 8f 61 3d 50 15 4f be bf e5 65 3e 9f 54 47 3f
       0.055068176 -0.20222974 0.22450922 0.77863497
000200 05 6d 49 bf a9 77 02 3f 30 5d c1 3f 96 04 8b bf
       -0.78681976 0.50963837 1.5106564 -1.0860775
000210 0b 45 3b bf 6c 6b aa bf 6b f0 4e 3f 71 cd 09 bf
       -0.73152226 -1.3314033 0.808356 -0.53829104
000220 e8 f8 b4 3c 6b 85 f8 bd 52 9d 1d 3c 5d b9 43 3f
       0.022091344 -0.121348225 0.009620028 0.76454717
000230 c5 37 3b 3e c0 a7 65 be ea 38 9b 3c bc b2 91 be
       0.18282993 -0.22427273 0.018948037 -0.28456676
000240 6c 0b 79 bf 63 b0 b7 3f 90 f4 bb 3e cf a4 11 3f
       -0.97283053 1.4350704 0.36710024 0.568921
000250 88 4b 10 be de 0c 95 be 84 23 eb 3e 0b 36 a4 bf
       -0.14091313 -0.2911138 0.45925534 -1.2828993
000260 62 53 b7 be b6 05 e3 3e 11 6b d6 3d 46 2a e6 bd
       -0.35805804 0.44340295 0.1046964 -0.11238532
000270 c6 a3 31 3f 81 bc 01 3e 31 2a 93 bf 7d 82 ae 3e
       0.69390523 0.12669565 -1.1497251 0.3408393
000280 8e c9 41 be b0 5a 87 bd 10 68 e5 3d 3c bb 90 3d
       -0.18924543 -0.06609094 0.11201489 0.07066962
000290 53 be b4 3e a8 cb aa bd 25 a1 b6 bf 7c ab 22 3e
       0.35301456 -0.083396256 -1.4267927 0.15885729
0002a0 b2 0e cc 3e db e6 aa bd cb a8 d9 3e 5e ee 4d 3d
       0.39854962 -0.083448134 0.4251159 0.050276153
0002b0 79 e0 1c bd 40 65 0a 3e c6 f7 1d 3e bd 5d 17 c0
       -0.03830001 0.13515186 0.1542655 -2.3650963
0002c0 d0 83 e9 bd 3b be 47 3d 95 0b 87 3d 09 61 bb 3d
       -0.11402094 0.048765402 0.06594006 0.09149367

head_conv.1.depth_wise_2.bias f4 [20]
000000 d2 c0 a8 3c 65 78 fd bd 1c 3d a6 3c ce dc f3 bb
       0.020599756 -0.12376479 0.020292811 -0.0074420935
000010 5f 6e db 3c 6a 5a ed bd 16 10 3d 3c eb f7 e7 bc
       0.026786027 -0.11589511 0.01153948 -0.028316459
000020 aa 1a 8e 3d ed 6b 8c 3c d1 9e 01 3e b7 9c b2 bd
       0.069386795 0.017141307 0.1265824 -0.08721297
000030 e8 58 a5 bc 2a cf d0 3c be 82 4e 3c f4 cb f5 3c
       -0.020183995 0.025489409 0.012604414 0.030004479
000040 c0 29 14 bc 92 9f c2 bc 4d 7d b0 3d f0 e0 14 3e
       -0.009043157 -0.02375773 0.08617649 0.14538932

head_conv.2.point_wise_1.weight f4 [32, 20, 1, 1]
000000 b4 9e 44 3f 64 f7 0c 3e 06 6e 49 be e8 3a 75 bf
       0.7680466 0.13766247 -0.19670877 -0.9579301
000010 71 b4 21 bf e5 45 37 bf 44 63 db be de 2e 15 be
       -0.63165957 -0.71591026 -0.4284917 -0.1456866
000020 bb 85 06 3c 10 d5 96 bf 95 b4 27 bd d1 56 07 40
       0.008210595 -1.1783772 -0.0409437 2.1146739
000030 92 eb 06 3f 73 d9 e5 3f 4d 89 11 bf d5 97 9b bf
       0.527032 1.7956985 -0.5685013 -1.215571
000040 3e 54 40 3f fc 01 c3 bf 32 fe 8f 3e 64 a9 ae be
       0.75128543 -1.523498 0.28123623 -0.3411361
000050 69 6b 0d 3f 86 28 9d 3f 78 8d b3 bc 3d 42 4a 3e
       0.5524202 1.2277992 -0.021918043 0.1975183
000060 29 88 12 bf e9 fa 45 3f 87 3b 87 bd 70 8a 5c bd
       -0.57239014 0.77335984 -0.06603151 -0.05384296
000070 73 63 86 be 98 3d a0 bd dc b3 ec be 6e 8a 97 3d
       -0.2624775 -0.07824248 -0.46230972 0.0739945
000080 16 67 69 be be 74 f0 bc e3 25 68 bf e0 65 d8 3d
       -0.2279323 -0.029352542 -0.9068281 0.10566306
000090 5a c1 4e bd 2d 7d 68 3e 9d 4c 0b 3f 14 0c aa 3d
       -0.050477363 0.22704001 0.5441378 0.08303085
0000a0 a3 96 c7 3c 48 8a 49 c0 b9 8a 4f 3f 7c 65 7a 3e
       0.024363821 -3.149065 0.8107105 0.24452776
0000b0 53 88 e7 bc d5 e7 41 3f 36 90 ac 3e 50 26 09 bf
       -0.028263247 0.7574437 0.33703774 -0.53574085
0000c0 67 ac a1 be fb 60 03 3d f9 22 01 bf 6f a3 17 3e
       -0.31576845 0.03207491 -0.5044399 0.14808439
0000d0 6a e6 16 3e 76 81 3c be 95 21 0b bf 75 c4 94 3e
       0.14736333 -0.1840876 -0.5434812 0.29056135
0000e0 67 fa ed bd aa 9e a5 3e 82 76 3b 3f dc a0 a6 bd
       -0.11620026 0.32347614 0.73227704 -0.0813615
0000f0 5c 01 44 be fb 75 a9 3e 98 a7 a0 3f 48 ce 27 3d
       -0.19141144 0.33097824 1.2551146 0.04096821
000100 62 ce 0e 3e bf b3 8d 3e d1 59 53 bd cb 8f 3d bf
       0.13945916 0.27676198 -0.051599327 -0.74047536
000110 52 58 2b 3d 41 e7 a1 3e db 3e be 3e 9a 4c ae bd
       0.041832276 0.31621745 0.3715733 -0.08510704
000120 c3 48 0a be 5b b6 13 3e 1d be b4 3e 23 e9 2a be
       -0.13504319 0.14425032 0.35301295 -0.16690497
000130 a4 30 2f bd df e0 03 bd 9f 10 11 bf 0d c1 e6 3e
       -0.042770997 -0.032196876 -0.56665987 0.4506916
000140 2e 33 1d bf 78 c9 d7 3d cb 09 09 3e d8 52 bc bd
       -0.6140622 0.10536474 0.13382642 -0.09195489
000150 2c 38 8e 3d cc 81 85 be cb 1e 4d 3e 7b 2d 95 3c
       0.06944308 -0.2607559 0.20031278 0.018210163
000160 37 77 53 be a4 04 9f 3e 38 d7 12 bf 45 45 83 3f
       -0.20650946 0.31058228 -0.5735965 1.0255514
000170 11 95 16 3e 21 26 ad 3d 28 51 74 3e 12 53 a6 3e
       0.14705302 0.08454538 0.23859084 0.32485253
000180 a1 6f cd 3d 16 bb 8c 3f bb 06 59 3e 30 d6 b5 be
       0.10031057 1.0994594 0.21193974 -0.35514975
000190 bb d2 d3 3d c1 5a 21 be 72 03 30 3e e8 60 a5 bd
       0.10342928 -0.15757276 0.17188814 -0.08075124
0001a0 3b 5f 61 be 1b 99 9d 3e 26 be 91 bf 27 51 23 bf
       -0.22008984 0.30780873 -1.1386154 -0.63795704
0001b0 c1 7c 37 bc da 87 1b 3f 01 ab 45 be 1d da 1d 3e
       -0.011199177 0.6075417 -0.19303514 0.15415235
0001c0 e1 97 73 be bf cf 9f bf e3 01 61 3e 21 93 c3 3f
       -0.23788406 -1.2485274 0.21973376 1.5279275
0001d0 d9 c9 4a bf 0f c0 85 bf 66 15 17 be e7 d9 b9 3c
       -0.79214245 -1.0449237 -0.14754257 0.022686912
0001e0 dc 7d 83 be 5a d3 7b 3e 72 cd a6 bd 5d d0 41 3f
       -0.2568196 0.24592343 -0.08144654 0.7570856
0001f0 dd 8d 49 3d 55 b4 95 bc 40 86 22 3e 5c 3d c3 3d
       0.049207557 -0.018274466 0.15871525 0.09533188
000200 e8 fa f7 3d 52 03 02 3e 9f c5 17 3d c5 3f 4f bd
       0.121084034 0.12696579 0.0370537 -0.050597925
000210 ca c2 94 bd 1f cd 58 3e c7 58 3f be e0 a9 17 3e
       -0.072637156 0.21171997 -0.1868621 0.14810896
000220 47 59 b8 be 00 6f 16 3e d7 bf 58 be 2f bf 99 bd
       -0.36005613 0.1469078 -0.21166931 -0.075071685
000230 02 3a 09 3e 71 03 e9 be 6a a7 3c be 09 56 a8 3d
       0.13401034 -0.45510438 -0.18423238 0.08219535
000240 40 86 bf bd ae 07 0a be 55 21 bb bd 1c 8a 7e be
       -0.09351778 -0.13479492 -0.09137217 -0.24857372
000250 7d ee 91 3e 2c ae 23 be 7e 11 e1 3c 93 eb 03 3d
       0.28502265 -0.1598441 0.027474161 0.032207083
000260 87 96 ad be 88 e6 d0 be 00 b6 16 3e 1a f7 b5 bd
       -0.33903906 -0.4080088 0.14717865 -0.088850215
000270 89 7d db bd c1 6c 30 be f1 ab 8c 3e b8 d0 b5 3c
       -0.10717303 -0.17228986 0.2747493 0.022194251
000280 49 87 81 3c 0b 75 e5 3c e4 4f e0 bb 5c 37 06 3e
       0.01581158 0.028009912 -0.006845461 0.13107055
000290 b6 92 0c 3d 4f 47 91 3e 7d 60 3a 3e fd 8a 9a bd
       0.034319602 0.28374717 0.1820087 -0.07546041
0002a0 36 02 0e 3f ac 36 a5 3d a0 2b 2c 3f 25 46 4e be
       0.55472124 0.080670685 0.67254066 -0.20143946
0002b0 ea bc 4c 3e 4a cf 36 3d d0 a8 69 3e fa 0e f3 bc
       0.1999394 0.04463128 0.22818303 -0.029670227
0002c0 99 e7 57 bd 8b 4b 8e bd b0 e6 92 bd 7b a8 0e 3e
       -0.052711103 -0.069480024 -0.071729064 0.13931458
0002d0 1f aa 3e 3f 1e 70 cc be ad 1d 25 be 23 9e c5 be
       0.74478334 -0.3992929 -0.16124602 -0.3859721
0002e0 b0 33 f4 be f4 4e 84 bf b8 30 f8 3c 87 b2 91 be
       -0.47695684 -1.0336595 0.030296668 -0.28456518
0002f0 2b 48 3c 3f be f2 e8 3e f1 13 75 bd d2 29 3b c0
       0.7354762 0.45497698 -0.05983347 -2.9244275
000300 b6 c5 f2 bd 66 c3 96 3f c6 13 41 bf 4a c2 bf 3e
       -0.118541166 1.1778381 -0.75420797 0.37452918
000310 c2 49 cb be 12 7b c7 3e 11 51 a1 3e c6 8c 0a 3f
       -0.3970471 0.38961083 0.3150716 0.54121053
000320 15 ce 2e 3f e7 c9 95 3e 60 79 20 be 83 b4 aa be
       0.68283206 0.29255602 -0.15671301 -0.33340845
000330 b4 38 b6 bf 5d 4e da 3e 7e e2 dc 3d 84 2f 01 bf
       -1.4236054 0.4263791 0.107853875 -0.5046313
000340 45 21 86 3e be 4a 05 bf cd 08 2d 3c a4 77 47 3f
       0.26197258 -0.5206717 0.01056118 0.7791693
000350 c2 da 53 3e 09 b8 87 3e 87 a6 cd 3e ec 5f 25 3d
       0.20688918 0.26507595 0.40166113 0.04037468
000360 cc d3 04 40 34 8e 99 3c eb dc 0e 3f ac 04 91 be
       2.075427 0.018744566 0.55805844 -0.28323877
000370 97 62 57 bf ab a8 f4 3e 24 27 81 3e 4e 79 1e 3f
       -0.8413481 0.47784933 0.25225174 0.61903846
000380 7d c5 c1 be 77 a1 47 bf 1b a5 9e bf cd e5 99 3e
       -0.37845984 -0.7798075 -1.2394136 0.30058137
000390 02 46 ef be e5 aa 35 bd 8c 5e 49 bd 13 27 7c bd
       -0.467331 -0.04435243 -0.049162433 -0.0615607
0003a0 e1 36 d2 bd 4e 01 0b 3f 60 12 55 be 8d 2e 34 be
       -0.102643736 0.54298866 -0.20807791 -0.17595883
0003b0 0a 7e 91 be c2 fa 51 3c 3b 38 34 3d 8e 5a 26 bd
       -0.28416473 0.012816133 0.043998938 -0.040613703
0003c0 36 1f 34 bf 8d 2f f3 3e 56 be 98 3e d7 bd e6 3e
       -0.70360124 0.47497216 0.29832715 0.4506671
0003d0 c2 11 24 3e 34 6c f1 3e f8 c4 15 bd b4 a9 06 c0
       0.16022399 0.47152865 -0.036564797 -2.1041079
0003e0 8c 42 67 3d cd 1b 73 be 9e f8 cb 3f 7d f4 ac be
       0.05645995 -0.23741074 1.5935247 -0.3378028
0003f0 2d 99 23 3b 1a 3e 35 3e cd 14 12 3f dc 92 70 bd
       0.0024963126 0.17699471 0.5706299 -0.058733806

head_conv.2.point_wise_1.bias f4 [32]
000000 6f bd ce 3d 27 bf f2 3d 2d 46 a9 bf fc 1a 20 3d
       0.10094725 0.11852866 -1.3224541 0.039088234
000010 1c b5 18 3e 50 2f 81 3e 78 49 dd bd 2c 3b 3b 3e
       0.14912838 0.2523141 -0.10805029 0.18284291
000020 f5 a5 ea bd f4 a5 00 3f ed 06 41 3e 15 12 a0 bc
       -0.11457435 0.50253224 0.18850298 -0.019539872
000030 d7 f3 96 3f ca bb 57 bf b6 22 64 be fc 66 c4 3d
       1.1793164 -0.8427092 -0.22278866 0.09589955
000040 3e df bf 3e 3f dd 2b bf f1 4d 91 3f 87 5b e1 3e
       0.37475008 -0.6713447 1.1351911 0.44015142
000050 f4 a0 2e 3f 82 c8 38 be d1 8c 4e 3f 4e 25 86 be
       0.68214345 -0.18045238 0.8068362 -0.26200336
000060 64 49 23 3c e1 ce 8e be 65 30 f4 bd 82 a8 86 be
       0.009966228 -0.2789221 -0.11923293 -0.26300436
000070 9c d4 22 bd 8b c4 67 3e bd d1 71 c0 4c 45 0f 3d
       -0.03975354 0.22633569 -3.7784264 0.034978196

head_conv.2.depth_wise_1.weight f4 [32, 1, 3, 3]
000000 58 5b b9 3e 75 3e 1f 3e b5 37 4d 3d fc 93 1b bf
       0.36202502 0.15551169 0.050101954 -0.6077268
000010 09 78 d4 3d e4 ba dc bd 8d e4 bc 3d 83 f4 d8 be
       0.103744574 -0.10777834 0.0922328 -0.42374048
000020 d9 e3 80 be e5 7c d4 3e ef 87 50 3e e2 e0 cc 3d
       -0.25173834 0.41501537 0.20364355 0.100038305
000030 ef 32 d0 3d bf 01 2a bf f1 90 b1 be 26 cf de 3e
       0.10165965 -0.66408914 -0.34680894 0.43517417
000040 b3 2a 97 3e 9c 16 34 3c 83 a1 85 be 9b 9d 3b be
       0.29524764 0.010991719 -0.26099786 -0.1832184
000050 8b d7 8d be 97 ea 84 3d 1f c1 b5 3f 8e 56 23 be
       -0.2770351 0.06490057 1.4199561 -0.15950987
000060 9c a3 20 3e 9f 5e 5b 3e f9 24 0d bd 24 25 72 3e
       0.15687412 0.21422814 -0.034459088 0.2364698
000070 32 42 85 3e 33 16 10 bd 99 d0 c3 be 3b 0e 8e bf
       0.26027066 -0.03517742 -0.38245085 -1.1098093
000080 b1 ac 8e 3e cf 35 c8 bd c4 ff 0f be 0a ed c2 3d
       0.27866128 -0.09775888 -0.1406241 0.09517868
000090 f1 86 4c 3e 22 dd f9 3c 42 be 07 3f be d5 36 bd
       0.19973351 0.030500952 0.53024685 -0.044637434
0000a0 b5 2c e3 bc fc 4d 23 3c d7 81 85 3e 9b 16 1c 3e
       -0.027731279 0.009967323 0.26075622 0.15242998
0000b0 78 a1 9f 3e 14 98 4d 3e 5b d7 a7 3d ee 15 5f bd
       0.31177878 0.20077544 0.08195373 -0.054464273
0000c0 45 60 67 3d 04 90 2e be 2d b6 9f be f6 6f 3d bf
       0.056488294 -0.17047125 -0.31193677 -0.73998964
0000d0 58 f8 6c bd e3 2c 01 3f fe 9e b6 be 32 c3 e9 bd
       -0.057854027 0.50459117 -0.35668176 -0.11414184
0000e0 0b f5 aa 3d b2 a4 a7 bd 69 7b ee 3e 94 6d 24 be
       0.083475195 -0.0818571 0.4657853 -0.16057426
0000f0 d6 38 2c bc 06 2a ca bd ee 1c 74 3e c9 70 77 bd
       -0.010511598 -0.098712966 0.23839161 -0.060410295
000100 e7 54 fa be ef 5d bb 3d 25 e3 75 be 13 48 b4 3e
       -0.488929 0.09148776 -0.2401243 0.35211238
000110 37 d8 92 3d 44 91 b1 3c b5 8c c6 3e 51 c1 87 bd
       0.07170146 0.021675713 0.38779226 -0.06628669
000120 37 39 e6 bd 19 d4 a7 be 4e 6b df bd 2a fc a8 be
       -0.112413816 -0.32779005 -0.109091386 -0.33004886
000130 63 21 92 3f 8f 67 a6 be ce 99 65 be 3a 42 1f be
       1.1416439 -0.32500884 -0.22421953 -0.15552607
000140 b4 88 40 be 33 ac 7d bf 55 0e 24 3f b9 b9 05 3f
       -0.18802148 -0.9909088 0.6408437 0.52236515
000150 1c 4e 74 bf dd e3 73 be 1d 82 71 3f 41 43 7e 3e
       -0.95431685 -0.23817392 0.9433916 0.24830343
000160 70 cf 9d be 49 69 05 be eb 7a 9e be f6 87 2a bf
       -0.30822325 -0.13028444 -0.30953154 -0.6661371
000170 69 66 30 bf 27 b4 cc bd 25 80 e7 be d0 7d b4 be
       -0.68906265 -0.09995299 -0.45214954 -0.35252237
000180 f8 c1 d2 3e c8 6c 80 3f 0b dd 40 3f 99 be e4 3e
       0.4116361 1.0033197 0.75337285 0.44676664
000190 5f b5 08 bd 1f 0a 4a bd 72 21 5e bc 54 fd b1 be
       -0.033376094 -0.04932606 -0.013557779 -0.34763587
0001a0 0e 5f e1 bd 52 f4 fb 3e c1 4e 01 be c8 50 e8 be
       -0.11004458 0.4920984 -0.12627698 -0.4537413
0001b0 3b ff aa 3f 3e 26 6f bf 5c f3 f3 3d c2 3e 33 bf
       1.335914 -0.9341773 0.119116515 -0.70017636
0001c0 80 df e2 be 47 ea 31 bf 05 ee 41 3f 6d 64 ed be
       -0.44311142 -0.69498104 0.75753814 -0.4636568
0001d0 f2 09 8b 3f 33 07 bc 3e de 8d 86 3e f9 36 a9 3d
       1.086241 0.36724243 0.2628011 0.08262438
0001e0 79 32 f0 3e 6c df 46 3f ef 90 88 bd 52 c1 b4 bd
       0.46913508 0.77684665 -0.06668269 -0.088259354
0001f0 c5 36 f0 bd 4b 6c 07 bd 0c 12 6d 3d 5b 77 98 bd
       -0.117291965 -0.03306226 0.05787854 -0.0744464
000200 ab 8b 04 be a1 a8 f8 3d 1a 4c 01 3d a5 e3 92 3d
       -0.12943904 0.121415384 0.031566717 0.07172326
000210 5d af f6 bc 46 58 6b 3d c1 31 80 3c 07 55 6e be
       -0.030112917 0.05745723 0.015648725 -0.23274623
000220 11 96 da bd 24 1b 21 bd b3 b0 3b 3a 4d d2 83 3f
       -0.10673154 -0.039332524 0.0007159814 1.0298554
000230 ab 02 2f be 60 09 a4 be 7d ca 8f bc 4d 46 09 be
       -0.17090861 -0.32038403 -0.017552609 -0.13405724
000240 de d9 47 3e b2 3a 14 3d c1 24 10 3e 79 8d 78 bd
       0.19516703 0.03618879 0.1407652 -0.060681794
000250 d2 72 59 3f 1c be 37 bc ae 01 8f 3d b2 0c 53 3b
       0.84940827 -0.011214759 0.06982742 0.0032203612
000260 0c 7e 48 3e 87 a0 fc bd 6a 8e b1 be 43 e1 24 3d
       0.19579333 -0.12335306 -0.34678966 0.04025389
000270 22 cf 17 bd 21 96 08 40 35 25 8e be 8b ee 5b bd
       -0.03706277 2.1341631 -0.27762762 -0.05369429
000280 68 ca 7c be 7e 98 71 3d bb 04 c3 c0 ed 37 b3 3d
       -0.24686587 0.05898332 -6.0943274 0.08750901
000290 dc 43 d9 3e e8 5f ac c0 64 f0 d2 3e 27 4a 5a 3e
       0.42434585 -5.3867073 0.41199028 0.2131735
0002a0 8c 69 82 c0 4a 52 c5 bd 40 ae 02 3f 3a 9e 1b bd
       -4.075384 -0.09634836 0.51047134 -0.037992693
0002b0 ae 31 07 be 8d cd 6b be 3b 08 d2 3e 4e 58 f7 be
       -0.13202545 -0.2302763 0.41021904 -0.4830956
0002c0 33 27 8f 3e 95 31 b5 be e0 bb 06 3e 04 9d c4 c0
       0.27959594 -0.3538939 0.13157606 -6.144167
0002d0 05 85 35 3f 45 9c 90 3e 71 2b 21 be fc 35 01 bf
       0.70906097 0.28244224 -0.15739228 -0.50473
0002e0 2a 60 52 be 03 2a 89 3e 02 63 23 be b8 44 cd bd
       -0.20544496 0.26789865 -0.15955737 -0.10022873
0002f0 62 ae a7 be 5e 3a 1c bf 69 17 56 be c5 d1 f7 bd
       -0.3275023 -0.6102656 -0.20907368 -0.12100557
000300 18 04 ce bc 3f 29 30 3e ec 18 ca bd 37 a4 a8 be
       -0.025148436 0.17203234 -0.09868035 -0.32937786
000310 d1 37 75 3c dc 2b a6 bc e4 24 c3 bd 23 bf 50 3e
       0.014966921 -0.020284586 -0.09528521 0.20385413
000320 4e 29 da bd 8a 8d 95 3e 54 94 9d bf b9 0e 2d 3d
       -0.106524095 0.29209548 -1.2310891 0.04225037
000330 82 61 60 bd f4 2e e5 3d 6a 6f 04 bc b2 af a7 3d
       -0.05478049 0.11190596 -0.008083204 0.08187808
000340 7b 77 ff bc 97 42 f1 3d fe 1e 83 3d a8 39 44 3e
       -0.031184902 0.11780279 0.06402396 0.19162619
000350 9c af 5c bd af 7b 76 3d 31 d6 65 3c 60 dd 7e bd
       -0.05387841 0.060176548 0.014028118 -0.06222284
000360 98 f7 8b 3c 2c b7 4f bc d4 fe ac be e5 f9 06 3e
       0.017085835 -0.012677949 -0.33788168 0.13181265
000370 dc 99 4d be 98 50 aa bc 97 76 d3 3d f8 60 45 bd
       -0.20078224 -0.020790383 0.103253536 -0.04818818
000380 d3 73 0e be e2 26 e2 3d 8d df d0 3c bd 81 e7 3d
       -0.13911371 0.110425726 0.025497222 0.113040425
000390 68 49 16 3d 5c 39 f2 3c 38 bd 84 bd fd c4 a1 bc
       0.0366911 0.029568367 -0.06481403 -0.019747252
0003a0 96 3a 1d bd 9f a9 00 3d bc a7 ac bb a1 12 af 3e
       -0.03838595 0.031411763 -0.005269019 0.341939
0003b0 e3 b9 89 3d 3c 04 aa bd 44 a9 7a be 0d 3f 63 be
       0.06724908 -0.08301589 -0.24478632 -0.2219202
0003c0 d7 84 d8 3e 23 91 b9 bd 71 8d 67 3e c4 f8 9a bf
       0.4228885 -0.09060886 0.2261255 -1.2107167
0003d0 c9 c3 8b bf 2c 09 27 3f d8 0c 48 3f 64 74 8e be
       -1.0919124 0.6524837 0.781446 -0.27823174
0003e0 80 56 37 3e d9 a7 ee 3e af 19 2d 3f 68 85 a8 3e
       0.17904091 0.46612433 0.67617315 0.3291428
0003f0 4b 41 23 3e ed c8 a4 bd d6 96 5b 3e 06 78 11 be
       0.15942876 -0.08046136 0.21444258 -0.14205942

head_conv.2.depth_wise_1.bias f4 [32]
000000 75 2a 62 3d 71 7c 51 3e f5 54 e8 b9 1f fc 98 3e
       0.05521627 0.20457627 -0.00044313786 0.29879853
000010 51 25 0d 3f a3 a0 86 3c f2 fe 48 3e 4f c2 a9 3e
       0.55135065 0.01643402 0.19628504 0.33156058
000020 e6 56 33 3f 0c b6 17 3d e4 a9 37 bc ec 61 c5 3d
       0.7005447 0.037038848 -0.011209939 0.09637818
000030 3a 6f 84 3e 4a de d0 3b 98 0f 8b be ce da 24 3f
       0.2586611 0.006374155 -0.27160335 0.6439637
000040 f7 92 af 3d ed 93 dd bd d9 c9 ed 3e b0 4a b5 3e
       0.08572953 -0.1081923 0.4644306 0.35408545
000050 a3 cc b5 bd 19 3d 18 3f 6b 1e 12 3e 0e 25 0f bf
       -0.08876922 0.5946823 0.14269416 -0.55915916
000060 76 79 08 3f 3f 80 03 bf a2 13 4a bd fc 2a 65 3d
       0.53310335 -0.51367563 -0.04933513 0.055949196
000070 14 e3 47 3f d7 62 fa bc 8e ab 17 c0 3e 41 96 3c
       0.7808087 -0.030564709 -2.3698459 0.018341657
