codes/Weights/wv3/weight-680.pth (torch, 92405 bytes, 80 tensors)

head_conv.0.point_wise_1.weight f4 [9, 9, 1, 1]
00000000: d0ed c33e 5923 43bf f563 693f dd9f e7be
00000010: c733 2abd 01b1 6dbf f307 e73c 8ca0 33bf
00000020: e8a1 8c3e 6c37 da3a 1f24 d5bd 4c8f a0be
00000030: d091 673e aa32 08bf becd db3f cad9 1dc0
00000040: fa33 90bf 0f93 0c40 ac0f d13d b4be 0ac0
00000050: bff9 08c0 f98e e23f 0b94 86bf 13a3 bbbe
00000060: 52d7 a4bc 4685 f33e 5b5d adbe b8c4 70bb
00000070: cb78 babf 52c0 93bf 6252 a8be 57d5 f8be
00000080: 5b7d 9ebf 4ad3 52bf 4361 2f40 9414 da3f
00000090: f33a 28bf cecc c5bf 99f6 973f e87c 2d3f
000000a0: 7276 b1bf 36b0 0bc0 d9c9 c83f bea7 25bf
000000b0: 6885 06be 1eaa 13c0 fdc9 223f 4ba9 babe
000000c0: 8bc3 d6be 1e1c d83f 0ef0 113e 4313 163e
000000d0: cad0 eb3e d394 2d3f e23e 583d ac52 efbf
000000e0: 4e9d dabf 0548 9abf 580e 133f 86a0 633f
000000f0: a131 1f40 8f35 afbf 3b09 8b3e b508 823c
00000100: c390 3fbf f792 a0be 3134 ab3f f951 b13e
00000110: 3f33 c5be c4b2 08c0 084f c2bf 1296 8140
00000120: 2f21 3dbd 9dfb e33e 189d 89bf 9759 5ebd
00000130: 7ad4 2740 c6c4 24c0 6256 05be a08e 73bf
00000140: 8abc c83f
0.38267374 -0.7622581 0.9116815 -0.45239154 -0.041553285 -0.9284821 0.028202033 -0.7016685
0.27467275 0.0016648597 -0.1040728 -0.31359327 0.22614217 -0.5320231 1.7172163 -2.4664178
-1.1265862 2.1964757 0.10208067 -2.1678896 -2.1402433 1.7699882 -1.0513929 -0.36647853
-0.020122204 0.47562617 -0.33860287 -0.0036738347 -1.4568113 -1.1543067 -0.32875353 -0.48600265
-1.2382005 -0.8235365 2.7403114 1.703753 -0.6571495 -1.5453126 1.1872131 0.67768717
-1.3864272 -2.18263 1.5686599 -0.6470908 -0.13136828 -2.3072581 0.6358946 -0.36457285
-0.41946062 1.6883581 0.1425173 0.14655785 0.4605773 0.6780521 0.052794345 -1.8697104
-1.7079256 -1.2053229 0.5744376 0.88916814 2.487404 -1.368822 0.2715548 0.015873292
-0.74830264 -0.31362125 1.3375303 0.34632853 -0.3851566 -2.135911 -1.5180368 4.049569
-0.046174224 0.44527903 -1.0751066 -0.05428466 2.6223435 -2.57451 -0.13021234 -0.95139503
1.5682538

head_conv.0.point_wise_1.bias f4 [9]
00000000: 3c26 283e 1c7e 193e 4ed9 9f3e e3c1 033d
00000010: b5e1 773e 7981 623c 68e5 d73e fb60 22bd
00000020: 21cf 493d
0.16420835 0.14989513 0.31220478 0.032167327 0.24207194 0.013824814 0.4216721 -0.03964327
0.0492698

head_conv.0.depth_wise_1.weight f4 [9, 1, 3, 3]
00000000: d77b e33e d143 323e c36d 653e 9eb4 d4bc
00000010: e888 acbf cbea 163e 77c5 0abd 2f62 d4bc
00000020: 89ac 6f3e 7e21 5d3e 9fe1 33bf 75e9 d43e
00000030: 349c 36bf c51c debf b510 a3bd 0169 d23d
00000040: 3781 c7be 5c81 5b3e 3b1b 4f3e 997e 193f
00000050: 6919 99bd daa8 5a3f e021 fb3e 120d 2f3f
00000060: c0c9 58bd 79d8 0c3f 5952 0bbf 65d8 213f
00000070: 36a7 8cbf c26b 8bbe 025a a7bf ef3e 1040
00000080: bc22 253f 84ae d6be 4933 233f 2e12 fcbd
00000090: e0c5 32bd 0d2b af3d dc28 1bbe 4042 7d3d
000000a0: fe5b 0f40 e4c1 b33d f2fb 8dbd 6049 4d3e
000000b0: 6d57 c1bd 4ef2 5bbe 8985 09bf b61f 7bbe
000000c0: 2d4d f4be bfe6 aa3d 3053 08bf fabd 7abe
000000d0: cbdd ecbe 6879 90be df25 7f3d 1aba 88bf
000000e0: a3f1 2d3f 363c 213f 3891 4540 d35b 87bf
000000f0: a994 a8be cbec 103e 76f5 c93e c6b9 e83d
00000100: 5deb 0bbd a936 e73e fc80 3dbf e088 25c0
00000110: e2f1 d63f 328a 6b3e 7ce8 d53e 60f6 f93e
00000120: 90b8 15bf 16e9 b13d a1d1 9dbe 7e79 bcbe
00000130: d9ef 1cbf d1b7 d2be d160 0e3e 7d3e ccbe
00000140: 2802 383e
0.4443042 0.17408682 0.22405152 -0.025965031 -1.347928 0.14738004 -0.033879723 -0.025925724
0.2340566 0.21594808 -0.70266145 0.41584364 -0.713321 -1.735253 -0.07962171 0.10273934
-0.3896577 0.21436065 0.20225231 0.599588 -0.0747555 0.854139 0.49049282 0.6837932
-0.05292678 0.5501781 -0.5442253 0.63220817 -1.0988529 -0.2723065 -1.3074343 2.2538412
0.64506125 -0.4193002 0.6375013 -0.12308155 -0.04364574 0.08553133 -0.15152305 0.06183076
2.2399898 0.08777216 -0.069328204 0.20047522 -0.09440503 -0.2147915 -0.53719383 -0.24523816
-0.4771513 0.083447926 -0.53251934 -0.24486533 -0.46262965 -0.28217626 0.062291976 -1.0681794
0.67946833 0.629825 3.0869884 -1.0574898 -0.3292592 0.1415283 0.39445084 0.113635585
-0.034160007 0.4515889 -0.7402494 -2.5864792 1.6792567 0.23001936 0.41778934 0.48820782
-0.58484745 0.08687036 -0.30823997 -0.3681144 -0.6130348 -0.41155866 0.1390412 -0.39891425
0.17969573

head_conv.0.depth_wise_1.bias f4 [9]
00000000: 1223 383e b4da d6bc 6b35 18bd 00e9 87bd
00000010: 2688 c63d 9813 ddbc 15c7 713c 55b1 c439
00000020: 5650 0b3d
0.17982128 -0.026227333 -0.03716032 -0.06636238 0.09693937 -0.026986882 0.0147569375 0.00037516156
0.03401216

head_conv.0.point_wise_2.weight f4 [9, 9, 1, 1]
00000000: 9e37 d9bf ba52 3e3d 5443 f33d effa 813e
00000010: 3ce5 043f b176 ad3f 1520 22be b1a5 c33e
00000020: 1b9c 12bf 7231 5dbc 30b9 4ebf 4357 5bbf
00000030: f906 7e3e fdb0 d4be e705 de3f 53a1 dcbf
00000040: 9422 88bf cd1e 2440 6bcc 41bd 3289 3040
00000050: 6457 8b3f 2926 2fc0 85cc 153f b464 b43e
00000060: 593b b1bd e835 893e 3580 a8be 62c8 d43c
00000070: bf45 e9be 59b3 1d3f fd95 653f d7d5 e2bd
00000080: 90f9 d6bf 2ab6 3e3f 0388 6d3f 5aeb f6bf
00000090: 01cd 803c 7bae 92be 83b7 863f 0f7f c23e
000000a0: 9b76 53be e90d abbf 5f4a eb3f 5376 53bf
000000b0: 27d3 20bf 0bb5 87be 4980 d6bd 7236 6e3f
000000c0: 9b08 9e3e 984a 5fbe b2c4 3c3f 4a59 66bf
000000d0: 578c c33f 2bb0 f1bf 530e 2ebd 6bff d5bf
000000e0: 35b3 64bf 66e2 abbf 4f70 413e ec5e 1f40
000000f0: f386 8b3f 990f c6be 5339 d2be abcd b63d
00000100: 9685 1c40 5d2b d9bf 00b0 bdbe 9efa db3f
00000110: e185 b0be c6a7 ecbf 3d7e 9d3f d686 95bf
00000120: 2355 56bc 39a6 803f 565d 10bf 0aa5 983e
00000130: ad58 5140 f685 3cc0 245d 913e ab4d 92bf
00000140: 01fc d03f
-1.6970098 0.046465613 0.11878076 0.2538676 0.51912284 1.3551847 -0.15832551 0.3821235
-0.5726945 -0.013500558 -0.80751324 -0.85680026 0.24807347 -0.4154128 1.7345551 -1.7236732
-1.0635552 2.56438 -0.04731409 2.7583737 1.0886045 -2.736704 0.585152 0.3523308
-0.08653898 0.2679894 -0.32910314 0.025974456 -0.45561025 0.6160179 0.8968199 -0.11075943
-1.679491 0.7449671 0.9278566 -1.9290574 0.015722753 -0.28648743 1.0524753 0.37987563
-0.20650713 -1.336362 1.8382071 -0.82602423 -0.6282219 -0.26505312 -0.10473687 0.93051827
0.3086594 -0.21805799 0.73737633 -0.89979994 1.5277203 -1.8881887 -0.04249413 -1.6718572
-0.8933595 -1.3428466 0.18890499 2.4901686 1.0900558 -0.38683775 -0.4105936 0.08925947
2.4456534 -1.6966358 -0.3704834 1.7185857 -0.34477141 -1.84887 1.230415 -1.1681774
-0.013081822 1.0050727 -0.5639242 0.29813415 3.2710373 -2.9456763 0.28391373 -1.1429952
1.6326905

head_conv.0.point_wise_2.bias f4 [9]
00000000: 690f a4bd 49db f13d ec5f e4bd 8285 59bd
00000010: a330 a1bc 3ed2 d8bd 145e 873e c52f 473c
00000020: e90c 0dbe
-0.08010752 0.118094034 -0.11151108 -0.05310584 -0.019676512 -0.105869755 0.26438963 0.012157385
-0.13774456

head_conv.0.depth_wise_2.weight f4 [9, 1, 3, 3]
00000000: 10dd 923e eb21 863e 6554 1d3e bb03 313e
00000010: ea8c 0c40 076c 323e 7c5b c73d bb28 113e
00000020: eed7 ff3d ade6 223f 90a7 45bf 5541 363f
00000030: 14c5 46bf 16f7 3bc0 0a02 663f e978 063f
00000040: ce82 84bf d105 9a3e 7341 683e 06ad 68bf
00000050: d868 073f 9559 52bf 8535 d0bd 2965 8bbf
00000060: d1e1 b3bd 69fb a1bf 151a 363e eeb2 01bf
00000070: 479c e9bd 43ff 4e3f 0a70 f13e 617f 37bf
00000080: 50b9 393e 9de2 a33e e0ab e6bd 9687 7cbe
00000090: 0416 653e be3d 08be c183 b53e f549 49be
000000a0: 2cd7 bbbd 0559 8fbe d719 173f 89b8 10bf
000000b0: 1a70 c03e d78d 00bf 4f2d 21be 985b 28bf
000000c0: 4342 d33e 2804 9c3f 2771 083f 43d6 95be
000000d0: c181 76be f3af 10bf 3a17 04bf 4be0 e83d
000000e0: 6f48 4fbe 1d6e 223f 3b1c 843f 1069 14bf
000000f0: 02c3 b3be 0beb 2f3f be0d f5be 8955 96bd
00000100: 7b83 243f db7f 7cba 601f 1f3f 177c 3040
00000110: b16b 1f3f 7221 d33b 51f7 bf3e a106 91be
00000120: 432d 743f d03e adbd dd09 9fbe c98d 41bf
00000130: 971d 27c0 6c4e 43be 2adf 57bd 3558 cabf
00000140: dc46 8f3e
0.28684282 0.26197752 0.15364225 0.1728658 2.1961007 0.17424022 0.09734246 0.14175694
0.12492357 0.63633233 -0.77208805 0.7119344 -0.7764447 -2.936956 0.8984686 0.52528244
-1.0352418 0.30082563 0.22681217 -0.9088901 0.52894354 -0.8216794 -0.10166458 -1.0890247
-0.087833054 -1.2654849 0.17783387 -0.5066365 -0.11406761 0.8085825 0.47155792 -0.7167874
0.18137097 0.3200883 -0.11263251 -0.24661097 0.2237168 -0.13304803 0.35452083 -0.19657119
-0.091719 -0.27997604 0.59023803 -0.5653158 0.37585527 -0.5021643 -0.1573994 -0.6576476
0.4126149 1.2188768 0.53297657 -0.2926503 -0.24072935 -0.5651848 -0.5159794 0.113709055
-0.20242475 0.6344927 1.0321115 -0.5797281 -0.35109717 0.6871802 -0.47862047 -0.07340533
0.64263123 -0.0009632089 0.6215725 2.7575738 0.622737 0.006443196 0.37493375 -0.2832537
0.95381564 -0.08459246 -0.31062213 -0.7560697 -2.611181 -0.19072884 -0.05270306 -1.5808169
0.2798375

head_conv.0.depth_wise_2.bias f4 [9]
00000000: 1223 383e b4da d6bc 6b35 18bd 00e9 87bd
00000010: 2688 c63d 9813 ddbc 15c7 713c 55b1 c439
00000020: 5650 0b3d
0.17982128 -0.026227333 -0.03716032 -0.06636238 0.09693937 -0.026986882 0.0147569375 0.00037516156
0.03401216

head_conv.1.point_wise_1.weight f4 [20, 9, 1, 1]
00000000: ef9b c53e 1e7d 48bf f75b b13f bc7c 353e
00000010: aab6 acbe e06a 2c3f 5ab8 d43d 74c5 493f
00000020: 187d 20bf 90a8 fbbd ef55 c63e 747f a23e
00000030: ecf4 c53f 9ca6 cf3e 1f3f 07bd 4638 a1bd
00000040: aef1 69be d41c 42be 8805 56be 5c9f 5c3f
00000050: 7daa a1be de01 45be 919b ec3e 4ddb 903d
00000060: a497 08c0 750a b5be a289 cebe e12c a3be
00000070: 4c22 ab3f a2ab babe d0de 89be e182 863f
00000080: 1b62 b43d 0803 903f f46d bebc cce8 443e
00000090: 30ed 26be d57c e9bc 4ed1 623e 74e0 35be
000000a0: d4b5 de3e 074d d3bc bebd f9bc d918 633e
000000b0: 87a9 0d3f 4c68 5d3e c519 26bf c0b8 14bf
000000c0: bd7e 3f3f 6cf2 15bf 8db2 88bd caab fdbe
000000d0: 2afc ad3f 810a a93d 6846 88be b651 adbf
000000e0: 1008 e73d ba7f c2bd c113 d73e 61d9 c4bd
000000f0: 47ec 77be ee0f 54bf d226 febe 7dc4 f53e
00000100: a898 d23e c619 8f3f 54b7 32bf 67c2 0bbf
00000110: 3d95 31bd 42ca 30bf 7f1d 803f acfe f3bd
00000120: 3cb7 8f3e 90c9 933d 13fd 743f 6432 c33c
00000130: 2eca 6cbf 643a b0bd b8a0 50be f5e5 e5bc
00000140: 2091 a8bd d4cc 24be 6adf bf3d 629a cfbe
00000150: 7987 3fbe eee8 f9bc 4689 90be aad7 8bbe
00000160: 1d0d f4bb 6f15 2cbd b73a 263d 2eb0 c8bc
00000170: faba b7be bf18 843e b7a2 9b3e 358a bf3d
00000180: 127e df3d ac82 383d 5f74 04bf ad28 7ebe
00000190: ae91 e6bd f92c bebe a2e5 6bbd 3c73 083e
000001a0: 7ca9 b33c 9e66 3abe b4b8 19bf ad33 00be
000001b0: b10e 9abd 7e68 e2be 13b9 083f ee5b 94be
000001c0: f412 5a3d 1eb9 893b 667b f9be ca02 21bf
000001d0: 0992 03bf 79d1 663e e3b0 143f 830f 813f
000001e0: c2d9 fcbe 482f abbe af7e 82bd d2fd 9d3e
000001f0: 0880 a23e 9020 b0bf 036c 2a3d e2e5 52be
00000200: 84f4 3dbf 2227 a2bd bec2 1dbe 34e7 d2be
00000210: 458a 9fbe 1667 af3e c1c0 debb 4858 54bd
00000220: 052f 1a3f 624d 86bf 4f3a 73bc a80e ee3d
00000230: ae93 eebc c46e b13e b62c b53e 86d8 1dc0
00000240: b37c b3bd 491e 2340 436b 82bf 6479 2bbe
00000250: 4a90 e73e de35 253a f5eb 7f3f 6268 ae3f
00000260: ac33 163f 26cb a3bd 2cb5 423e 8d55 26bd
00000270: 67ae 9fbe edd9 773e 576c 77be abbc cdbd
00000280: ec13 093f fc8f b13e a6fe 6abf a334 3abe
00000290: b04c 12be 393d dabe e4e2 07bf d189 3bbf
000002a0: e7f7 76be 2054 123f 948e 1f3d 909f c73e
000002b0: aa66 0b3c e396 313e e451 1ebd d85f 0dbe
000002c0: 1c5e 0e3f 5346 d0bd 636d c7bd 034a c4bd
0.3859553 -0.78315914 1.385619 0.17723364 -0.33733112 0.6735058 0.10386725 0.78816915
-0.6269088 -0.1228801 0.38737437 0.31737864 1.5465369 0.405568 -0.03301918 -0.078720614
-0.228461 -0.1895631 -0.20900548 0.86180663 -0.31575385 -0.19238994 0.46212438 0.07073078
-2.1342554 -0.3535954 -0.4033938 -0.31870177 1.3369842 -0.3645907 -0.26927805 1.0508691
0.08807775 1.1250925 -0.02324579 0.1922943 -0.16301417 -0.028501907 0.22150156 -0.17761403
0.434981 -0.025793565 -0.030485984 0.22177447 0.55336803 0.21621817 -0.6488307 -0.58094406
0.7480276 -0.5857303 -0.06674681 -0.49545127 1.3592579 0.082539566 -0.26616216 -1.3540561
0.11280835 -0.09497018 0.4200726 -0.09611774 -0.24211226 -0.82836807 -0.49638993 0.4800147
0.41132092 1.117974 -0.69810987 -0.5459351 -0.043355215 -0.6905862 1.0009001 -0.11913809
0.28069484 0.07216179 0.9569866 0.023827739 -0.92496 -0.08604887 -0.2037381 -0.028063754
-0.082308054 -0.1609376 0.09368785 -0.40547472 -0.18704022 -0.030506577 -0.2822973 -0.27312976
-0.0074478523 -0.04201263 0.04058334 -0.024498072 -0.3588484 0.2580013 0.3039758 0.09352533
0.10912718 0.045046493 -0.5174007 -0.24820204 -0.11258255 -0.37143686 -0.05759204 0.13325208
0.021931402 -0.18203208 -0.6004746 -0.12519713 -0.075223334 -0.44220346 0.534074 -0.28976387
0.05324073 0.004202976 -0.48726958 -0.6289488 -0.51394707 0.22540845 0.5808241 1.0082859
-0.49384886 -0.3343451 -0.06371819 0.30857712 0.31738305 -1.3759937 0.041606914 -0.20595506
-0.74201226 -0.0791762 -0.1540632 -0.4119202 -0.3116018 0.34258336 -0.0067978804 -0.051842004
0.60227996 -1.0492365 -0.014845445 0.11623889 -0.029123154 0.3465482 0.35385674 -2.4663405
-0.08764019 2.5487235 -1.0188984 -0.16745526 0.4522727 0.00063022773 0.99969417 1.3625605
0.58672595 -0.07997732 0.19014424 -0.04060893 -0.31187746 0.24204226 -0.24162422 -0.10045751
0.53546023 0.34680164 -0.9179481 -0.18184142 -0.14287066 -0.42624834 -0.5308058 -0.73257166
-0.24118005 0.57159615 0.038954332 0.38988924 0.008508364 0.17342715 -0.038652316 -0.13806093
0.5561235 -0.10169663 -0.09737661 -0.09584429

head_conv.1.point_wise_1.bias f4 [20]
00000000: 1481 c7bd a6c2 d33e ec39 fb3d d6e2 693c
00000010: abb1 cfbd 425a d73d 0093 33be 9e60 043e
00000020: 49cb d63e 4976 a6bd a6ca b5bd 0d75 f9bd
00000030: 2e7f cf3e 4baf 523e 010c 2bbe ee08 0dbe
00000040: ac45 23bc ae9d 51be b17a d2bc 7382 573d
-0.097414166 0.41359442 0.12266907 0.014275273 -0.10141309 0.10515262 -0.17536545 0.12927482
0.4195197 -0.0812803 -0.08876543 -0.12180529 0.40526718 0.20574681 -0.16703798 -0.13772938
-0.009965342 -0.20470306 -0.02569327 0.05261464

head_conv.1.depth_wise_1.weight f4 [20, 1, 3, 3]
00000000: fb79 cf3e b7b1 adbe b1bd 5d3e 92ec d5be
00000010: 57a1 d23f bbcc 23bf 3502 09be d9fd 9abe
00000020: abca 463d f192 983c 55f3 b73e 8e1e 983e
00000030: 3e1e ec3b 2e38 2e3f 787b e2bd 744c 90be
00000040: ee44 35be 7c7a b13c 013e ec3e 5770 f6be
00000050: 6c7a 69be 52e2 653f fde7 85bf 478a 44bf
00000060: cf89 1dbf a7a8 323f 0520 153f d1f3 ee3e
00000070: d341 69bf a1b6 86bc 631e 6ebe 5651 bebd
00000080: eceb 51be 6836 98be fa64 a13f ccb4 9b3e
00000090: c183 f13e 32b2 b63e 6726 71bf 5abc 293f
000000a0: c01a 5a3f 4396 78bf 490c 8fbf 4574 303e
000000b0: f3c9 ef3e 529b 7b3e b86b e7bd ff9d 7c3e
000000c0: 2ace 6bbe 90fe 7dbd 541a 3dbd 78ed ec3e
000000d0: d924 a03e 2c3b 933e 1d57 7c3f c475 f0bc
000000e0: 2f27 aebe b928 1ebe 0d97 383f 2004 09bf
000000f0: c65e 9d3d fcfc f1bd be3d f0be b505 cfba
00000100: 962c 3e3e c12d f63d a20a da3d d0e0 3d3f
00000110: 8d22 3bbc 1b39 7ebd bc24 56be 765e 50bd
00000120: b83d 5ebf 68dc 093f f9b8 4ebf 6018 d33e
00000130: 0a4e aa3f 8e96 363e 3150 19bf 1f1e ec3e
00000140: 0927 64bf 8f05 01bf 7aae 7f3e 7382 b9be
00000150: 0fcc 093e 6ad5 3f3f 985a c8bd c645 79be
00000160: 0378 a93e 8648 cbbe e416 303d 3447 f93e
00000170: d71a 23be ac7d cf3e 1bd3 de3e d6c4 1ebf
00000180: fa8c 4dbe 44f1 b9be 19f8 a73b aec0 c63e
00000190: 0a81 a63e ba7c 373e abe4 1ebf ae22 9dbe
000001a0: ed53 e2be 2c33 e63e fc0d 78be 5a65 343e
000001b0: cf4c 6fbe 670f 2b3e 97d3 a93e 8e40 80be
000001c0: 9f3b 363f 4d0e a23e 673f c23e 9e71 60bf
000001d0: 17ba 27bd d99a d5be c408 2abe 17a3 433e
000001e0: 8347 27bf 86c7 46bf af00 053f 8897 783e
000001f0: e450 0b3f d7ea ab3d 85af 4ebf d768 083e
00000200: 92b8 c1be 2681 233f 01a8 3cbe f3cc 903f
00000210: 7c1f 96be 2fc7 ec3e adb6 66bf ea0a ad3e
00000220: 9e5c 323d 978c 55be dbab 9dbe 837a 923f
00000230: 52f6 0e3f b5ca debd d95c 1abf 90c4 41be
00000240: d345 553f 0edf 9fbf f88e e93e c6ad 723e
00000250: 75da 383e d860 36be e3dc 7abf dce1 b33f
00000260: d647 4fbf c1db 7d3e ce88 2bbe 46d6 a3be
00000270: cc1b 783f d754 773e 3ca9 233f f3b0 0bbd
00000280: 51e3 08bf 0114 9fbf f15d dabe 36bd c8be
00000290: 6c3b b6be c553 b7be cf43 323f cd47 9abe
000002a0: e993 d6be 5b20 93be e05e 07bf beba 40be
000002b0: 3077 c8be 6dbd 26be 80d8 f0be 9574 e43f
000002c0: b076 99be 1c9e d9bd c68f ddbe b3eb 78bd
0.4052275 -0.33924648 0.21654393 -0.4178205 1.6455487 -0.6398427 -0.13379748 -0.30271795
0.048533123 0.018624755 0.35927835 0.2971081 0.0072057536 0.68054473 -0.11058706 -0.2818333
-0.17702076 0.02166485 0.46141055 -0.48132583 -0.22800606 0.8979846 -1.0461422 -0.76773494
-0.61538404 0.69788593 0.5825198 0.46670392 -0.91116065 -0.016444506 -0.23253779 -0.09292857
-0.20500153 -0.2972901 1.2608941 0.30411375 0.47170833 0.35682827 -0.9419922 0.66303027
0.8519707 -0.9710428 -1.1175624 0.17231853 0.46833763 0.24570969 -0.112998426 0.24669646
-0.23027864 -0.062010348 -0.046167687 0.46274924 0.31278113 0.28756082 0.98570424 -0.02935303
-0.3401427 -0.15445222 0.72105485 -0.5352192 0.07684092 -0.11815831 -0.46922106 -0.0015794548
0.18571696 0.120204456 0.10646559 0.7417116 -0.011421812 -0.06206618 -0.2091245 -0.050871335
-0.86812925 0.5385194 -0.80750996 0.41229534 1.3305066 0.1783087 -0.5988799 0.4611673
-0.8912206 -0.50399107 0.24968901 -0.36232337 0.13456748 0.7493502 -0.097829044 -0.24343023
0.33099374 -0.39703768 0.04299058 0.48687136 -0.15928207 0.40525568 0.43520436 -0.620191
-0.2007331 -0.36316884 0.005126011 0.38818878 0.32520324 0.17918673 -0.6206767 -0.3069052
-0.44204655 0.44960916 -0.24224085 0.17616788 -0.23369144 0.16705094 0.33169243 -0.2504925
0.71184725 0.31651536 0.37938997 -0.87673366 -0.040948953 -0.41719702 -0.16604906 0.19105183
-0.65343493 -0.776482 0.5195417 0.24276555 0.54420304 0.083944015 -0.8073657 0.13321243
-0.37836128 0.6386894 -0.18423463 1.1312546 -0.29320896 0.46245715 -0.9012249 0.3379739
0.043545358 -0.20854412 -0.30795178 1.1443638 0.55844605 -0.10878507 -0.60297924 -0.18922639
0.8330967 -1.2489946 0.4561689 0.23699102 0.18052085 -0.1781038 -0.97993296 1.4053302
-0.8096899 0.2479086 -0.16751406 -0.31999415 0.96917415 0.24153458 0.63930106 -0.0341043
-0.5347186 -1.242798 -0.42649797 -0.39206856 -0.3559221 -0.358061 0.6963472 -0.30132905
-0.41909721 -0.28735623 -0.5287914 -0.18821236 -0.39153433 -0.16283198 -0.47040176 1.7848078
-0.29973364 -0.1062586 -0.43273753 -0.060771655

head_conv.1.depth_wise_1.bias f4 [20]
00000000: ba8b 8f3c 641c febd 8faa 9c3c 3775 f6bb
00000010: 30d1 c13c 641e eebd 8275 343c fff7 dbbc
00000020: 9b28 8f3d 63db 863c 3aa5 fd3d 1a53 b0bd
00000030: f619 a9bc c01e e03c 9762 573c e9a0 003d
00000040: 5cd8 06bc b618 d6bc 202f a93d f380 133e
0.017522682 -0.12407759 0.019124297 -0.0075212973 0.023659319 -0.1162689 0.011014344 -0.026851652
0.06990167 0.016462034 0.1238503 -0.086096 -0.020642262 0.027358413 0.013146064 0.031403456
-0.008230295 -0.02613483 0.082609415 0.14404659

head_conv.1.point_wise_2.weight f4 [20, 9, 1, 1]
00000000: 5eb2 6dbd 3b8f ce3e dcae 12bc da11 20be
00000010: 6484 60be ad80 d4be 58c2 97be 21ed a0be
00000020: e2a6 853f 821b 203e 6277 85be 4574 3dbe
00000030: 4bfb 853e 4c02 73be 6173 023e 3a75 e9bc
00000040: 87a9 703e 0ab6 febc d8df d23e a538 aabe
00000050: b086 063f 0464 613e ad14 f9be f209 3abd
00000060: c38c 4d3f 8655 793f f425 c7be 1ec5 5d3e
00000070: 17e3 573f 3035 923e 353b f63d d4b0 95be
00000080: 3010 07be 7faf 033e 0a52 c33f d19d 113f
00000090: 7549 473e b7ac 87be f244 0bbf 88c0 d9be
000000a0: 59a6 e43d db6c 583e 6107 903e 4f8c 783e
000000b0: 4c62 cebe 49ec 21be bfdc 603f b9c4 313f
000000c0: 2464 6abe be0a 573f e9ab e93e 88d2 c43e
000000d0: 0ea1 9abf ec26 e0be 2eef 6a3e e289 93bf
000000e0: 3f63 ddbe d6b6 183f 5202 09bf e974 883e
000000f0: a117 00be d6b4 853e c414 62be 50a0 b0bd
00000100: 9010 50be e8b3 693e 5865 443c 2250 fb3d
00000110: 4c1d c0bd f4b5 84bd 4a74 18bf a799 ac3e
00000120: 0c57 d33e f7a8 dfbe 4b29 8f3f 5073 673d
00000130: 0f13 9ebd 18d5 f93d c1f4 3a3e b826 953e
00000140: c391 10be 17ee 81be 666d 27be 3084 97bd
00000150: 9b0b 083d ae84 643f 3ac3 67be e4ba ab3d
00000160: 8b16 9f3e d242 3d3e 118e 253f 53a4 0a3d
00000170: 0568 22bf 1f17 8a3c 042f 9ebf 6923 3d3c
00000180: 212d e3bd 4525 ffbd 17bf 103c 3be7 68bf
00000190: 7160 cbbd d162 873a 8a02 823e d7a3 2b3d
000001a0: 044c d53f 9302 9c3e 9dbf 753e a013 1f3d
000001b0: cae7 c2bc 1faf 06c0 54e9 12be ddb3 6d3e
000001c0: fd16 9bbd e622 7ebb c2bf 26bf e9f5 6fbe
000001d0: 8db4 21bf c4ad 623d cd7b 80bd ae6f b73f
000001e0: 5a44 80be 3249 e03e 3f49 0bbe 37f0 e6bd
000001f0: ce44 353f 8fdd f2bc 785c 7b3e 9ba4 013e
00000200: af81 8fbe d86f c53f 4593 17bf 4911 31bd
00000210: 30c9 54be 5ede 383e b9f9 a8be 7bef 86be
00000220: 168c 643e 9e50 a83d 54e1 debd ea83 573e
00000230: 73bb 95be dd29 66be ebf9 0cbe 3a9b 253e
00000240: 69ce cfbe d91a 21c0 1f30 f13e 7c46 433e
00000250: 459e 1e3f bbd2 57bd 5059 0cbf 47e6 0dc0
00000260: fb4f b0be dd80 42be bb10 a03e 5618 0dbf
00000270: b8c3 1a3d e6f1 463e 5966 cdbd 7132 383f
00000280: c776 fbba ad22 91bf 84c2 153c 7eb0 d1be
00000290: 351e ff3e 303d bbbe 79d3 00bf 72d7 5dbf
000002a0: f31d 4c3c 8ad4 ba3e 12dc 81be 93e3 17bf
000002b0: 4572 d2bc 3560 243d c7d8 35bd e6dc 2ebf
000002c0: 1b4f 8a3e 22f4 82bd 5ea5 d53c eaab f33c
-0.058031432 0.4034365 -0.008952823 -0.1563181 -0.21925503 -0.41504422 -0.2964046 -0.31430915
1.0441554 0.15635493 -0.26067644 -0.18501385 0.26168284 -0.23731345 0.12739326 -0.02849828
0.2350217 -0.031092662 0.41186404 -0.3324634 0.52549267 0.22010809 -0.48648587 -0.04541964
0.8029291 0.97396123 -0.38896143 0.21657225 0.84330887 0.28556204 0.120230116 -0.29236472
-0.13189769 0.12859915 1.5259411 0.56881434 0.19461615 -0.26498958 -0.5440208 -0.42529702
0.11164541 0.21135275 0.2813063 0.24272273 -0.4030937 -0.15812792 0.8783683 0.694408
-0.22889763 0.84000766 0.4563897 0.38441873 -1.20804 -0.43779695 0.22942802 -1.1526453
-0.4323978 0.59653986 -0.53519166 0.26651695 -0.12509014 0.2611453 -0.22078234 -0.08624327
-0.20318818 0.22822535 0.011987053 0.122711435 -0.09380588 -0.06480017 -0.59552443 0.33710977
0.4127735 -0.43683597 1.1184477 0.056506455 -0.07718479 0.121988475 0.18257429 0.29131103
-0.14118104 -0.2537696 -0.16350326 -0.0739826 0.033214193 0.89264953 -0.22633067 0.08385256
0.31071886 0.18482521 0.646699 0.033848118 -0.6343997 0.016856728 -1.2358098 0.011544087
-0.11092592 -0.124582805 0.008834622 -0.9097783 -0.09930504 0.0010329132 0.25392562 0.041904297
1.6663823 0.30470714 0.23998876 0.038837075 -0.023792166 -2.1044385 -0.1434682 0.23213144
-0.07572744 -0.0038778125 -0.6513635 -0.23433651 -0.63166124 0.055341497 -0.06273613 1.4330957
-0.25052148 0.43805844 -0.1360216 -0.11276286 0.7080811 -0.029646663 0.24546993 0.12660448
-0.28028628 1.5424757 -0.5920909 -0.043229375 -0.20779872 0.18053576 -0.33003023 -0.26354584
0.22319064 0.082185015 -0.10882822 0.21046415 -0.29244575 -0.22476907 -0.13767211 0.16172495
-0.40587166 -2.5172637 0.47107026 0.19069856 0.6196025 -0.052691203 -0.5482378 -2.21718
-0.3443602 -0.1899447 0.31262764 -0.5511526 0.03778431 0.19428214 -0.10029287 0.7195197
-0.0019185179 -1.1338707 0.009140614 -0.40954965 0.49827734 -0.3657012 -0.5032268 -0.8665687
0.012458312 0.3649028 -0.25363213 -0.59331626 -0.025689254 0.040130813 -0.044396188 -0.68305814
0.27013478 -0.06394221 0.02607983 0.029745061

head_conv.1.point_wise_2.bias f4 [20]
00000000: fa3f 31bd 1a5a f5bc 05b8 ea3d bc94 92bd
00000010: 2651 f6bd 04aa a83d e6d0 5bbd f4ca 31bd
00000020: e25b 44bd 9993 d6be ef74 d03e df31 fc3d
00000030: bfab 93be 4193 7cbe d032 753e 7c13 e4bd
00000040: e36a 32be a882 41bb 6d68 cd3d b482 eb3d
-0.043273903 -0.02995019 0.1146088 -0.07157275 -0.120271966 0.08235553 -0.053666018 -0.04340644
-0.04793919 -0.41909483 0.40714213 0.123142 -0.2884197 -0.24665548 0.23945165 -0.11136529
-0.17423587 -0.002952734 0.10029683 0.11499539

head_conv.1.depth_wise_2.weight f4 [20, 1, 3, 3]
00000000: a6d0 2b3f 2065 c3bd 40e8 8b3e 1a1c d13e
00000010: ecaa 08bf 2a97 99be 29f1 a4be cdc0 05be
00000020: f88d eb3c 7aca e33e 07a8 11bf 2fb5 a63c
00000030: 02a6 f53e f9c8 8ebe 096c e03e 4837 0fbe
00000040: 2b66 f5be 172b 0b3e 82ed 9d3e 86ea ac3d
00000050: e63f 4dbd 7af1 a0bd 275b 0a3e 4bb3 2abe
00000060: 66be 2aba 4385 24bd 83a9 833e f072 853f
00000070: 6a61 64bf dfd4 48be 4350 0f3f b2fb a7be
00000080: 638d 4bbe 89f2 6abf c027 413f 971c 98bd
00000090: 162b e03e e68a 1cbf a19c fabe 7966 02bc
000000a0: b12f bfbc 5f93 96be 1276 d53e 0b68 113f
000000b0: 804e 6f3e a208 d83e 3178 87be e1d8 253e
000000c0: 045c 0dbe 53c0 4dbf 2b7d 84be 0378 c23e
000000d0: 51bf 053e 79a9 913e 1781 e8bd a6a0 d2be
000000e0: 8af8 93be 6174 4d3f a28e 863e a324 643f
000000f0: 74ca d23d a449 0fbf 55a6 0fbf 805c 8abd
00000100: e8a6 33be 515d 86be 3b38 073c e6a1 a33e
00000110: 8e25 ed3e 39a7 52be 8828 bb3e a507 16bf
00000120: 805c 5abe add4 103f 3d26 133d cd07 4d3f
00000130: e37b b3bf 85ad 213f b548 c3be fcf2 403f
00000140: eac3 7ebb 4f30 16bf 1619 5a3f 79b8 0d3f
00000150: d8d8 81bf bf9b 843f 76cc 273e ae1b 97be
00000160: 365c 0ebf a290 7fbd 9b08 603e ffb7 cabd
00000170: 243c 943e c91f d8bd bd54 d4bf 885c 08bd
00000180: 7690 b43e 149c 073e 2c37 333e dd99 5a3f
00000190: b405 e4be a43b 523f d76f eabe a56e 4cbe
000001a0: 05ff d4be e606 503f 77f8 e2be 2ba1 513f
000001b0: e4f0 1abf 3bc8 1c3f f64f e93e 31de 5dbe
000001c0: d56b 31be fcb6 04bf 9485 c0bd b90f 1a3f
000001d0: 11f6 193f caf6 643f 1cf7 f43d 9ae1 123e
000001e0: 3890 563f dc38 75bf 91bb 0bbf 28ff debe
000001f0: d678 753d 1cd7 4bbe f92f 633e b490 493f
00000200: 3797 49bf 1b0d 033f c01f c03f 4f47 8abf
00000210: 85d4 3bbf cbed a9bf c1c0 4e3f 58b4 04bf
00000220: cefb 763c c8aa f3bd 9719 6c3a c86b 443f
00000230: 4db7 233e c187 61be fcb4 1c3c 7578 8dbe
00000240: 76c5 78bf c8a2 b83f c3b3 b53e 4dd0 103f
00000250: 181f 0fbe ca6f 93be 5b72 e93e 9f62 a3bf
00000260: acae b4be 4252 e13e 0c38 c63d 726d 01be
00000270: 1171 303f fb32 f73d f13b 92bf 1fb7 ad3e
00000280: b941 3abe df3c 8cbd c033 ec3d 9e75 783d
00000290: be10 ba3e 2e65 b0bd 7b81 b5bf d677 203e
000002a0: a9e0 cb3e acbb abbd 6cc2 db3e 885c 553d
000002b0: e6fd 30bd 6eb7 063e 0264 1e3e 94c6 16c0
000002c0: 1cd9 efbd d080 443d 0635 873d e554 b93d
0.6711525 -0.095407724 0.2732563 0.40841752 -0.53385806 -0.29998142 -0.3221524 -0.13061829
0.02875422 0.44490415 -0.56897014 0.020350067 0.47978216 -0.27887705 0.43832424 -0.13985932
-0.4792951 0.13590656 0.30845267 0.08443169 -0.050109766 -0.07858558 0.13511334 -0.16669957
-0.0006513357 -0.04016615 0.25715265 1.0425701 -0.8921114 -0.19612454 0.55981845 -0.32809216
-0.19878154 -0.9177633 0.7545128 -0.07427328 0.43782872 -0.6114944 -0.48947623 -0.007959002
-0.02333817 -0.2940931 0.41691643 0.5679938 0.23369789 0.42194086 -0.26458886 0.16196014
-0.13804632 -0.8037159 -0.25876746 0.37982187 0.13061263 0.2844961 -0.11352747 -0.4113819
-0.28900558 0.80255705 0.26280695 0.89118403 0.10292521 -0.5597174 -0.5611318 -0.06755924
-0.17544138 -0.2624307 0.0082531525 0.31959456 0.46317714 -0.20571603 0.3655436 -0.58605415
-0.21324348 0.5657452 0.03592514 0.8009003 -1.4022182 0.63155395 -0.3814141 0.75370765
-0.0038874098 -0.58667463 0.8519453 0.5535961 -1.01443 1.036003 0.1638659 -0.29513305
-0.5560945 -0.062393792 0.21878283 -0.09898376 0.28952134 -0.105529375 -1.658836 -0.03329137
0.35266465 0.13243133 0.17501515 0.85391027 -0.445356 0.82122254 -0.45788452 -0.19964083
-0.41600814 0.81260526 -0.4433019 0.8188655 -0.6052382 0.6124303 0.45568818 -0.2166679
-0.17326291 -0.5184171 -0.09400478 0.6018024 0.6014109 0.8943907 0.11961195 0.14343873
0.8381381 -0.95789886 -0.5458308 -0.43554044 0.05992969 -0.19906276 0.22186269 0.78736424
-0.7874636 0.5119187 1.5009689 -1.0803012 -0.73371154 -1.3275694 0.8076287 -0.5183768
0.015074683 -0.11897808 0.0009006499 0.7672696 0.15987892 -0.22024442 0.009564634 -0.27630964
-0.971763 1.4424677 0.3548871 0.5656784 -0.13976705 -0.28796226 0.4559506 -1.2764472
-0.35289514 0.4400807 0.09678659 -0.12639406 0.68922526 0.12070271 -1.1424543 0.33928773
-0.18189134 -0.06847548 0.11533308 0.060659043 0.36340898 -0.086130485 -1.4180139 0.15670714
0.3981984 -0.08385405 0.4292177 0.052090198 -0.043210886 0.1315591 0.15467837 -2.3558702
-0.11711332 0.047974408 0.0660191 0.090493955

head_conv.1.depth_wise_2.bias f4 [20]
00000000: ba8b 8f3c 641c febd 8faa 9c3c 3775 f6bb
00000010: 30d1 c13c 641e eebd 8275 343c fff7 dbbc
00000020: 9b28 8f3d 63db 863c 3aa5 fd3d 1a53 b0bd
00000030: f619 a9bc c01e e03c 9762 573c e9a0 003d
00000040: 5cd8 06bc b618 d6bc 202f a93d f380 133e
0.017522682 -0.12407759 0.019124297 -0.0075212973 0.023659319 -0.1162689 0.011014344 -0.026851652
0.06990167 0.016462034 0.1238503 -0.086096 -0.020642262 0.027358413 0.013146064 0.031403456
-0.008230295 -0.02613483 0.082609415 0.14404659

head_conv.2.point_wise_1.weight f4 [32, 20, 1, 1]
00000000: 8dda 453f fb7a 0e3e b1b5 42be 83c6 76bf
00000010: 5201 24bf fec1 39bf d6c0 d8be a701 06be
00000020: c23e 9e3b 2c28 96bf 5b62 2fbd 1db6 0640
00000030: 47a5 083f 8242 e43f 6cfd 11bf e344 9bbf
00000040: e77b 3f3f 6944 c4bf 1430 8c3e c050 aabe
00000050: bd11 0b3f 526c 9c3f 9ae5 04bd 7e9a 473e
00000060: 9d50 11bf 327a 453f b662 90bd 7a06 7abd
00000070: ea1f 84be 84da a2bd 478e ebbe 8431 a03d
00000080: 037d 6dbe 9293 fdbc 82e8 67bf ff20 df3d
00000090: b881 49bd 4b3e 723e 879d 0d3f 6ece a43d
000000a0: 79f9 c63c a00a 49c0 c0f4 4f3f 75fc 6f3e
000000b0: 3455 93bc 6abc 3f3f 424b b43e dcf9 06bf
000000c0: 90fa 9bbe 91b2 f63c 8607 00bf d943 0d3e
000000d0: f4d9 1e3e 1021 45be 71b6 07bf e925 953e
000000e0: 93e9 edbd f7f8 a93e ce50 3d3f 9ebb a5bd
000000f0: 6868 4bbe 8b3f ac3e ebbb 9f3f 33e5 333d
00000100: 8ea9 063e a619 8f3e 239c 64bd 6d1d 41bf
00000110: e4e1 293d 4df1 a63e cd50 bf3e 31be a5bd
00000120: ff08 13be fe74 0d3e eb46 b73e c2af 22be
00000130: 16c2 51bd 55fd 03bd 8f88 10bf 03ce e43e
00000140: 7fee 20bf 3e48 cb3d 7183 043e 3c39 d9bd
00000150: 7f70 a33d 18b6 86be 94d5 4c3e 9006 943c
00000160: 92f2 4dbe 4b2d a13e b9aa 11bf 8bdc 833f
00000170: c195 183e bc48 933d b601 783e 9b4f a93e
00000180: f17d d23d 3219 8c3f 7eff 5a3e 8527 b6be
00000190: 1919 d63d 9158 1dbe c3cd 293e 7649 b7bd
000001a0: 6a2b 65be b9b3 9c3e 6840 91bf 58cb 22bf
000001b0: 70c7 9abc 970b 1f3f 3625 46be afec 253e
000001c0: ceb7 69be 2789 9fbf 97ad 643e e433 c23f
000001d0: ab89 48bf 7699 87bf ce2a 05be 523a 943c
000001e0: 99a1 7cbe cebf 803e 06ff a5bd 2658 433f
000001f0: bec5 243d 832f 9cbc 70e4 2d3e be04 a63d
00000200: f38e e13d 54f7 fd3d 02e2 023d 24e6 3fbd
00000210: 6ba0 91bd d067 593e 219a 46be 845e 1a3e
00000220: f1fc b5be e039 1e3e d183 56be 65e1 99bd
00000230: 46b8 043e 768e edbe ed67 3ebe 1d56 ae3d
00000240: 5a9d bcbd c039 0cbe 6b49 c0bd 3394 85be
00000250: b4e5 923e e1db 28be 84aa 923c 5c8b e93c
00000260: 4633 abbe 1f83 cdbe 4ea3 1a3e 3c9d c5bd
00000270: 43ef f0bd baac 2bbe 7c31 8c3e 1ad3 9a3c
00000280: 2c5a 4a3c 30f7 f03c 586b 32bc 9848 0e3e
00000290: bd3d 083d b3ea 943e 9b3f 3a3e f8fc 9bbd
000002a0: bb92 0e3f 6998 a13d e2b2 2b3f d999 4bbe
000002b0: 5646 4e3e e8cb 5b3d 4e09 673e 7bdc c2bc
000002c0: 6d16 60bd e45c 90bd 6a80 85bd ab72 0b3e
000002d0: e455 403f 7643 ccbe 8959 2fbe 80f5 c6be
000002e0: 0bd2 ffbe f606 84bf 86c9 dd3c 1627 8dbe
000002f0: 9606 3d3f 451e e93e 7746 84bd d0fc 3ac0
00000300: 176b cbbd fe9b 963f 7ac5 41bf e593 bb3e
00000310: 7098 c7be 2a91 ca3e 0a5c a33e 79b5 083f
00000320: 2a39 2f3f b948 963e e5fc 1bbe 3f9b 9dbe
00000330: bb1c b6bf 6682 d53e 5544 f73d cc60 fcbe
00000340: 8364 7e3e 78aa 03bf 53e6 4f3c 2775 483f
00000350: 2c85 5d3e dbff 8e3e a300 ce3e 3b5d 243d
00000360: 2739 0440 1ad7 b93c 7471 0f3f 47e1 96be
00000370: 8519 56bf d2a9 ef3e 7283 793e 55a1 1b3f
00000380: fbbb b8be 1df4 43bf 3e0f a2bf b8c3 953e
00000390: 167e f1be 4358 4abd 28f8 62bd 5954 95bd
000003a0: b2cd cebd b6fd 0d3f e109 5bbe 7c7c 2dbe
000003b0: 17cd 90be ac5a 063a 5a65 fb3c db32 37bd
000003c0: b210 31bf 1a92 eb3e 62cc 903e ff3e dc3e
000003d0: 8174 1a3e fba8 f33e 0b77 27bd 3b45 08c0
000003e0: a57f 273d 4985 74be f425 cb3f 45c9 acbe
000003f0: bcb2 8abb c35f 313e 2179 113f 60c9 02bd
0.7728661 0.13914101 -0.19014622 -0.96396655 -0.64064515 -0.72561634 -0.42334622 -0.13086568
0.0048292587 -1.173101 -0.04281841 2.1048653 0.53377193 1.7832797 -0.57027316 -1.2130398
0.74798435 -1.5333377 0.2738043 -0.33264732 0.5432394 1.2220557 -0.032445528 0.19492528
-0.5676363 0.7713958 -0.070500776 -0.061041333 -0.25805598 -0.07951835 -0.46006986 0.07821944
-0.2319222 -0.030954156 -0.90589154 0.108949654 -0.049195975 0.23656575 0.5531849 0.08047186
0.02428888 -3.1412735 0.81232834 0.23436148 -0.017984964 0.7489687 0.35213667 -0.52725005
-0.30464602 0.030114444 -0.5001148 0.13795413 0.1551283 -0.19250894 -0.5301276 0.29130486
-0.11616816 0.33197758 0.73951423 -0.08092426 -0.19864047 0.3364223 1.2479223 0.043919753
0.13150617 0.27949256 -0.055812966 -0.75435525 0.04147519 0.32605973 0.37366334 -0.08092917
-0.143589 0.1381416 0.35796294 -0.15887359 -0.051210485 -0.032224018 -0.5645837 0.44688424
-0.62863916 0.099258885 0.12940766 -0.1060662 0.07980441 -0.26310802 0.20003349 0.018069535
-0.20112064 0.31479868 -0.5690113 1.0301679 0.14900877 0.07191607 0.24219403 0.33068547
0.10277928 1.0945189 0.21386525 -0.35577026 0.10454006 -0.15365817 0.16582398 -0.089495584
-0.22379842 0.30605868 -1.134778 -0.6359153 -0.018893927 0.6212706 -0.19350132 0.16203569
-0.22824022 -1.246373 0.22331844 1.5172086 -0.78335065 -1.0593708 -0.1300461 0.018094216
-0.2467102 0.25146335 -0.081052825 0.7630638 0.040227644 -0.019065624 0.16981673 0.08106373
0.110135935 0.1240069 0.03195382 -0.04685034 -0.071106754 0.21231008 -0.19394733 0.15075117
-0.3554454 0.15451765 -0.20948721 -0.07513694 0.1296092 -0.46397752 -0.18594332 0.085125186
-0.092097 -0.13693905 -0.09389003 -0.2608963 0.28690875 -0.16490127 0.017903574 0.028508835
-0.33437556 -0.401391 0.15101358 -0.09649131 -0.117643856 -0.16765109 0.27381504 0.01889949
0.0123506 0.029414743 -0.010889851 0.1389488 0.033262003 0.2908531 0.18188326 -0.07616609
0.5569264 0.07890398 0.6706983 -0.19882907 0.20144019 0.053661257 0.22562143 -0.023786774
-0.054708887 -0.070489675 -0.06518634 0.13617961 0.7513106 -0.3989522 -0.17123999 -0.38859177
-0.49964938 -1.0314624 0.027073633 -0.27568883 0.73838174 0.45530906 -0.064587526 -2.9216805
-0.09932535 1.1766355 -0.7569195 0.36636272 -0.38983488 0.39563876 0.31906158 0.53401905
0.684466 0.29352358 -0.1523319 -0.30782506 -1.4227518 0.4170105 0.1207358 -0.492926
0.2484303 -0.5143199 0.012689191 0.7830376 0.21632832 0.27929577 0.4023486 0.040127974
2.0659883 0.022685576 0.5603249 -0.29468748 -0.8363269 0.4680925 0.24366549 0.6079305
-0.36080918 -0.7654436 -1.2660902 0.29250884 -0.47166508 -0.04940058 -0.05541244 -0.07291479
-0.10097827 0.5546526 -0.21390487 -0.16942018 -0.2828147 0.00051252055 0.030687977 -0.044726234
-0.691661 0.46009904 0.28280932 0.43016812 0.15083505 0.4758986 -0.040885013 -2.1292255
0.040893216 -0.23878969 1.5870957 -0.33747306 -0.0042327326 0.17321686 0.56825453 -0.031930327

head_conv.2.point_wise_1.bias f4 [32]
00000000: 6696 d13d a3d0 e83d 9bed a8bf 3d98 2b3d
00000010: dab5 103e 3fa8 803e 2525 d6bd 46b4 343e
00000020: 7509 eabd 0f74 013f 08ce 3d3e 059a adbc
00000030: 49e0 963f 0993 58bf b622 64be baa7 d23d
00000040: 174d be3e 118d 2bbf ce6c 923f 1b25 e53e
00000050: 260a 2e3f 67ec 39be 8f80 4c3f 4e25 86be
00000060: 1dd4 1d3c e1ce 8ebe f794 f5bd f5eb 86be
00000070: bd2f 3cbd 64d7 653e 27da 71c0 243a e43c
0.10233764 0.11367919 -1.3197511 0.041893233 0.14131871 0.25128362 -0.104563035 0.17646894
-0.11427585 0.50567716 0.18535626 -0.021191606 1.1787196 -0.8459936 -0.22278866 0.102858976
0.3716819 -0.67012125 1.1439455 0.44754872 0.67984235 -0.18156587 0.79883665 -0.26200336
0.009633091 -0.2789221 -0.119913034 -0.26351896 -0.045943964 0.22445446 -3.77894 0.027859755

head_conv.2.depth_wise_1.weight f4 [32, 1, 3, 3]
00000000: d588 b83e b62a 1a3e 413d 4c3d f387 1abf
00000010: dc0d d53d cbb4 dfbd cbd3 cc3d 897a d7be
00000020: d196 77be ab12 d73e 45da 503e da30 c83d
00000030: 3c85 c43d db42 29bf e7c2 b5be 12b0 dc3e
00000040: 0a13 933e 2dd8 493c 93b5 84be 52f6 30be
00000050: c86f 8cbe f282 8a3d 1cbf b53f f773 20be
00000060: 7219 203e d910 5c3e 0d26 03bd e1ef 703e
00000070: d879 843e 19a8 03bd 2131 c3be d699 8dbf
00000080: 1e2a 8f3e 9e2d c7bd dc41 11be a67c c63d
00000090: 4f5c 4d3e edb0 f53c 0f24 073f 8808 30bd
000000a0: 5be0 ddbc 62f4 323c f3e7 853e 6b85 1f3e
000000b0: bae9 9f3e 1558 493e 42db b23d 2f92 59bd
000000c0: 2cef 7b3d 2818 3abe 2a01 9cbe 4091 3ebf
000000d0: 68c4 5bbd 208e fe3e 01d7 b5be 27fc e2bd
000000e0: af96 b73d 9d1a a3bd b5f0 f03e 1514 21be
000000f0: e36c 5dbb 3908 b7bd fe27 6a3e 0ed0 64bd
00000100: 898f 00bf 7392 c23d 26f5 7cbe bfbf ba3e
00000110: eaf3 923d 477d 6e3c eb29 c23e eeab 8abd
00000120: 9b78 e8bd deca a9be 872e ddbd a513 aabe
00000130: 218d 923f 9c37 a8be 1d8d 65be 9916 24be
00000140: 2a94 3bbe 1a15 7cbf 4caa 213f 6898 063f
00000150: 7364 76bf 53ce 7bbe 24d6 703f c9f7 763e
00000160: 7c2f a2be 57c9 0dbe 729b a2be 18df 2bbf
00000170: d600 2fbf efaf cabd 06fc e6be 7152 b8be
00000180: abc7 d13e e0e3 803f 5cd7 403f f44b e83e
00000190: be79 e3bc 6af7 21bd 66a8 c2bb 190c b6be
000001a0: ba0f dabd c6e1 fc3e 50e4 e1bd 64f9 ecbe
000001b0: dd3b ac3f 1b9b 71bf 60b6 d13d a2f4 30bf
000001c0: 39bf e6be e536 30bf 6920 403f cfef e8be
000001d0: 83a0 893f 3530 ba3e f3bd 853e 11ff ab3d
000001e0: 3cd4 eb3e f0be 463f a40f 88bd 76c6 a6bd
000001f0: a1a4 ecbd cbc9 fdbc 0c12 6d3d 5b77 98bd
00000200: ab8b 04be a1a8 f83d 1a4c 013d a5e3 923d
00000210: 5daf f6bc 4658 6b3d c131 803c c57a 68be
00000220: 299d d7bd cebf 02bd f7cc 853a e394 843f
00000230: 56d2 2cbe c3cc a4be 7a08 a0bc 12e0 0cbe
00000240: cbec 423e 45ae f03c 9eb3 0d3e fa45 79bd
00000250: ff15 593f b710 5cbc 2c85 883d 515e 843b
00000260: a888 473e 5a9d 00be fd35 b3be fe94 383d
00000270: efdb 21bd 6698 0840 b36a 8cbe 18e9 3cbd
00000280: c462 75be 8eb2 773d a986 c3c0 ec0a b83d
00000290: ac5e da3e d115 acc0 12db d13e 2681 5b3e
000002a0: 66f4 82c0 5f21 cabd f7c5 033f d9f2 05bd
000002b0: fd77 13be 2d79 61be 3da1 d23e aa35 fabe
000002c0: 2567 8d3e 8534 b2be 1da9 0d3e f3c7 c4c0
000002d0: a9dd 353f 3ab5 8d3e afab 1cbe eacf 02bf
000002e0: 2ed7 41be d677 873e 1c34 1fbe 3c95 ccbd
000002f0: 9b30 a5be 2af2 1cbf 3007 54be 3ae5 ebbd
00000300: a78d b5bc b55c 293e 1bfe c8bd e2e1 a8be
00000310: 8f37 793c 4ce7 babc 9df8 b2bd cee3 4e3e
00000320: 146e ccbd 818a 953e ee43 9dbf 8eb9 343d
00000330: 3c34 55bd e98b d03d c5b8 fbbb b2af a73d
00000340: 7b77 ffbc 9742 f13d fe1e 833d a839 443e
00000350: 9caf 5cbd af7b 763d 31d6 653c 60dd 7ebd
00000360: 45a2 763c 6e51 1dbc 9a63 aabe 1855 083e
00000370: 5595 46be 427b c7bc f0d0 d83d eb09 54bd
00000380: 7a11 07be e226 e23d 8ddf d03c bd81 e73d
00000390: 6849 163d 5c39 f23c 38bd 84bd fdc4 a1bc
000003a0: 963a 1dbd 9fa9 003d 73b9 41bc c6cf a93e
000003b0: 153c 983d e267 b6bd 6aef 84be 60cd 69be
000003c0: 5afa d73e 13d2 b5bd 5f20 5d3e 7e84 9bbf
000003d0: 3a4d 8abf 6a41 253f 3413 473f 01ea 8fbe
000003e0: ed65 363e 7b6f f73e 0b6d 2d3f 66df aa3e
000003f0: ab60 213e c6c9 a9bd 924c 583e 284f 11be
0.36041895 0.15055355 0.049863104 -0.6036369 0.10403034 -0.109231554 0.10001334 -0.42085674
-0.24178626 0.4200643 0.20395763 0.09774943 0.09595725 -0.6611764 -0.3550026 0.4310308
0.28725463 0.012319607 -0.2591978 -0.17281464 -0.27429032 0.06763257 1.4198947 -0.15669237
0.15634707 0.21490802 -0.03201871 0.23529007 0.2587421 -0.032142732 -0.3812342 -1.1062572
0.2796182 -0.09725498 -0.1418528 0.096917436 0.20054744 0.029991591 0.52789396 -0.042976886
-0.02708452 0.010922523 0.26153526 0.15578239 0.31233007 0.19662507 0.08733226 -0.053117927
0.06150739 -0.18173277 -0.30469638 -0.74440384 -0.053654104 0.49717808 -0.35515597 -0.110832505
0.089642875 -0.079640605 0.47058645 -0.15730317 -0.0033786825 -0.08937115 0.22866818 -0.05586248
-0.5021902 0.09500589 -0.24702892 0.36474416 0.07175429 0.014556236 0.37922606 -0.06771074
-0.11351129 -0.33162588 -0.1079989 -0.33218113 1.1449319 -0.32854927 -0.22417112 -0.16024245
-0.18318239 -0.984697 0.6315048 0.52576303 -0.96247023 -0.24590425 0.9407675 0.2411796
-0.31676853 -0.13846336 -0.3175922 -0.6713729 -0.6836065 -0.09896838 -0.45114154 -0.36000398
0.40972647 1.0069542 0.7532861 0.45370448 -0.027768012 -0.039542593 -0.005940485 -0.35556105
-0.10647531 0.49391 -0.11029875 -0.4628402 1.3455769 -0.943773 0.102398634 -0.6912328
-0.45067766 -0.6883376 0.75049454 -0.4549546 1.0752109 0.36364904 0.26121482 0.083982594
0.4606036 0.776351 -0.06643608 -0.08143322 -0.11554838 -0.030980011 0.05787854 -0.0744464
-0.12943904 0.121415384 0.031566717 0.07172326 -0.030112917 0.05745723 0.015648725 -0.22703083
-0.10528023 -0.0319212 0.0010208179 1.0357937 -0.16877112 -0.3218747 -0.019535292 -0.13757351
0.19035642 0.029379973 0.1383805 -0.06085775 0.8479919 -0.0134317195 0.066660255 0.0040395637
0.19485724 -0.12560025 -0.35002127 0.045063965 -0.039516386 2.1343017 -0.27425155 -0.046120733
-0.23963457 0.060473017 -6.110188 0.08986458 0.42650354 -5.377663 0.4098745 0.21435985
-4.092334 -0.09869646 0.51473945 -0.0327023 -0.1440124 -0.22018881 0.4113864 -0.48869067
0.27617756 -0.34805694 0.13834043 -6.149408 0.7104135 0.27677327 -0.15299867 -0.510985
-0.18929741 0.26458615 -0.15547222 -0.09989402 -0.32263646 -0.61307013 -0.20705867 -0.11518331
-0.022162272 0.16539271 -0.09814092 -0.32984835 0.015211 -0.02281537 -0.087388255 0.20204088
-0.09981933 0.29207233 -1.2286355 0.04412227 -0.052051768 0.10182936 -0.0076819384 0.08187808
-0.031184902 0.11780279 0.06402396 0.19162619 -0.05387841 0.060176548 0.014028118 -0.06222284
0.0150533365 -0.009601934 -0.33279115 0.1331371 -0.19392903 -0.024350766 0.10586727 -0.05176727
-0.1319026 0.110425726 0.025497222 0.113040425 0.0366911 0.029568367 -0.06481403 -0.019747252
-0.03838595 0.031411763 -0.011824 0.3316633 0.07433335 -0.08906533 -0.25963908 -0.2283225
0.4218319 -0.08877959 0.2159438 -1.2149808 -1.0804818 0.6455294 0.77763677 -0.28108218
0.17812319 0.4832724 0.6774451 0.33373564 0.15759532 -0.08290438 0.2112296 -0.14190352

head_conv.2.depth_wise_1.bias f4 [32]
00000000: 3f16 603d eb86 513e fcd0 b7bb 31b1 973e
00000010: a9c2 0e3f f522 753c c94b 453e cfdb a83e
00000020: 0eab 333f 7675 163d 8776 3fbc bae4 c23d
00000030: 6434 823e 7df6 753b 980f 8bbe 4e2f 243f
00000040: ff69 b23d 0655 e7bd f78d ec3e bad3 b53e
00000050: c025 b3bd 1ebe 173f 2719 153e 0e25 0fbf
00000060: 466c 083f 3f80 03bf a30b 4abd 498f 613d
00000070: 7ee6 473f e8d1 ebbc 4f6d 17c0 b340 973c
0.054708716 0.20461623 -0.0056096297 0.29627374 0.5576578 0.014961948 0.19267191 0.329802
0.70182884 0.036733113 -0.011685974 0.095162824 0.25430596 0.0037530952 -0.27160335 0.6413468
0.087116234 -0.11295514 0.4620206 0.35513097 -0.087474346 0.5927447 0.14560376 -0.55915916
0.5329021 -0.51367563 -0.049327504 0.055068288 0.7808608 -0.028786615 -2.3660467 0.018463468

head_conv.2.point_wise_2.weight f4 [32, 20, 1, 1]
00000000: e3c7 af3e 108b b23d 7c6c 933d d378 3dbf
00000010: 4612 54bf 5cba 54be ce41 c4be c03a 0abf
00000020: 84e3 dbbe 3649 253d 5fdf 52bf 912b 0e3f
00000030: 9fde a3bd 738a a9bd 41de fb3d e145 bb3f
00000040: b15f 5f3e fed4 85bf 1357 3cbe 7abc 98be
00000050: 0744 2bbe bf79 b43f 614a c1be fc4b c1be
00000060: 6bd3 163f 493e 36bf 0bff a53c e106 3fbd
00000070: a651 143e f0a0 3dbe c615 d53c 0005 d5bd
00000080: 23d1 183d 35a3 d93c e857 413f 3a72 cabc
00000090: 3cbd 283e 5c2e 2abe 734a cabe 4ea0 24be
000000a0: 255c 1d3f 1cd5 0140 39fa e9bd 964f a63e
000000b0: d040 cbbe 9232 2c3f f833 31bd b0c1 39bf
000000c0: f436 4dbe fbee 41bc 768f d7be 73c6 b33d
000000d0: eb00 66be a78e eebd e24a 66bf f753 ae3d
000000e0: e7a1 4ebe 2b89 9a3e 63f4 d23e 7767 213d
000000f0: eee8 91be d760 babe b57b 84be ccc7 40be
00000100: cebb e73b b270 6dbc 4b10 8d3d 39c9 c23e
00000110: a1a3 e2be 57ad 1a3d 598a 5d3d b16a a9bd
00000120: aeec 253e ddac 8e3e 27b6 a83e d331 1a3e
00000130: 194d 9c3d 3deb 8b3d 13cf edbe a6c7 973e
00000140: 58f4 aebe 0267 5f3e efb5 3a3e 8239 983e
00000150: d486 b3be ce79 383e c87c a43a c889 1d3e
00000160: a283 fabc c649 e93e 9cd3 c33e 63c8 733e
00000170: e135 c73d 7d4b e43d 0a62 17be fa66 ca3e
00000180: bdf0 acbd 6208 c23e 445b 47be 5fbb 853d
00000190: 1b6c c3be d024 f9be 47ed 223e ac7d 72bf
000001a0: 60de b8be bdad b7bd 8c77 a43e 5238 3abf
000001b0: 8bc5 84bd 9058 6abd 09e1 213f bf67 48bf
000001c0: ff74 bc3d 13d2 aabf 21e9 213e 1661 be3e
000001d0: 439d c53e 9ec1 953e 379b 73bd b375 8d3e
000001e0: aab8 3ebe 6b51 0bbe b62f b6bc d9ef 2dbd
000001f0: 4375 2a3e 231d cebd 7103 5a3c 0c8c b8bd
00000200: 1a05 243d 32dd a13d 82ce f5be 3492 51bd
00000210: ad30 0bbd f47b 043d b74a 3a3c 73d4 f03d
00000220: f1d0 993d 5acc 1d3e fbda 1b3c 66b9 78bf
00000230: 7aaf 453e 41a9 babe fe83 1abc b364 9e3b
00000240: 2b01 653e 332c ccbe 3ab2 4abe 60c2 743e
00000250: e2ed 64bd 8fc8 c3bd 057b c33e a1af 2a3e
00000260: 951d f4be b596 9ebe 3538 92be 32f5 5f3d
00000270: 69ed 063d 51c0 27be 4cfe 3e3e 0b5e 473f
00000280: 0405 dabd cdc4 53bc b16a 39bd 088a b5bb
00000290: fc34 2dbd cd05 84bd 986b 97bd c038 3dbd
000002a0: ec7c 523d 431c 323c 67d6 afbe ae48 acbc
000002b0: d7e8 a7bd 4fd3 4b3d aed6 cfbd 444e 013d
000002c0: 9b5a 443c dd0d 743d a8de 453d d045 79bf
000002d0: 56a1 82be bd2f 02be 1420 213f 11e2 76bf
000002e0: 2c97 a6bf 7347 aa3c 9d6c 45be 2753 febe
000002f0: 0acc 40bf 96b4 253f 597d 4d3f b5d3 3840
00000300: 0a50 563e 4c0b 263f 83d2 173f 0e05 0240
00000310: 82dd 2e3f 506d 6d3f 611b 51be a05a 8ebe
00000320: 3874 2d3f a4bf ed3d 9a4a ae3b 51f9 5fbe
00000330: a063 24bf bd1b 243f ee02 47bf c0e5 66be
00000340: b056 9f3d 2a23 6bbd 95f3 b3bc ebd4 5bbb
00000350: f1c6 d73f 7fe2 03be 6b79 a8bf 8f07 e2be
00000360: 91b4 6f3f 8cb2 463f 244e af3f 6be4 be3d
00000370: 72ec bebd 64ea ffbe 7840 983e 7ed5 b33e
00000380: 6f4a 47be 18de edbf 6690 55bf 9e7a 9cbf
00000390: 7404 0fbe fa01 2e3d 0e55 213e e2de 95be
000003a0: 797c 323f f60c ce3e 33b1 b03d 408d 153d
000003b0: aaf5 46be ceb7 ad3e 3dd2 8b3f 9a10 653d
000003c0: 90ce eabd 6ee0 f43e 273a 1b3e 9348 7ebf
000003d0: 951b acbc 70ee a5bf c8ee 493e 302d 5c3f
000003e0: 651c 7dbf 8e31 83bf 1cbc 7dbf f2ff edbe
000003f0: 9f45 d13e 74e8 a03e c192 f03e 99f8 c43e
0.3433219 0.0871793 0.07198426 -0.7401249 -0.82840383 -0.20774215 -0.38331455 -0.53995895
-0.42947018 0.040353023 -0.8237209 0.5553523 -0.08001446 -0.0827836 0.12298251 1.46307
0.21813847 -1.0455625 -0.18392591 -0.29831296 -0.16725169 1.4099654 -0.3775206 -0.37753284
0.5891635 -0.7118879 0.020263216 -0.04663742 0.14484271 -0.18518424 0.026011359 -0.10401344
0.037308823 0.026567081 0.7552476 -0.02471267 0.16478437 -0.16619247 -0.39509925 -0.16076776
0.61468726 2.0286322 -0.11424679 0.32482594 -0.39697886 0.67264664 -0.043262452 -0.7256117
-0.20040494 -0.011836763 -0.4210164 0.087780856 -0.22461288 -0.116483025 -0.8995801 0.08512109
-0.20178948 0.30182776 0.41202077 0.039405312 -0.28498024 -0.36402008 -0.2587563 -0.18826216
0.0070719486 -0.014492201 0.06887873 0.38044146 -0.44265464 0.037762966 0.054087017 -0.08272303
0.16203567 0.2786626 0.3295147 0.15058069 0.07631893 0.068319775 -0.46447048 0.29644507
-0.34170794 0.21816638 0.18233465 0.29731375 -0.35063803 0.18015215 0.0012549395 0.1538459
-0.030580346 0.45564097 0.38247383 0.2380691 0.097270735 0.11147211 -0.14783493 0.3953169
-0.08444355 0.3789702 -0.19468409 0.06529879 -0.38168415 -0.48660898 0.15910827 -0.9472301
-0.3610716 -0.08968685 0.32122457 -0.7274219 -0.06482991 -0.057213366 0.63234 -0.78283304
0.09202003 -1.334536 0.15811588 0.37183446 0.38596544 0.2924928 -0.059474196 0.2762886
-0.18625131 -0.13605277 -0.022239547 -0.042465065 0.16646294 -0.10064151 0.013306485 -0.09011087
0.040043928 0.07903518 -0.48009115 -0.05116482 -0.033981968 0.032344773 0.0113703525 0.117592715
0.075105555 0.15409985 0.009512658 -0.97157896 0.1930522 -0.36457255 -0.009430883 0.0048337816
0.22363727 -0.3987747 -0.1979455 0.23902273 -0.055890925 -0.09559738 0.38179794 0.1666856
-0.4767882 -0.30974355 -0.28558508 0.054677196 0.032941256 -0.16381957 0.18651694 0.77877873
-0.10645488 -0.012925339 -0.045267764 -0.0055401362 -0.042286858 -0.06446419 -0.07393569 -0.0461967
0.051388666 0.010870996 -0.34343264 -0.02103075 -0.081987076 0.049762066 -0.10148369 0.03156878
0.011984493 0.059583534 0.048308045 -0.9737215 -0.25513715 -0.12713523 0.6293957 -0.964387
-1.3014884 0.020786023 -0.19279714 -0.49672815 -0.7531134 0.6472868 0.8026939 2.8879216
0.2092897 0.6486099 0.5930559 2.0315585 0.68306744 0.9274492 -0.204206 -0.27803516
0.6775546 0.11608818 0.005318952 -0.2187245 -0.64214516 0.64104825 -0.77738845 -0.2254858
0.07780206 -0.057406582 -0.021966735 -0.0033543657 1.6857587 -0.1287937 -1.3162054 -0.44146392
0.936349 0.7761619 1.3695722 0.09320911 -0.09322442 -0.49983513 0.29736686 0.3512382
-0.19461988 -1.8583403 -0.8342346 -1.222492 -0.13966542 0.042482354 0.15755102 -0.2927161
0.6972118 0.40244263 0.08627548 0.03651166 -0.19429651 0.33929294 1.0923535 0.055924036
-0.1146518 0.47827476 0.15158902 -0.9932949 -0.021009246 -1.296339 0.19719994 0.8600645
-0.9887145 -1.0249498 -0.9911516 -0.46484333 0.4087343 0.31427348 0.46986964 0.38470915

head_conv.2.point_wise_2.bias f4 [32]
00000000: f8e1 433e 77df 983e 512f a93e b6c5 943e
00000010: 2f65 73bd 99b9 cb3d 90aa e7be e07a 0e3e
00000020: fa11 fb3e 3623 cfbe 293d 88bd 26f9 e4be
00000030: 5e4c 0240 1b84 9fbd 8cae c23d cdce 3d3e
00000040: a946 b7bd dbf6 aebe ef1d 2dbf 9237 5d3f
00000050: a8b4 463f 06eb 673c 1fd1 aebe da56 863e
00000060: 3cf1 26bc efc1 de3d 7ba4 bf3d f6b1 6abe
00000070: b3a6 fc3d 492f ed3b 84ea 4d3f 23ae 1dbf
0.19129169 0.2985799 0.33043912 0.2905709 -0.059422668 0.09947509 -0.45247316 0.1391406
0.49037153 -0.4045655 -0.066522904 -0.44721335 2.035911 -0.07788869 0.095059484 0.1853592
-0.08949024 -0.3417271 -0.676238 0.8641292 0.7761941 0.014155155 -0.34143922 0.26238137
-0.010189351 0.10876834 0.09357544 -0.22919449 0.12336483 0.007238303 0.8043597 -0.61593837
