codes/Weights/wv3/weight-760.pth (torch, 92405 bytes, 80 tensors)

head_conv.0.point_wise_1.weight f4 [9, 9, 1, 1]
0	0x3eadc974	0.3394276
1	0xbf533a95	-0.82511264
2	0x3f732249	0.9497419
3	0xbed577ca	-0.41692954
4	0xbce1343d	-0.02749073
5	0xbf676b81	-0.9039841
6	0x3d6330ae	0.055466346
7	0xbf355bf4	-0.70843434
8	0x3e89385c	0.2680081
9	0xbb10c6bc	-0.0022091111
10	0xbd997f9e	-0.07495044
11	0xbea7db00	-0.3278427
12	0x3e8046d7	0.25054047
13	0xbf06f6fb	-0.5272061
14	0x3fdfd242	1.748604
15	0xc01e2b30	-2.471386
16	0xbf93c40b	-1.1544203
17	0x400cc0f6	2.1992774
18	0x3dc508a2	0.09620787
19	0xc00b37d8	-2.1752834
20	0xc009ca42	-2.1529698
21	0x3fe5fde0	1.7968102
22	0xbf889e1e	-1.0673254
23	0xbec4cef5	-0.38439146
24	0xbd011f21	-0.031523827
25	0x3ef440cf	0.47705695
26	0xbeb0473d	-0.3442935
27	0xbba6a974	-0.0050861184
28	0xbfba8b19	-1.4573699
29	0xbf90c732	-1.131079
30	0xbea1d405	-0.3160707
31	0xbf016018	-0.5053725
32	0xbfa1e942	-1.264931
33	0xbf520481	-0.8203812
34	0x402fb1a1	2.7452166
35	0x3fdd6e2b	1.7299246
36	0xbf2528cd	-0.6451538
37	0xbfc69a54	-1.5515847
38	0x3f96fd29	1.1796008
39	0x3f2d0ec0	0.6760063
40	0xbfb3027b	-1.3985132
41	0xc00bd012	-2.1845746
42	0x3fcc68ad	1.5969445
43	0xbf2a330e	-0.66484153
44	0xbe0a0be1	-0.13481094
45	0xc01513d3	-2.329335
46	0x3f1c68fb	0.6109769
47	0xbeaea35b	-0.34109005
48	0xbedd4d4e	-0.4322304
49	0x3fdb1de1	1.7118493
50	0x3e0616b1	0.13094594
51	0x3de61e0b	0.11236199
52	0x3ef2cde2	0.474227
53	0x3f2b1631	0.66830736
54	0x3d5a67be	0.053321593
55	0xbff575d0	-1.9176579
56	0xbfdcdd67	-1.7255067
57	0xbf9def21	-1.2338601
58	0x3f15088a	0.58216155
59	0x3f67ad94	0.90499234
60	0x401e5994	2.4742174
61	0xbfad4da7	-1.3539323
62	0x3e8fec4e	0.28109974
63	0x3c8d360d	0.017237687
64	0xbf610457	-0.8789725
65	0xbed0bd08	-0.4076922
66	0x3fb65cd1	1.4247075
67	0x3eaf0acd	0.34187928
68	0xbed9340f	-0.4242253
69	0xc00610cd	-2.0947754
70	0xbfca23f2	-1.579222
71	0x40822e5b	4.0681586
72	0xbd3173d8	-0.043323368
73	0x3edee422	0.43533427
74	0xbf89c1af	-1.0762233
75	0xbd2307b3	-0.039802264
76	0x4029aed3	2.6512954
77	0xc026db4a	-2.6071343
78	0xbe2a58af	-0.16635393
79	0xbf71c04e	-0.9443406
80	0x3fc9e453	1.5772804

head_conv.0.point_wise_1.bias f4 [9]
0	0x3e244ed4	0.16045696
1	0x3e165ff1	0.14685036
2	0x3e9fc476	0.31204575
3	0x3d013927	0.031548645
4	0x3e76a3f6	0.24085984
5	0x3c85156a	0.016245563
6	0x3ede88d0	0.43463755
7	0xbca4266a	-0.020037849
8	0x3d4daf58	0.05021605

head_conv.0.depth_wise_1.weight f4 [9, 1, 3, 3]
0	0x3ee8ddee	0.4548182
1	0x3e38f28a	0.18061271
2	0x3e611d82	0.21983913
3	0xbc975298	-0.018472001
4	0xbfa9f11d	-1.3276707
5	0x3e17c067	0.1481949
6	0xbd299087	-0.041397598
7	0xbcd8f33d	-0.026483173
8	0x3e6eeb38	0.23331916
9	0x3e5f0956	0.21780905
10	0xbf3a82bd	-0.7285574
11	0x3ee46667	0.44609377
12	0xbf364486	-0.7119831
13	0xbfda48c8	-1.7053461
14	0xbd949912	-0.07255758
15	0x3de09418	0.10965747
16	0xbecc0dd0	-0.39854288
17	0x3e604a20	0.21903276
18	0x3e3b5d62	0.18297341
19	0x3f1d7457	0.61505646
20	0xbd9d86dc	-0.07691738
21	0x3f5a45cc	0.8526275
22	0x3f0952d6	0.5364202
23	0x3f2d5418	0.6770644
24	0xbd37f408	-0.04491046
25	0x3f03b752	0.514516
26	0xbf0c724d	-0.5486191
27	0x3f2389a1	0.6388188
28	0xbf8ecadb	-1.1155657
29	0xbe85a924	-0.26105607
30	0xbfa710a2	-1.3051951
31	0x4011900a	2.2744164
32	0x3f1db70e	0.61607444
33	0xbed15d47	-0.40891477
34	0x3f1c7ae2	0.61125004
35	0xbde45eba	-0.1115088
36	0xbd2d013c	-0.042237505
37	0x3db2e62b	0.08735307
38	0xbe1ec42b	-0.1550452
39	0x3d495b03	0.04915906
40	0x400f6721	2.2406695
41	0x3d9a2379	0.07526297
42	0xbd8a963c	-0.06766936
43	0x3e3dfee2	0.18554261
44	0xbdc7b52c	-0.09751353
45	0xbe5e86e9	-0.21731152
46	0xbf0758e9	-0.5287004
47	0xbe73ce2f	-0.23809122
48	0xbef16d6e	-0.471538
49	0x3da21058	0.079132736
50	0xbf080d39	-0.53145176
51	0xbe7a4b2b	-0.24442737
52	0xbeef69b8	-0.46760345
53	0xbe8df864	-0.2772857
54	0x3d987fe9	0.07446272
55	0xbf888315	-1.0665003
56	0x3f2c2d0a	0.67256224
57	0x3f14061c	0.5782182
58	0x40464231	3.09779
59	0xbf8a2e95	-1.0795466
60	0xbea4a925	-0.32160297
61	0x3db8cce3	0.09023454
62	0x3ec8abb2	0.39193493
63	0x3de32d40	0.11092615
64	0xbd6dbbfa	-0.058040597
65	0x3ede4e0d	0.43418923
66	0xbf473a02	-0.7782289
67	0xc0256214	-2.5841112
68	0x3fe0db8d	1.7567002
69	0x3e72dcda	0.2371706
70	0x3ee5f3ff	0.44912717
71	0x3ee348f3	0.44391593
72	0xbf15fbde	-0.58587444
73	0x3dcda34e	0.100409135
74	0xbea938da	-0.33051187
75	0xbebf2c82	-0.37338644
76	0xbf1e7982	-0.61904156
77	0xbeba1fe5	-0.3635246
78	0x3e330e2b	0.17485873
79	0xbebeb2f7	-0.37245914
80	0x3e327309	0.17426695

head_conv.0.depth_wise_1.bias f4 [9]
0	0x3e3afa93	0.18259649
1	0xbccfb1a8	-0.025353268
2	0xbd179dad	-0.037015606
3	0xbd8c8431	-0.06861151
4	0x3dd094fd	0.10184667
5	0xbce7f8b1	-0.028316827
6	0x3c52688a	0.012842307
7	0xbb00eaa7	-0.0019671114
8	0x3d0ae6e1	0.03391159

head_conv.0.point_wise_2.weight f4 [9, 9, 1, 1]
0	0xbfdb031b	-1.7110323
1	0x3d86a17a	0.06573768
2	0x3dd98f46	0.1062303
3	0x3e879e0e	0.26487774
4	0x3f025c9b	0.50922555
5	0x3fae1da9	1.3602802
6	0xbe03754a	-0.12837711
7	0x3ebf789d	0.37396708
8	0xbf10af4d	-0.5651749
9	0xbc11a884	-0.008890275
10	0xbf4a4d73	-0.7902443
11	0xbf595ef8	-0.84910536
12	0x3e8564fa	0.26053602
13	0xbede5b38	-0.4342897
14	0x3fdd0290	1.7266407
15	0xbfdead36	-1.739661
16	0xbf88212e	-1.0635126
17	0x4026fda1	2.6092303
18	0xbd35f5f0	-0.044423997
19	0x4032338d	2.7843964
20	0x3f8ed811	1.1159688
21	0xc02fa049	-2.744158
22	0x3f16821e	0.58792293
23	0x3eb4efae	0.3533911
24	0xbdba11f7	-0.09085458
25	0x3e7e95ab	0.24861781
26	0xbeb3ab6d	-0.35091725
27	0x3c937cf1	0.018003913
28	0xbf15aee3	-0.5846998
29	0x3f1f3fe6	0.62206876
30	0x3f67e2a7	0.9058022
31	0xbdbee9ae	-0.093219146
32	0xbfdbff75	-1.7187334
33	0x3f4d52c6	0.8020443
34	0x3f6d4b5f	0.9269313
35	0xbff6b2de	-1.9273336
36	0x3cccfa31	0.025021644
37	0xbe96b077	-0.29431507
38	0x3f8d4e3e	1.1039503
39	0x3eac045d	0.3359708
40	0xbe71b001	-0.23602296
41	0xbfae1fd5	-1.3603464
42	0x3ff1e2be	1.8897321
43	0xbf56b877	-0.8387522
44	0xbf088e6d	-0.53342324
45	0xbe85d9ce	-0.26142734
46	0xbe165558	-0.14680994
47	0x3f6e7214	0.9314282
48	0x3e8e6640	0.27812386
49	0xbe39cd2d	-0.18144675
50	0x3f3e6f95	0.7438901
51	0xbf5b9992	-0.85781205
52	0x3fc4b360	1.5367241
53	0xbff8cd13	-1.9437584
54	0xbd3c3dea	-0.045957483
55	0xbfe402d4	-1.7813363
56	0xbf5bb16e	-0.8581761
57	0xbfaa2f1f	-1.329563
58	0x3e264bd1	0.16239859
59	0x402138ed	2.5190995
60	0x3f8a92ec	1.0826087
61	0xbec88bfb	-0.39169297
62	0xbed21860	-0.41034222
63	0x3dc55106	0.096345946
64	0x401f1ced	2.4861405
65	0xbfdb7dea	-1.7147801
66	0xbebd8211	-0.37013295
67	0x3fdc7b7f	1.7225188
68	0xbeac220f	-0.33619735
69	0xbfee3743	-1.8610615
70	0x3f9c5759	1.2214156
71	0xbf971702	-1.1803896
72	0xbc9f855c	-0.01947277
73	0x3f7edd64	0.99556565
74	0xbf1264dc	-0.5718515
75	0x3e8adc95	0.27121416
76	0x4053f923	3.312081
77	0xc03e6703	-2.9750373
78	0x3ea0f5d7	0.3143756
79	0xbf929e88	-1.145463
80	0x3fcff930	1.6247921

head_conv.0.point_wise_2.bias f4 [9]
0	0xbdb19c01	-0.086723335
1	0x3de72118	0.11285609
2	0xbde45d07	-0.11150556
3	0xbd25ffa6	-0.04052701
4	0xbcb96162	-0.022629444
5	0xbdca5d5a	-0.09881087
6	0x3e8bc158	0.27295947
7	0x3c597bb2	0.01327412
8	0xbe0cb523	-0.13740973

head_conv.0.depth_wise_2.weight f4 [9, 1, 3, 3]
0	0x3e8db0ca	0.27673942
1	0x3e8bdf28	0.27318692
2	0x3e12a142	0.14319327
3	0x3e337d81	0.17528345
4	0x400db4dd	2.214164
5	0x3e23aca6	0.15983829
6	0x3dbe7b00	0.09300804
7	0x3e0ba6d8	0.13637865
8	0x3deb503e	0.11489914
9	0x3f24c147	0.6435742
10	0xbf44ee91	-0.76926523
11	0x3f21bb7f	0.6317672
12	0xbf45ef6f	-0.7731847
13	0xc0398e92	-2.8993268
14	0x3f79aa6f	0.97525686
15	0x3f0af524	0.54280305
16	0xbf8767cc	-1.0578551
17	0x3e928fc9	0.28625324
18	0x3e68c4c2	0.22731307
19	0xbf641ce7	-0.891066
20	0x3f04d00f	0.5187997
21	0xbf5355d7	-0.82552856
22	0xbd8d43d1	-0.068977006
23	0xbf86a737	-1.051978
24	0xbdea4616	-0.11439149
25	0xbf9cf3ee	-1.2261941
26	0x3e2d9215	0.16950257
27	0xbf04bfdd	-0.5185526
28	0xbdf067ee	-0.11738573
29	0x3f4d4213	0.80178946
30	0x3f073116	0.52809274
31	0xbf3adc08	-0.7299199
32	0x3e4d38b2	0.20041159
33	0x3eb812c0	0.35951805
34	0xbe430fdb	-0.19049017
35	0xbe495740	-0.1966219
36	0x3e6ef118	0.23334157
37	0xbe169486	-0.14705095
38	0x3ec33515	0.38126436
39	0xbe462d01	-0.19353105
40	0xbde2c11b	-0.11071988
41	0xbe9fc8d0	-0.31207895
42	0x3f1b03d7	0.60552734
43	0xbf137681	-0.576027
44	0x3ed21b67	0.4103653
45	0xbf01515c	-0.5051477
46	0xbe0f5d03	-0.14000325
47	0xbf2d8ebb	-0.67795914
48	0x3ed0ea29	0.4080365
49	0x3f9e191d	1.2351414
50	0x3f0ad17d	0.54225904
51	0xbe9a7178	-0.30164695
52	0xbe8325ac	-0.2561468
53	0xbf148de4	-0.5802901
54	0xbf056e2b	-0.5212123
55	0x3dcb4640	0.099255085
56	0xbe509379	-0.20368756
57	0x3f235997	0.6380858
58	0x3f89d05c	1.0766711
59	0xbf1a3545	-0.6023753
60	0xbeb77db1	-0.35838082
61	0x3f2bd138	0.6711612
62	0xbee68999	-0.45026854
63	0xbd9c2fb3	-0.076262854
64	0x3f2aa6ed	0.6666096
65	0xbcfc214b	-0.030777594
66	0x3f1daa0f	0.61587614
67	0x4030fc75	2.7654088
68	0x3f17bea2	0.5927526
69	0xbc8f02d8	-0.01745741
70	0x3ea81ede	0.3283605
71	0xbe965aca	-0.29366142
72	0x3f731da2	0.9496709
73	0xbdc08a97	-0.09401434
74	0xbe9e587a	-0.30926877
75	0xbf31afdf	-0.69408983
76	0xc027bc2d	-2.6208603
77	0xbe56a304	-0.20960623
78	0xbda27831	-0.07933081
79	0xbfc5c0f2	-1.5449507
80	0x3e823193	0.25428447

head_conv.0.depth_wise_2.bias f4 [9]
0	0x3e3afa93	0.18259649
1	0xbccfb1a8	-0.025353268
2	0xbd179dad	-0.037015606
3	0xbd8c8431	-0.06861151
4	0x3dd094fd	0.10184667
5	0xbce7f8b1	-0.028316827
6	0x3c52688a	0.012842307
7	0xbb00eaa7	-0.0019671114
8	0x3d0ae6e1	0.03391159

head_conv.1.point_wise_1.weight f4 [20, 9, 1, 1]
0	0x3ebf837d	0.37405005
1	0xbf467c7c	-0.775337
2	0x3fb2201c	1.3916049
3	0x3e2ada39	0.16684808
4	0xbeacc85c	-0.33746612
5	0x3f28fd3b	0.660114
6	0x3df0d894	0.11760059
7	0x3f542a5e	0.8287715
8	0xbf1dadb5	-0.6159318
9	0xbde7b01f	-0.11312889
10	0x3ec38f75	0.38195387
11	0x3ea0a4f6	0.31375855
12	0x3fc58507	1.5431222
13	0x3ed0805b	0.40722927
14	0xbcacd84a	-0.021099228
15	0xbd94af5c	-0.0726001
16	0xbe80176a	-0.25017864
17	0xbe360b79	-0.17777814
18	0xbe4c3257	-0.19941078
19	0x3f54cc0d	0.83123857
20	0xbeb63659	-0.3558834
21	0xbe356f8b	-0.17718332
22	0x3ee02d6c	0.43784654
23	0x3d8d3ee5	0.06896762
24	0xc00ae109	-2.169985
25	0xbea520c8	-0.32251573
26	0xbed85251	-0.42250302
27	0xbe9ea09d	-0.30981913
28	0x3fa836a5	1.3141676
29	0xbeb95abe	-0.36202043
30	0xbe814257	-0.25245926
31	0x3f860d30	1.0472775
32	0x3dd08635	0.10181848
33	0x3f8db742	1.1071551
34	0xbd782eff	-0.060591694
35	0x3e335bea	0.17515531
36	0xbe222da5	-0.15837725
37	0xbd099db2	-0.033597656
38	0x3e731644	0.23738962
39	0xbe303d51	-0.1721089
40	0x3eda10e0	0.42591
41	0xbc8b05d8	-0.01697056
42	0xbceea883	-0.029133087
43	0x3e5c5452	0.2151654
44	0x3f0e2703	0.5552828
45	0x3e49ec8b	0.1971914
46	0xbf207918	-0.62684774
47	0xbf19043f	-0.59772104
48	0x3f4be246	0.7964214
49	0xbf113608	-0.5672307
50	0xbd5f9ecd	-0.054594804
51	0xbef24d63	-0.47324666
52	0x3fb0b683	1.3805698
53	0x3dc83f5b	0.09777709
54	0xbe819b22	-0.2531367
55	0xbfaed519	-1.3658782
56	0x3e020f7f	0.12701224
57	0xbdf2ba96	-0.11851995
58	0x3edb05b7	0.42777798
59	0xbdbed445	-0.09317831
60	0xbe84eee1	-0.259635
61	0xbf4b06bd	-0.79307157
62	0xbef5a8cf	-0.47980353
63	0x3ef9dada	0.48799783
64	0x3ecf026d	0.40431538
65	0x3f903308	1.1265574
66	0xbf36cddd	-0.7140787
67	0xbf07e3d8	-0.53082037
68	0xbd1984be	-0.03748011
69	0xbf275031	-0.6535674
70	0x3f80901b	1.0043977
71	0xbdd83af6	-0.10558121
72	0x3e88f5a4	0.2674991
73	0x3d7f61c9	0.062349115
74	0x3f767f2e	0.9628781
75	0x3bbdf517	0.0057970393
76	0xbf6c4552	-0.92293274
77	0xbd9d3f54	-0.076780945
78	0xbe4285db	-0.18996374
79	0xbc9b6889	-0.018970745
80	0xbdc70402	-0.09717561
81	0xbe343c60	-0.17601156
82	0x3e03ebb0	0.12882876
83	0xbece4c14	-0.40292418
84	0xbe35b4cf	-0.17744754
85	0xbc9baeb5	-0.019004205
86	0xbe9429ff	-0.2893829
87	0xbe828502	-0.25492102
88	0xbd19e8e4	-0.037575617
89	0xbca5bb35	-0.020230869
90	0x3d4be726	0.049780987
91	0xbd176579	-0.036962006
92	0xbec0466d	-0.3755373
93	0x3e86cf1d	0.2632989
94	0x3e950090	0.29101992
95	0x3dc96f09	0.098356314
96	0x3dabcb18	0.083883464
97	0x3d1563c3	0.036472093
98	0xbf013d66	-0.5048431
99	0xbe7c2b57	-0.24625908
100	0xbdfa691d	-0.1222708
101	0xbeb28ab9	-0.34871462
102	0xbd57b23d	-0.052660216
103	0x3df8a8ce	0.12141572
104	0x3c8351a5	0.016030142
105	0xbe4abf88	-0.19799626
106	0xbf1a2d56	-0.6022543
107	0xbdc93339	-0.09824223
108	0xbd71ade0	-0.05900371
109	0xbef1753d	-0.47159758
110	0x3f0c5ed4	0.54832196
111	0xbe9cf9eb	-0.30659422
112	0x3c8e24c6	0.01735152
113	0x3b163cde	0.0022924463
114	0xbec29020	-0.38000584
115	0xbf1f4a2f	-0.6222257
116	0xbef8d642	-0.48600966
117	0x3e6e120c	0.23249072
118	0x3f0f164c	0.558934
119	0x3f7c78ab	0.98621625
120	0xbef26e72	-0.47349888
121	0xbeb03ecd	-0.34422913
122	0xbd881bf6	-0.06645958
123	0x3e9a2389	0.30105236
124	0x3e9c6831	0.30548242
125	0xbfb1d992	-1.3894522
126	0x3d3319fd	0.043725956
127	0xbe588da8	-0.21147788
128	0xbf390e02	-0.72287
129	0xbd89f89f	-0.06736874
130	0xbe278d82	-0.16362575
131	0xbed0e74a	-0.4080146
132	0xbe9da3ab	-0.3078893
133	0x3eab4e32	0.33458096
134	0x3be816e0	0.007082805
135	0xbd884c14	-0.06655136
136	0x3f1e67db	0.6187722
137	0xbf862456	-1.0479839
138	0xbbfb1060	-0.007661864
139	0x3ddf7368	0.10910684
140	0xbcb7693c	-0.022389047
141	0x3ea79fe7	0.32739183
142	0x3ea2feb6	0.31834954
143	0xc01c552e	-2.442699
144	0xbdce07a5	-0.10060052
145	0x40208135	2.5078862
146	0xbf775382	-0.966118
147	0xbe01a779	-0.12661542
148	0x3ef64422	0.48098856
149	0xbbf47d47	-0.0074612233
150	0x3f763421	0.9617329
151	0x3fabdb15	1.3426234
152	0x3f11deb3	0.5698044
153	0xbdbd7d86	-0.09252457
154	0x3e491ac5	0.19639118
155	0xbd47f4c6	-0.04881742
156	0xbe983063	-0.29724416
157	0x3e86ce36	0.263292
158	0xbe6964a0	-0.22792292
159	0xbd90c28a	-0.070683554
160	0x3f0275dd	0.50961095
161	0x3eada210	0.33912706
162	0xbf7149ce	-0.9425324
163	0xbe2ab5a7	-0.16670857
164	0xbe181164	-0.14850384
165	0xbed2fa65	-0.4120666
166	0xbf0b14d8	-0.5432868
167	0xbf40bd7f	-0.7528915
168	0xbe6e57e7	-0.2327572
169	0x3f1288e0	0.57240105
170	0x3d19cc7e	0.037548535
171	0x3ec50f84	0.384884
172	0x3c219035	0.009861042
173	0x3e27c5b1	0.16384007
174	0xbd42b731	-0.047537986
175	0xbe139d0b	-0.14415376
176	0x3f0cbbe9	0.5497423
177	0xbdc6565f	-0.09684443
178	0xbddc501e	-0.10757469
179	0xbdcd195d	-0.10014603

head_conv.1.point_wise_1.bias f4 [20]
0	0xbdf7de75	-0.12102977
1	0x3ed7987e	0.4210853
2	0x3e06ae96	0.13152537
3	0x3c8d9af4	0.017285801
4	0xbdc29da2	-0.09502722
5	0x3ddac0f4	0.10681334
6	0xbe445e92	-0.191767
7	0x3e0f4717	0.13991962
8	0x3ed2f345	0.41201225
9	0xbda0d129	-0.07852394
10	0xbdc97807	-0.098373465
11	0xbdf2101a	-0.118194774
12	0x3eceb9f2	0.4037624
13	0x3e500d3c	0.20317549
14	0xbe28d059	-0.16485728
15	0xbdfc83e9	-0.12329847
16	0xbcaef06a	-0.021354873
17	0xbe537c48	-0.20652878
18	0xbcccb407	-0.024988187
19	0x3d5fb319	0.05461416

head_conv.1.depth_wise_1.weight f4 [20, 1, 3, 3]
0	0x3ed10326	0.40822715
1	0xbeb4d10f	-0.3531575
2	0x3e52fabb	0.20603459
3	0xbed83c72	-0.42233616
4	0x3fd29053	1.6450294
5	0xbf226152	-0.6342975
6	0xbe1b729f	-0.15180443
7	0xbe9ebcae	-0.31003326
8	0x3d7e65d1	0.06210882
9	0x3b9fe2b8	0.004879322
10	0x3eb5de95	0.3552138
11	0x3e9a9f30	0.30199575
12	0x3b8de59a	0.004330349
13	0x3f30c0dc	0.6904428
14	0xbdf6158a	-0.12015827
15	0xbe90c1c4	-0.2827283
16	0xbe2edb21	-0.17075779
17	0x3c7273a2	0.014798077
18	0x3eec1618	0.46110606
19	0xbefb4018	-0.49072337
20	0xbe69e053	-0.22839479
21	0x3f6a20d9	0.9145637
22	0xbf87e1a6	-1.0615737
23	0xbf3ba1c0	-0.73293686
24	0xbf1f50f9	-0.6223293
25	0x3f395158	0.72389746
26	0x3f0fedf5	0.5622247
27	0x3ee73d8d	0.45164147
28	0xbf6a2458	-0.91461706
29	0xbc1f2832	-0.009714173
30	0xbe5dde01	-0.21666719
31	0xbd734927	-0.059395935
32	0xbe5cae1b	-0.21550791
33	0xbe9aa02e	-0.30200332
34	0x3f9ffdaa	1.2499287
35	0x3e92e36d	0.28689137
36	0x3efd9bc2	0.49532896
37	0x3eb5c1ce	0.35499424
38	0xbf70bfcd	-0.94042665
39	0x3f3225a2	0.69588673
40	0x3f51cfa8	0.81957483
41	0xbf7884bd	-0.9707754
42	0xbf8ef04e	-1.1167085
43	0x3e2ac1a6	0.16675434
44	0x3ef20fa1	0.4727755
45	0x3e8034b0	0.25040197
46	0xbda9e20a	-0.08295067
47	0x3e770829	0.24124207
48	0xbe4a659e	-0.19765326
49	0xbd9b22f0	-0.07575023
50	0xbd60a573	-0.054845285
51	0x3ede79d7	0.4345233
52	0x3eaa4f76	0.3326375
53	0x3e882cb8	0.26596618
54	0x3f7cf5b4	0.98812413
55	0xbcd162ff	-0.0255599
56	0xbeb13d73	-0.34617195
57	0xbe197e53	-0.14989595
58	0x3f4340c8	0.76270723
59	0xbf0a7355	-0.5408223
60	0x3d2afd6e	0.041745596
61	0xbdac1147	-0.08401733
62	0xbef8ef50	-0.4862008
63	0x3b96cd9d	0.0046021477
64	0x3e3b901c	0.18316692
65	0x3e0b6fb8	0.13616836
66	0x3e08d7f6	0.13363633
67	0x3f3734e1	0.7156506
68	0xbc4466ab	-0.011987369
69	0xbda01eaa	-0.07818349
70	0xbe33f189	-0.17572607
71	0xbd6316aa	-0.055441536
72	0xbf60c565	-0.878012
73	0x3f05e3ef	0.52300924
74	0xbf4c0f06	-0.79710424
75	0x3ed5ced7	0.4175937
76	0x3fab030e	1.3360307
77	0x3e1b0299	0.1513771
78	0xbf1834d3	-0.59455603
79	0x3f02117f	0.50807947
80	0xbf64f90d	-0.8944252
81	0xbefa1c79	-0.48849848
82	0x3e58011b	0.21094172
83	0xbeab7fd3	-0.3349596
84	0x3dd99206	0.10623555
85	0x3f4ef65e	0.80844676
86	0xbdadc81e	-0.08485435
87	0xbe59ba9f	-0.21262597
88	0x3e9c5704	0.30535138
89	0xbebc9a30	-0.36836386
90	0x3d819779	0.06327719
91	0x3ef9d223	0.48793134
92	0xbe130a29	-0.14359345
93	0x3ed8056e	0.42191643
94	0x3eda5d80	0.4264946
95	0xbf1918d0	-0.59803486
96	0xbe5c0a06	-0.21488199
97	0xbec60488	-0.38675332
98	0x3c83836b	0.016053876
99	0x3ed86af8	0.4226911
100	0x3e94ccb6	0.29062432
101	0x3e4b2a71	0.19840409
102	0xbf19e013	-0.60107535
103	0xbe997d92	-0.29978615
104	0xbee338d2	-0.44379288
105	0x3ee0b495	0.43887773
106	0xbe84fe91	-0.2597547
107	0x3e4ed9fd	0.20200343
108	0xbe66fded	-0.22557802
109	0x3e1f7289	0.15571035
110	0x3ebeb94b	0.37250742
111	0xbe6236b1	-0.22091176
112	0x3f2d70b4	0.67750096
113	0x3ea772d5	0.32704797
114	0x3ec33216	0.3812415
115	0xbf65e21c	-0.8979814
116	0xbd96f77a	-0.07371421
117	0xbecfe8ae	-0.40607208
118	0xbe276f19	-0.16350974
119	0x3e357112	0.17718914
120	0xbf296a65	-0.6617797
121	0xbf4301e9	-0.7617479
122	0x3f0b3ddd	0.5439127
123	0x3e620d21	0.22075321
124	0x3f0cd6f3	0.55015486
125	0x3da86fda	0.08224459
126	0xbf511c9a	-0.8168427
127	0x3e07bce3	0.13255648
128	0xbed10b99	-0.4082916
129	0x3f173b81	0.5907517
130	0xbe35f0cd	-0.1776764
131	0x3f92e040	1.1474686
132	0xbe859d06	-0.26096362
133	0x3ef11ff1	0.47094682
134	0xbf6ac319	-0.91703945
135	0x3eaf0b53	0.34188327
136	0x3d19e0d4	0.03756793
137	0xbe5f2f37	-0.21795355
138	0xbe9a2dee	-0.30113167
139	0x3f918bcc	1.1370788
140	0x3f0e6b69	0.55632645
141	0xbdcb992c	-0.099413246
142	0xbf1904bb	-0.59772843
143	0xbe38329b	-0.17988054
144	0x3f58f402	0.84747326
145	0xbfa0e31e	-1.2569311
146	0x3ef1ee79	0.47252253
147	0x3e7a5157	0.24445091
148	0x3e2da21e	0.16956374
149	0xbe458113	-0.19287519
150	0xbf7ee88a	-0.99573576
151	0x3fb47aa2	1.4099925
152	0xbf4f27f1	-0.8092032
153	0x3e8e7a9b	0.27827916
154	0xbe3235b1	-0.17403294
155	0xbea98b79	-0.33114222
156	0x3f6e6450	0.93121815
157	0x3e8647e7	0.26226732
158	0x3f26520b	0.6496894
159	0xbce53ad5	-0.027982155
160	0xbf06fdca	-0.52731
161	0xbfa2d477	-1.2721089
162	0xbedac5f2	-0.42729145
163	0xbed0c42d	-0.4077467
164	0xbeb113f2	-0.3458553
165	0xbebd2db4	-0.3694893
166	0x3f2fac1f	0.6862201
167	0xbe977e3e	-0.29588503
168	0xbed6e375	-0.4197041
169	0xbe945d78	-0.2897756
170	0xbf0692b0	-0.5256758
171	0xbe405698	-0.18783033
172	0xbecb64c5	-0.3972532
173	0xbe21ef4a	-0.15813938
174	0xbeeff3df	-0.46865746
175	0x3fe5e1e1	1.7959558
176	0xbe9e7263	-0.30946645
177	0xbdced032	-0.10098304
178	0xbedf91c0	-0.43665886
179	0xbd611f09	-0.054961238

head_conv.1.depth_wise_1.bias f4 [20]
0	0x3cc2d59b	0.023783496
1	0xbdfc7024	-0.123260766
2	0x3c9f5806	0.019451153
3	0xbc261493	-0.010136741
4	0x3ceba741	0.028766276
5	0xbdf5ed2e	-0.12008129
6	0x3c188d1a	0.009310985
7	0xbd09a952	-0.033608742
8	0x3d90b184	0.070651084
9	0x3c7b3fad	0.015335006
10	0x3dfd82ab	0.123784386
11	0xbdb22566	-0.086985394
12	0xbc93f0a4	-0.018059082
13	0x3cd9e886	0.026600134
14	0x3c8b9a39	0.017041313
15	0x3ccaa6da	0.024737764
16	0xbbce1421	-0.0062890206
17	0xbcb856fb	-0.022502413
18	0x3dcbed4d	0.09957371
19	0x3e179145	0.1480151

head_conv.1.point_wise_2.weight f4 [20, 9, 1, 1]
0	0xbd6ddb50	-0.05807048
1	0x3ecc9bcd	0.39962617
2	0x3d2dd87f	0.042442795
3	0xbe160ae8	-0.14652598
4	0xbe629388	-0.22126591
5	0xbee06dd5	-0.43833795
6	0xbe98752e	-0.297769
7	0xbe7b4f18	-0.2454189
8	0x3f8838b6	1.0642307
9	0x3e2207f7	0.15823351
10	0xbe92b7c4	-0.28655827
11	0xbe4a992c	-0.19784993
12	0x3e889217	0.26673958
13	0xbe605001	-0.21905519
14	0x3e0a1fb5	0.13488658
15	0xbc6abd40	-0.014327347
16	0x3e694c62	0.22783044
17	0xbd6b4e3e	-0.057447664
18	0x3edae236	0.4275071
19	0xbe9af132	-0.30262142
20	0x3f027974	0.5096657
21	0x3e55c690	0.20876527
22	0xbef21a4a	-0.47285682
23	0xbc65df9e	-0.014030365
24	0x3f4cabd5	0.79949695
25	0x3f7549ff	0.95816034
26	0xbebc9ed3	-0.36839923
27	0x3e5f4bb3	0.2180622
28	0x3f59ede1	0.851286
29	0x3e8a9fac	0.27074945
30	0x3df50e61	0.11965633
31	0xbea5c8fe	-0.32379907
32	0xbe1445da	-0.14479771
33	0x3de3d660	0.11124873
34	0x3fc60c71	1.5472547
35	0x3f178ee1	0.5920239
36	0x3e40c6f0	0.18825889
37	0xbe817180	-0.25281906
38	0xbf0d31e0	-0.5515423
39	0xbed00e6f	-0.40636012
40	0x3dd303bf	0.10303449
41	0x3e513f1e	0.20434234
42	0x3e87eb3f	0.26546666
43	0x3e928138	0.2861421
44	0xbececab9	-0.4038904
45	0xbe006eec	-0.12542313
46	0x3f5c189c	0.8597505
47	0x3f306846	0.6890911
48	0xbe6bab47	-0.23014556
49	0x3f4e7a00	0.8065491
50	0x3ef11a0b	0.47090182
51	0x3ec0f559	0.37687185
52	0xbf98565f	-1.1901358
53	0xbef0a63e	-0.47001833
54	0x3e6ea07a	0.23303404
55	0xbf9807d8	-1.1877394
56	0xbedb9239	-0.42884997
57	0x3f1c4e92	0.6105739
58	0xbf094f0e	-0.5363625
59	0x3e8648eb	0.26227507
60	0xbdec920f	-0.11551296
61	0x3e7d42a4	0.24732453
62	0xbe7a0ab7	-0.2441815
63	0xbdc9e1ba	-0.09857507
64	0xbe51ca82	-0.20487407
65	0x3ea37167	0.31922457
66	0xbd03931c	-0.032122716
67	0x3e11ef9b	0.14251558
68	0xbdccc4ef	-0.099984996
69	0xbd63eb77	-0.05564448
70	0xbf1f79fb	-0.622955
71	0x3eb3eb88	0.35140634
72	0x3ed571be	0.4168834
73	0xbed46ba1	-0.41488364
74	0x3f8c58e2	1.0964625
75	0x3d79d481	0.060993675
76	0xbdca0522	-0.0986426
77	0x3e052ec7	0.13006125
78	0x3e2495bd	0.16072746
79	0x3e8eae94	0.27867568
80	0xbe119975	-0.14218695
81	0xbe8320f4	-0.2561108
82	0xbe273a75	-0.16330893
83	0xbdc6377d	-0.09678552
84	0x3d204474	0.039127782
85	0x3f66b40b	0.90118474
86	0xbe63e0b7	-0.2225369
87	0x3dd1d00b	0.10244759
88	0x3e95231e	0.29128355
89	0x3e2ecfee	0.17071506
90	0x3f268639	0.6504856
91	0x3cc51f33	0.024062729
92	0xbf139251	-0.57645136
93	0x3c461bab	0.0120915575
94	0xbf9edfab	-1.2412008
95	0x3ca3265d	0.019915754
96	0xbddc43a3	-0.10755088
97	0xbde871bb	-0.11349817
98	0x3b5f2a7d	0.0034052425
99	0xbf65344f	-0.8953294
100	0xbdb89cfa	-0.09014316
101	0xbc446f3f	-0.011989414
102	0x3e82e5e5	0.2556602
103	0x3d28146f	0.041035112
104	0x3fd2d92e	1.6472528
105	0x3e978b94	0.29598677
106	0x3e7eb943	0.24875359
107	0x3d10c2f5	0.035342176
108	0xbc9d7a7d	-0.019223446
109	0xc006c757	-2.1059167
110	0xbe001fda	-0.1251215
111	0x3e65af18	0.22430074
112	0xbd5f442b	-0.05450837
113	0xbc911ebf	-0.017714856
114	0xbf2221bf	-0.6333274
115	0xbe7531d5	-0.2394479
116	0xbf226904	-0.6344149
117	0x3d60050d	0.054692317
118	0xbd7efb1a	-0.062251188
119	0x3fb6e854	1.4289651
120	0xbe80c619	-0.25151137
121	0x3ee9fd87	0.4570124
122	0xbe0eecf1	-0.13957573
123	0xbddb8963	-0.10719564
124	0x3f30342c	0.6882961
125	0xbcd936a4	-0.026515312
126	0x3e81721a	0.25282365
127	0x3e053f0e	0.13012335
128	0xbe873429	-0.26406983
129	0x3fc5807e	1.5429838
130	0xbf1a9994	-0.6039059
131	0xbd5720c4	-0.052521482
132	0xbe57ce3d	-0.21074767
133	0x3e554db2	0.2083042
134	0xbe948e98	-0.2901504
135	0xbe8c52fa	-0.27407056
136	0x3e4d26c4	0.20034319
137	0x3dac0d01	0.08400918
138	0xbdce3abc	-0.100697964
139	0x3e667fbf	0.22509669
140	0xbe965f55	-0.29369608
141	0xbe5785d9	-0.21047153
142	0xbda37d8a	-0.07982929
143	0x3e447a0d	0.19187184
144	0xbecd2642	-0.4006825
145	0xc023c47f	-2.5588682
146	0x3efc29d8	0.49250674
147	0x3e4608a2	0.1933923
148	0x3f1a9f8e	0.6039971
149	0xbd492136	-0.049103938
150	0xbf0ce1ae	-0.5503186
151	0xc00e74ad	-2.2258713
152	0xbeaca09b	-0.33716282
153	0xbe419120	-0.18903017
154	0x3e9451a3	0.28968534
155	0xbf10b422	-0.5652486
156	0x3d11deb6	0.035612784
157	0x3e2a2a41	0.16617681
158	0xbde16a7a	-0.11006637
159	0x3f353f43	0.70799655
160	0x3c324a7e	0.010882018
161	0xbf968a22	-1.1760905
162	0x3bd9f4c9	0.006651495
163	0xbedd9f5e	-0.4328565
164	0x3efb9e27	0.49144098
165	0xbebbf4e7	-0.36710283
166	0xbf01f22e	-0.5076016
167	0xbf61767f	-0.88071436
168	0x3ce951d7	0.028481407
169	0x3eac9d51	0.33713773
170	0xbe80446b	-0.250522
171	0xbf173ed5	-0.5908025
172	0xbd0666c3	-0.032812845
173	0x3cda874b	0.02667584
174	0xbd417ec9	-0.047240052
175	0xbf2dc541	-0.6787911
176	0x3e871cc3	0.2638913
177	0xbd7f746c	-0.062366888
178	0x3cdd606f	0.027023522
179	0x3d0ded66	0.03465023

head_conv.1.point_wise_2.bias f4 [20]
0	0xbd44c68c	-0.04804091
1	0xbcf850d3	-0.030311977
2	0x3df23c73	0.11827936
3	0xbdc0b8a3	-0.09410217
4	0xbe0be0cd	-0.13659973
5	0x3de3a7a1	0.11115957
6	0xbd49110c	-0.049088523
7	0xbce119b8	-0.027478084
8	0xbd438977	-0.04773852
9	0xbed93892	-0.42425972
10	0x3ecfc9aa	0.40583545
11	0x3df8cc0d	0.121482946
12	0xbe93e799	-0.28887632
13	0xbe81aae0	-0.2532568
14	0x3e7de02f	0.2479255
15	0xbdeb589b	-0.114915095
16	0xbe1d6d01	-0.15373613
17	0xbc2eb069	-0.010662177
18	0x3de7537f	0.112952225
19	0x3dee4ec5	0.11636118

head_conv.1.depth_wise_2.weight f4 [20, 1, 3, 3]
0	0x3f2955bf	0.66146463
1	0xbde98bc0	-0.11403608
2	0x3e847432	0.258699
3	0x3ed76e26	0.42076224
4	0xbf0992e3	-0.53739756
5	0xbe8ce1b9	-0.27515963
6	0xbead4bc8	-0.3384688
7	0xbe408e13	-0.18804197
8	0x3d9d724d	0.07687817
9	0x3edd5ebe	0.43236345
10	0xbf12ed51	-0.57393366
11	0x3d6cf462	0.05785025
12	0x3efa60ad	0.48901883
13	0xbea5c82d	-0.32379285
14	0x3ed3a9ee	0.41340584
15	0xbe17defa	-0.14831153
16	0xbee1b5d3	-0.44084033
17	0x3e019a12	0.1265643
18	0x3ea7966d	0.32731953
19	0x3d294fcf	0.041335877
20	0xbd79ab4e	-0.060954385
21	0xbd477b9a	-0.04870186
22	0x3dfcda02	0.12346269
23	0xbe1f5a17	-0.1556171
24	0xbbb7a2fe	-0.005604147
25	0xbc8d07c8	-0.017215624
26	0x3e80df4b	0.2517036
27	0x3f84c67c	1.0373073
28	0xbf62b879	-0.8856273
29	0xbe746169	-0.23865284
30	0x3f121c3a	0.5707432
31	0xbeb3c690	-0.3511243
32	0xbe6d9bf7	-0.23204027
33	0xbf6e7fd0	-0.93163776
34	0x3f3f6652	0.74765503
35	0xbd58ae5d	-0.05290066
36	0x3ee1f30c	0.44130743
37	0xbf17879e	-0.5919131
38	0xbef875e0	-0.4852743
39	0xba02e879	-0.00049937476
40	0xbd36dab4	-0.044642165
41	0xbe962f26	-0.29332846
42	0x3ec5f01c	0.3865975
43	0x3f187701	0.59556586
44	0x3e7e1919	0.24814261
45	0x3ede046e	0.43362755
46	0xbe89575d	-0.26824465
47	0x3e2bf950	0.16794324
48	0xbe05cf85	-0.13067444
49	0xbf51496c	-0.8175266
50	0xbe8e576e	-0.2780108
51	0x3ec1decb	0.3786529
52	0x3e11c59b	0.14235537
53	0x3e92e05e	0.28686804
54	0xbdeb5056	-0.11489932
55	0xbee04ecb	-0.43810114
56	0xbe8bb915	-0.27289644
57	0x3f49ef33	0.78880614
58	0x3e76d63c	0.24105161
59	0x3f71a28d	0.9438866
60	0x3df9f5ce	0.12205087
61	0xbf112598	-0.5669799
62	0xbf17da31	-0.5931731
63	0xbdb83b3b	-0.08995672
64	0xbe4d265f	-0.20034169
65	0xbe5771a8	-0.2103945
66	0x3c412e13	0.01179077
67	0x3eb1c099	0.34717253
68	0x3eecc544	0.46244252
69	0xbe8232f4	-0.254295
70	0x3ed75be6	0.420623
71	0xbf1578eb	-0.5838763
72	0xbe782d8d	-0.24236126
73	0x3f0da835	0.5533479
74	0x3d1b4d30	0.03791541
75	0x3f4e69e9	0.80630356
76	0xbfb587a0	-1.4182014
77	0x3f1eb365	0.61992484
78	0xbed143af	-0.4087195
79	0x3f3c2788	0.7349782
80	0xbc787285	-0.015164022
81	0xbf151f79	-0.5825115
82	0x3f5cf2db	0.8630807
83	0x3f083796	0.5320982
84	0xbf86beda	-1.0526993
85	0x3f86bc06	1.052613
86	0x3e21facd	0.15818329
87	0xbe8ddb7d	-0.2770652
88	0xbf0cf67d	-0.5506361
89	0xbd986945	-0.074419536
90	0x3e635776	0.22201332
91	0xbdb55184	-0.088534385
92	0x3e970470	0.29495573
93	0xbde0c5e8	-0.109752476
94	0xbfd59dea	-1.6688817
95	0xbcd3dd2d	-0.0258623
96	0x3eb4b7aa	0.35296375
97	0x3e0bc031	0.13647534
98	0x3e299175	0.16559394
99	0x3f58aec2	0.8464166
100	0xbee779c5	-0.4521009
101	0x3f515235	0.8176606
102	0xbeef7786	-0.46770877
103	0xbe2383d8	-0.15968263
104	0xbed46030	-0.41479635
105	0x3f4fe65d	0.8121088
106	0xbee88f20	-0.45421696
107	0x3f50b02e	0.8151883
108	0xbf1f3b87	-0.62200207
109	0x3f1eaf17	0.61985916
110	0x3ee0433d	0.438013
111	0xbe33c2cc	-0.17554778
112	0xbe4b36d2	-0.19845131
113	0xbf077a36	-0.52920854
114	0xbdddccd2	-0.10830082
115	0x3f191bca	0.5980803
116	0x3f1ddb7b	0.61663026
117	0x3f63bc68	0.8895936
118	0x3e0f31ed	0.13983889
119	0x3e2323dc	0.15931648
120	0x3f5c158e	0.8597039
121	0xbf7536c6	-0.957867
122	0xbf120037	-0.5703158
123	0xbedb18ed	-0.42792454
124	0x3d3093fb	0.043109875
125	0xbe5bc0bf	-0.21460246
126	0x3e6b8329	0.22999252
127	0x3f433894	0.76258206
128	0xbf46ecb5	-0.77704936
129	0x3efdbefe	0.49559778
130	0x3fc4216e	1.5322702
131	0xbf8cbbc7	-1.0994805
132	0xbf3b9e3e	-0.73288333
133	0xbfac222e	-1.3447931
134	0x3f4dbc47	0.80365413
135	0xbf139832	-0.57654107
136	0x3d4176cb	0.04723243
137	0xbdfd9e45	-0.12383703
138	0x3c7edd81	0.01555574
139	0x3f3d2fbd	0.7390097
140	0x3e4cc674	0.19997579
141	0xbe739e83	-0.23790936
142	0x3cf30a17	0.029667897
143	0xbea44897	-0.32086632
144	0xbf79a9bf	-0.97524637
145	0x3fb5f652	1.4215796
146	0x3eca151d	0.39469233
147	0x3f11c024	0.5693381
148	0xbe148ff4	-0.14508039
149	0xbe97f7fc	-0.29681385
150	0x3ef58832	0.4795547
151	0xbfa436d1	-1.2829229
152	0xbeb67019	-0.356324
153	0x3ee57619	0.44816664
154	0x3de75465	0.11295394
155	0xbdb399fc	-0.087696046
156	0x3f32806f	0.69727224
157	0x3e080d63	0.13286357
158	0xbf955a6d	-1.1668221
159	0x3eac4cdb	0.33652386
160	0xbe59bbd7	-0.21263061
161	0xbd7c57f4	-0.061607316
162	0x3dd04d6e	0.101710185
163	0x3dbb1a2b	0.091358505
164	0x3eacc731	0.3374572
165	0xbdb23232	-0.0870098
166	0xbfb7daef	-1.4363688
167	0x3e33bb04	0.1755181
168	0x3ecb93a8	0.3976109
169	0xbda73515	-0.081644215
170	0x3edb0797	0.42779228
171	0x3d58bbb3	0.05291338
172	0xbcd2c54e	-0.025728848
173	0x3e0db625	0.13839014
174	0x3e21dbfe	0.15806577
175	0xc0188d73	-2.3836334
176	0xbddf62a0	-0.10907483
177	0x3d5a50bd	0.053299654
178	0x3d8af9ae	0.06785904
179	0x3dc571ed	0.0964087

head_conv.1.depth_wise_2.bias f4 [20]
0	0x3cc2d59b	0.023783496
1	0xbdfc7024	-0.123260766
2	0x3c9f5806	0.019451153
3	0xbc261493	-0.010136741
4	0x3ceba741	0.028766276
5	0xbdf5ed2e	-0.12008129
6	0x3c188d1a	0.009310985
7	0xbd09a952	-0.033608742
8	0x3d90b184	0.070651084
9	0x3c7b3fad	0.015335006
10	0x3dfd82ab	0.123784386
11	0xbdb22566	-0.086985394
12	0xbc93f0a4	-0.018059082
13	0x3cd9e886	0.026600134
14	0x3c8b9a39	0.017041313
15	0x3ccaa6da	0.024737764
16	0xbbce1421	-0.0062890206
17	0xbcb856fb	-0.022502413
18	0x3dcbed4d	0.09957371
19	0x3e179145	0.1480151

head_conv.2.point_wise_1.weight f4 [32, 20, 1, 1]
0	0x3f4aa8a4	0.79163575
1	0x3e0f9a42	0.14023688
2	0xbe4ee99f	-0.20206307
3	0xbf6e40ee	-0.93067825
4	0xbf1f8ff0	-0.62329006
5	0xbf39f144	-0.7263377
6	0xbeda8a2d	-0.42683545
7	0xbe473d55	-0.1945699
8	0x3ce8cccc	0.028417967
9	0xbf95eeec	-1.1713538
10	0xbcdae628	-0.026721075
11	0x40080db7	2.125837
12	0x3f093f2d	0.53612024
13	0x3fe7bfd4	1.8105416
14	0xbf05a363	-0.52202433
15	0xbf9b341c	-1.2125278
16	0x3f3c677b	0.735954
17	0xbfbff4bc	-1.4996562
18	0x3e9dc4ec	0.30814302
19	0xbeb41ac3	-0.35176668
20	0x3f08fdfd	0.53512555
21	0x3f9e8db6	1.2386997
22	0xbbc1568a	-0.005900209
23	0x3e54f068	0.20794833
24	0xbf162376	-0.5864786
25	0x3f49be99	0.78806454
26	0xbd4d34d1	-0.050099198
27	0xbd099d7a	-0.033597447
28	0xbe8b3676	-0.27189988
29	0xbdbbe446	-0.09174399
30	0xbeea8a9e	-0.45808882
31	0x3d8d4280	0.068974495
32	0xbe588ee3	-0.21148257
33	0xbc457098	-0.01205077
34	0xbf6803c9	-0.90630776
35	0x3dca5321	0.09879137
36	0xbd74d6c7	-0.05977514
37	0x3e5252e0	0.20539427
38	0x3f039dee	0.51412857
39	0x3dc35b13	0.095388554
40	0x3cc3a3d4	0.02388183
41	0xc049a8f2	-3.1509366
42	0x3f4d42a4	0.8017981
43	0x3e7f86cb	0.24953763
44	0xbd85a270	-0.06525123
45	0x3f483de6	0.7821945
46	0x3eadc46f	0.3393893
47	0xbf0e22d7	-0.5552191
48	0xbea45372	-0.32094914
49	0x3cc499aa	0.023999054
50	0xbf019145	-0.5061229
51	0x3e154a7c	0.14579195
52	0x3e1fbbf2	0.15599039
53	0xbe2cd7b1	-0.16879155
54	0xbf12d115	-0.57350284
55	0x3e8ed5b9	0.27897432
56	0xbdf67e36	-0.120357916
57	0x3ea03a89	0.3129466
58	0x3f39f885	0.72644836
59	0xbda41349	-0.08011491
60	0xbe4a296e	-0.19742367
61	0x3ea451ef	0.3209376
62	0x3fa102d6	1.257899
63	0x3d211c85	0.03933384
64	0x3e0bd55a	0.13655606
65	0x3e885a8e	0.26631588
66	0xbd2f7518	-0.04283628
67	0xbf3def7b	-0.74193543
68	0x3cabf742	0.020991925
69	0x3e981c22	0.29708964
70	0x3eb980cb	0.36231074
71	0xbdb55ad9	-0.088552184
72	0xbdf41c23	-0.11919429
73	0x3e0a30f2	0.13495234
74	0x3eb5e16b	0.35523543
75	0xbe2d9a46	-0.16953382
76	0xbd3d0168	-0.04614392
77	0xbcf0a725	-0.029376576
78	0xbf10c550	-0.56551075
79	0x3eeb23bc	0.459257
80	0xbf13b52d	-0.5769833
81	0x3dfb2ef7	0.12264817
82	0x3e05fc18	0.13084447
83	0xbda2618b	-0.07928761
84	0x3d45464f	0.048162755
85	0xbe866ca1	-0.26254752
86	0x3e33793b	0.17526715
87	0x3b6e62c6	0.0036374792
88	0xbe332c69	-0.1749741
89	0x3ea1d79d	0.31609812
90	0xbf16be24	-0.5888388
91	0x3f824816	1.0178249
92	0x3e03967b	0.12850372
93	0x3dd277b6	0.10276739
94	0x3e795cae	0.2435176
95	0x3ea9536e	0.33071464
96	0x3dbd47f0	0.092422366
97	0x3f8e6215	1.1123682
98	0x3e61eb8c	0.2206251
99	0xbeb2c69b	-0.3491715
100	0x3de34d5a	0.11098738
101	0xbe35d85d	-0.17758317
102	0x3e2824da	0.16420308
103	0xbdae57ca	-0.08512838
104	0xbe5ad508	-0.21370327
105	0x3e9ab8c8	0.30219102
106	0xbf8c767c	-1.0973659
107	0xbf249287	-0.64286083
108	0x3d25729d	0.040392507
109	0x3f1f5fed	0.62255746
110	0xbe509264	-0.20368344
111	0x3e2004c6	0.15626821
112	0xbe80e3b6	-0.2517373
113	0xbfa1e934	-1.2649293
114	0x3e612088	0.21985066
115	0x3fc4f45e	1.5387075
116	0xbf48515d	-0.7824915
117	0xbf85bf4e	-1.0449007
118	0xbe2a02b9	-0.16602601
119	0x3d2e73fd	0.042591084
120	0xbe8717b1	-0.26385263
121	0x3e83d030	0.25744772
122	0xbd9114af	-0.07084023
123	0x3f3d0064	0.7382872
124	0x3d7e4179	0.06207416
125	0xbb0534d4	-0.0020325677
126	0x3e22da8d	0.15903683
127	0x3e02074b	0.12698095
128	0x3e12c8e2	0.14334443
129	0x3e07bc84	0.13255507
130	0x3d5b01b8	0.053468436
131	0xbd6456b0	-0.055746734
132	0xbd97e5ed	-0.07416902
133	0x3e4c3ef0	0.19945884
134	0xbe3aa6f5	-0.18227752
135	0x3e17dcd8	0.14830339
136	0xbeb57586	-0.35441226
137	0x3e0b609d	0.13611074
138	0xbe7803cb	-0.24220197
139	0xbd950988	-0.072772086
140	0x3e05dcd4	0.1307252
141	0xbeeb33f8	-0.45938087
142	0xbe3326bc	-0.17495245
143	0x3d9fcdfd	0.07802961
144	0xbdaf92fb	-0.08572956
145	0xbe03ad78	-0.12859142
146	0xbdd01e27	-0.10162001
147	0xbe58dd6f	-0.2117822
148	0x3e964a76	0.29353684
149	0xbe27ce99	-0.16387405
150	0x3d0b060a	0.033941306
151	0x3cceccb8	0.025244102
152	0xbeac757d	-0.33683386
153	0xbed23505	-0.41056076
154	0x3e14c17b	0.14526932
155	0xbdab4f6d	-0.08364759
156	0xbdccec15	-0.100059666
157	0xbe2af5c2	-0.16695312
158	0x3e853b31	0.26021722
159	0x3cab9812	0.020946536
160	0x3c97861c	0.018496566
161	0x3c86c730	0.016452402
162	0xbc91efb9	-0.017814504
163	0x3dfb3577	0.12266057
164	0x3d33201c	0.043731794
165	0x3e9194b7	0.28433773
166	0x3e43a2f1	0.19105126
167	0xbdc03925	-0.093858995
168	0x3f0af0fe	0.54273975
169	0x3d9d108e	0.07669173
170	0x3f2e57c8	0.68102694
171	0xbe51bb0a	-0.20481506
172	0x3e4d7706	0.20064935
173	0x3cf58198	0.029969022
174	0x3e7119cd	0.23544998
175	0xbd205ded	-0.039152075
176	0xbd459638	-0.048238963
177	0xbd948310	-0.07251561
178	0xbda12a8e	-0.07869445
179	0x3e12a336	0.14320073
180	0x3f39d326	0.7258781
181	0xbed1a555	-0.4094645
182	0xbe1cd4bd	-0.15315528
183	0xbeb62cde	-0.35581106
184	0xbedd9f14	-0.4328543
185	0xbf883920	-1.0642433
186	0x3c73c41b	0.014878298
187	0xbe97174c	-0.29509962
188	0x3f39df87	0.726067
189	0x3ed98a78	0.42488456
190	0xbd672e71	-0.056440774
191	0xc03b6aa0	-2.9283829
192	0xbe17448d	-0.14772244
193	0x3f9a31fa	1.2046502
194	0xbf47b2e3	-0.78007334
195	0x3ec867bb	0.3914164
196	0xbedcf895	-0.43158403
197	0x3eb488df	0.35260674
198	0x3e9badb7	0.3040597
199	0x3f0e2c96	0.5553678
200	0x3f2f75ea	0.685393
201	0x3e935491	0.28775457
202	0xbe2981a2	-0.16553357
203	0xbeca49c9	-0.3950942
204	0xbfb3748d	-1.4019943
205	0x3ee2e9df	0.44319054
206	0x3daf23c6	0.08551745
207	0xbf0ab129	-0.54176575
208	0x3e8dfbe5	0.27731243
209	0xbf0efbd5	-0.55853015
210	0x3b2f383e	0.0026736404
211	0x3f453038	0.770267
212	0x3e3e00ca	0.18554989
213	0x3e705c93	0.23472814
214	0x3ed823cf	0.4221482
215	0x3d50b91a	0.050957777
216	0x40058a63	2.0865715
217	0xb954e5e6	-0.0002030354
218	0x3f11abc9	0.5690275
219	0xbe899ca5	-0.26877323
220	0xbf58e970	-0.847312
221	0x3eef1d3e	0.46701998
222	0x3e885236	0.26625222
223	0x3f2bfd18	0.67183065
224	0xbec12a88	-0.3772776
225	0xbf43e1c0	-0.7651634
226	0xbf9ac977	-1.2092732
227	0x3eb192aa	0.34682208
228	0xbefd825d	-0.49513522
229	0xbccac2ff	-0.024751185
230	0xbd29e211	-0.04147536
231	0xbd8c87a7	-0.06861811
232	0xbdbfd5b8	-0.093669355
233	0x3f114e7a	0.5676037
234	0xbe5d9bd7	-0.2164148
235	0xbe486581	-0.1956997
236	0xbe95fef4	-0.29296076
237	0x3c42b147	0.0118830865
238	0x3da3f870	0.0800637
239	0xbd66a133	-0.056306075
240	0xbf3b5ea7	-0.73191303
241	0x3efa8b43	0.48934373
242	0x3ea63640	0.32463264
243	0x3ef346b5	0.47514883
244	0x3e29d0f6	0.16583619
245	0x3ef1b140	0.47205544
246	0xbcc9f3e7	-0.024652435
247	0xc0008061	-2.0078356
248	0x3dbc026a	0.09180148
249	0xbe5be90f	-0.21475624
250	0x3fcd6e4d	1.6049286
251	0xbeb883cd	-0.36038056
252	0x3bbcd47b	0.0057626343
253	0x3e3588d0	0.17727971
254	0x3f0e74a8	0.55646753
255	0xbd7bdc3c	-0.06148933

head_conv.2.point_wise_1.bias f4 [32]
0	0x3dcade3c	0.09905669
1	0x3df9200e	0.12164317
2	0xbfab45e1	-1.33807
3	0x3d15a0a5	0.036530156
4	0x3e30a0d4	0.17248851
5	0x3e837753	0.25676975
6	0xbe0369cf	-0.12833332
7	0x3e470239	0.19434442
8	0xbdf9e8dc	-0.122026175
9	0x3efd7166	0.4950058
10	0x3e49cd6a	0.19707265
11	0xbcc16db7	-0.023611886
12	0x3f97575c	1.1823535
13	0xbf567a1d	-0.8378008
14	0xbe6422b6	-0.22278866
15	0x3dd5c127	0.104372315
16	0x3ec17d14	0.3779074
17	0xbf2cdaa0	-0.67521095
18	0x3f8f90e7	1.1216096
19	0x3ed4d917	0.41571876
20	0x3f358c0c	0.7091682
21	0xbe394b98	-0.18095243
22	0x3f4fc727	0.8116326
23	0xbe86254e	-0.26200336
24	0x3bc510de	0.0060139736
25	0xbe8ecee1	-0.2789221
26	0xbde4b077	-0.111664705
27	0xbe86b036	-0.26306313
28	0xbcd32a6a	-0.02577706
29	0x3e6863fa	0.22694388
30	0xc0718e6b	-3.7743175
31	0x3cdb862e	0.02679738

head_conv.2.depth_wise_1.weight f4 [32, 1, 3, 3]
0	0x3ec2a492	0.38016182
1	0x3e2107eb	0.15725677
2	0x3d01f7dc	0.031730518
3	0xbf1dcd3a	-0.61641276
4	0x3dda9afb	0.106740914
5	0xbdb3ef21	-0.087858446
6	0x3d8e66da	0.06953211
7	0xbed713ad	-0.420072
8	0xbe80fee2	-0.2519446
9	0x3ecb9542	0.39762312
10	0x3e5559ae	0.20834991
11	0x3dc94b0c	0.09828767
12	0x3ddfaf6c	0.10922131
13	0xbf2be979	-0.67153126
14	0xbea88c06	-0.3291933
15	0x3edfb5c0	0.43693352
16	0x3e9a7cf2	0.3017345
17	0x3b82bdb5	0.0039899
18	0xbe7ec782	-0.24880794
19	0xbe3fbecd	-0.18725128
20	0xbe8c3245	-0.27382103
21	0x3d3b5b2a	0.045741238
22	0x3fb54888	1.416276
23	0xbe1ce46a	-0.15321508
24	0x3e1d3d3b	0.15355389
25	0x3e6021b8	0.21887863
26	0xbd4ced83	-0.050031196
27	0x3e778103	0.24170308
28	0x3e88fae7	0.26753923
29	0xbd219e9a	-0.039457895
30	0xbec35356	-0.38149518
31	0xbf8f0493	-1.1173271
32	0x3e904296	0.281758
33	0xbdc6ab9b	-0.097007
34	0xbe0a5e22	-0.13512471
35	0x3db77a4e	0.08958875
36	0x3e4c6084	0.19958693
37	0x3d04677a	0.032325245
38	0x3f0aac14	0.5416882
39	0xbd2eb67b	-0.042654496
40	0xbca12224	-0.0196696
41	0x3beb403e	0.007179289
42	0x3e898993	0.26862773
43	0x3e15cae5	0.1462818
44	0x3e9e5d65	0.3093063
45	0x3e56fcda	0.20994893
46	0x3d85fe39	0.0654263
47	0xbd350c93	-0.044201445
48	0x3d250668	0.040289313
49	0xbe19fdc4	-0.1503821
50	0xbea9a634	-0.33134615
51	0xbf3b55e2	-0.7317792
52	0xbda44504	-0.08020976
53	0x3f04d3d4	0.51885724
54	0xbeb60cc1	-0.35556605
55	0xbde504aa	-0.1118253
56	0x3dbbcb5d	0.09169648
57	0xbd9a79b2	-0.07542743
58	0x3eeade94	0.4587294
59	0xbe26012f	-0.16211389
60	0xbcf005ab	-0.029299578
61	0xbde7320e	-0.11288844
62	0x3e88de70	0.26732206
63	0xbd87c9c3	-0.0663028
64	0xbeeab1ad	-0.4583868
65	0x3db4a65e	0.088207945
66	0xbe698534	-0.22804719
67	0x3ea0fc10	0.31442308
68	0x3d9617b4	0.0732874
69	0x3c99c773	0.018771863
70	0x3ecd8600	0.40141296
71	0xbd8820cd	-0.06646881
72	0xbde4bce7	-0.11168843
73	0xbea71cf3	-0.32639274
74	0xbdf1a417	-0.11798876
75	0xbea79aad	-0.32735196
76	0x3f90ca6f	1.1311778
77	0xbea22211	-0.31666616
78	0xbe6bdd71	-0.23033692
79	0xbe1a5e34	-0.15074998
80	0xbe48f373	-0.19624119
81	0xbf805375	-1.0025469
82	0x3f2a4a63	0.66519755
83	0x3f02b908	0.51063585
84	0xbf7217fe	-0.9456786
85	0xbe748778	-0.23879802
86	0x3f6deed7	0.92942566
87	0x3e810417	0.25198433
88	0xbe9d47c7	-0.30718824
89	0xbe118425	-0.14210565
90	0xbea52511	-0.32254842
91	0xbf281621	-0.65658766
92	0xbf2f97dc	-0.68591094
93	0xbdd8ff01	-0.10595513
94	0xbee713b1	-0.4513221
95	0xbeb25e26	-0.34837455
96	0x3ed369c0	0.41291618
97	0x3f7f2a6d	0.9967411
98	0x3f40710f	0.75172514
99	0x3eea9147	0.45813963
100	0xbcd1fdab	-0.025633654
101	0xbd845103	-0.06460764
102	0xbc7c9911	-0.015417353
103	0xbea63ec6	-0.32469767
104	0xbde1a298	-0.110173404
105	0x3f029892	0.51014054
106	0xbe1d9450	-0.15388608
107	0xbedf3fb2	-0.43603283
108	0x3fa83fdb	1.3144487
109	0xbf68db73	-0.9095985
110	0x3dceebbd	0.10103557
111	0xbf3816bd	-0.71909696
112	0xbed82387	-0.42214605
113	0xbf34932c	-0.70537066
114	0x3f474529	0.77839905
115	0xbefb78cf	-0.49115607
116	0x3f8c7fc5	1.0976492
117	0x3ebb1342	0.3653813
118	0x3e84e7e5	0.2595817
119	0x3db8911c	0.090120524
120	0x3ee78c11	0.4522405
121	0x3f3daac9	0.7408872
122	0xbd8520ca	-0.06500395
123	0xbdad4f70	-0.08462417
124	0xbdcef59f	-0.10105442
125	0xbd09503f	-0.033523794
126	0x3d6d120c	0.05787854
127	0xbd98775b	-0.0744464
128	0xbe048bab	-0.12943904
129	0x3df8a8a1	0.121415384
130	0x3d014c1a	0.031566717
131	0x3d92e3a5	0.07172326
132	0xbcf6af5d	-0.030112917
133	0x3d6b5846	0.05745723
134	0x3c8031c1	0.015648725
135	0xbe726dd8	-0.23674715
136	0xbdc82d7a	-0.09774299
137	0xbce7bb35	-0.02828751
138	0x3bc8afec	0.006124487
139	0x3f83bd60	1.0292168
140	0xbe2b479a	-0.16726533
141	0xbe9c7aee	-0.30562538
142	0xbd0ccef7	-0.034377065
143	0xbe08e0b0	-0.13366961
144	0x3e4f6472	0.2025316
145	0x3d21f916	0.039544187
146	0x3e10567d	0.14095493
147	0xbd8b26b3	-0.06794491
148	0x3f59dc43	0.8510172
149	0xbc09a106	-0.008400207
150	0x3d8fe3e9	0.07025892
151	0x3b00a038	0.0019626748
152	0x3e4caab2	0.1998699
153	0xbe05ebcc	-0.1307823
154	0xbeaebcc5	-0.34128395
155	0x3d226a5a	0.039652206
156	0xbce307e8	-0.02771373
157	0x40087574	2.1321688
158	0xbe8a2d17	-0.26987526
159	0xbd467cfb	-0.048459034
160	0xbe7f7c1d	-0.24949689
161	0x3d6336ea	0.055472292
162	0xc0c78e98	-6.2361565
163	0x3da4c9e1	0.08046318
164	0x3ed575f8	0.41691566
165	0xc0b245c1	-5.571015
166	0x3ecf9ea1	0.40550712
167	0x3e5709da	0.20999852
168	0xc0790ab8	-3.8912792
169	0xbdbf941a	-0.0935442
170	0x3efb1933	0.49042663
171	0xbd8709a8	-0.06593639
172	0xbde50cee	-0.11184107
173	0xbe86d5d2	-0.26335007
174	0x3ece5615	0.4030005
175	0xbeeea89b	-0.4661301
176	0x3e9518b8	0.2912042
177	0xbec55028	-0.38537717
178	0x3def5e53	0.11687913
179	0xc0c3fa2d	-6.124289
180	0x3f316148	0.69289064
181	0x3e970384	0.2949487
182	0xbe205aed	-0.15659685
183	0xbeff4a48	-0.4986136
184	0xbe6f65c5	-0.23378666
185	0x3e91a5e7	0.28446886
186	0xbe2831fd	-0.16425319
187	0xbdb1d273	-0.08682718
188	0xbeaf9d8f	-0.34299895
189	0xbf1c9035	-0.6115754
190	0xbe5d62eb	-0.21619765
191	0xbe04b9d1	-0.12961508
192	0xbd10243e	-0.035190813
193	0x3e3e4a2b	0.1858298
194	0xbdcb9446	-0.0994039
195	0xbea78f4c	-0.32726514
196	0x3c72ccae	0.014819307
197	0xbcb8bf3e	-0.022552129
198	0xbdde61d5	-0.10858504
199	0x3e57ca4b	0.21073262
200	0xbde61271	-0.11233986
201	0x3e9ff165	0.31238857
202	0xbf9ddd1b	-1.2333101
203	0x3d2e8867	0.042610552
204	0xbd8c90df	-0.068635695
205	0x3de8f989	0.1137572
206	0xbc980a3e	-0.018559571
207	0x3da7afb2	0.08187808
208	0xbcff777b	-0.031184902
209	0x3df14297	0.11780279
210	0x3d831efe	0.06402396
211	0x3e4439a8	0.19162619
212	0xbd5caf9c	-0.05387841
213	0x3d767baf	0.060176548
214	0x3c65d631	0.014028118
215	0xbd7edd60	-0.06222284
216	0x3cbd5687	0.023112549
217	0xbc4306d7	-0.011903486
218	0xbeaceee8	-0.3377602
219	0x3e05cd66	0.13066635
220	0xbe51c7a1	-0.20486309
221	0xbc6fd2b3	-0.014637637
222	0x3dd2936a	0.10282023
223	0xbd20719e	-0.039170854
224	0xbe1192f2	-0.14216211
225	0x3de226e2	0.110425726
226	0x3cd0df8d	0.025497222
227	0x3de781bd	0.113040425
228	0x3d164968	0.0366911
229	0x3cf2395c	0.029568367
230	0xbd84bd38	-0.06481403
231	0xbca1c4fd	-0.019747252
232	0xbd1d3a96	-0.03838595
233	0x3d00a99f	0.031411763
234	0xbcb9e966	-0.0226943
235	0x3eb07515	0.34464327
236	0x3d821eb9	0.06353516
237	0xbd8613f3	-0.06546774
238	0xbe6f58ad	-0.23373671
239	0xbe6dd47c	-0.23225588
240	0x3ed45cf5	0.4147717
241	0xbdd7459d	-0.105113246
242	0x3e73dac5	0.23813923
243	0xbf98a246	-1.1924522
244	0xbf90f234	-1.1323915
245	0x3f2b2c73	0.668647
246	0x3f4a62b9	0.7905689
247	0xbe888576	-0.26664323
248	0x3e395191	0.18097521
249	0x3ee317f8	0.44354224
250	0x3f32321e	0.6960772
251	0x3eade9a3	0.33967313
252	0x3e24f503	0.1610909
253	0xbda0807a	-0.07837005
254	0x3e59fbaa	0.21287408
255	0xbe112200	-0.14173126

head_conv.2.depth_wise_1.bias f4 [32]
0	0x3d697e5e	0.05700528
1	0x3e43ee3d	0.1913385
2	0x3996e382	0.00028779736
3	0x3e98f7ce	0.2987656
4	0x3f0c9c8c	0.5492637
5	0x3c90fb08	0.017697826
6	0x3e48646a	0.19569555
7	0x3eaab3ce	0.33340305
8	0x3f32ec7f	0.69892114
9	0x3d17281c	0.036903486
10	0xbbf988ab	-0.007615169
11	0x3dcaf59e	0.09910129
12	0x3e87459d	0.26420298
13	0x3c1ed0d5	0.009693344
14	0xbe8b0f98	-0.27160335
15	0x3f273ddf	0.6532878
16	0x3da20741	0.0791154
17	0xbdca6d7c	-0.09884164
18	0x3ef2920b	0.47377047
19	0x3eaf7152	0.34266144
20	0xbdc25be0	-0.0949018
21	0x3f19adf3	0.6003105
22	0x3e192242	0.14954475
23	0xbf0f250e	-0.55915916
24	0x3f09ed12	0.53877366
25	0xbf03803f	-0.51367563
26	0xbd44bc0a	-0.04803089
27	0x3d612d0c	0.0549746
28	0x3f4895b1	0.7835341
29	0xbcee6e01	-0.029105188
30	0xc0189a60	-2.3844223
31	0x3c77b014	0.015117664
