codes/Weights/wv3/weight-600.pth (torch, 92405 bytes, 80 tensors)

head_conv.0.point_wise_1.weight f4 [9, 9, 1, 1]
00000000: dd06 df3e 19db 31bf af8e 5b3f 1f69 f8be
00000010: ab2b 71bd fa8c 77bf 75e1 bc3b 6b0c 33bf
00000020: 40d1 8f3e d710 6cba f08c 0cbe ebfd 92be
00000030: ee8c 4a3e c3a3 08bf 0ea4 d73f 1009 1dc0
00000040: 6e60 8bbf 8a87 0c40 6173 c93d bb6a 0ac0
00000050: 0ef2 07c0 4ce1 dd3f 6382 84bf 9802 b2be
00000060: 54e4 47bc 84cf f23e 5f77 aabe 13a1 bfbb
00000070: 4bbd b9bf 5e44 97bf 299f afbe 2b3e edbe
00000080: 26b4 9abf 38a5 52bf fa1c 2f40 639d d63f
00000090: fe35 2cbf 2657 c4bf 79eb 993f dce1 2e3f
000000a0: 8033 afbf d328 0bc0 77df c43f cc26 1fbf
000000b0: 6722 f3bd 511f 12c0 d1c6 293f ef3c cbbe
000000c0: ac9b d1be 46ab d33f c01a 1a3e 76c1 383e
000000d0: 110c e13e 288a 2f3f b072 4b3d f1b2 e7bf
000000e0: e156 d7bf bc55 95bf e665 123f 5dd3 5f3f
000000f0: 060c 2040 feb9 b0bf 1b55 863e 3b12 5b3c
00000100: e180 13bf a172 49be 9bac 9d3f e7d1 b13e
00000110: 8e9f afbe 61c5 0bc0 8fcf babf 5c16 8040
00000120: 7671 4cbd 449c ea3e ced1 88bf 160c 8ebd
00000130: c5c8 2540 5706 22c0 a9be aabd c96c 74bf
00000140: 5d6e c73f
0.43559924 -0.6947494 0.8576459 -0.485177 -0.058879536 -0.9669949 0.0057641813 -0.69940823
0.28089333 -0.0009005195 -0.13725638 -0.2870935 0.19780323 -0.5337488 1.684694 -2.4536781
-1.0888803 2.1957726 0.0983646 -2.1627643 -2.1241488 1.733438 -1.0352291 -0.34767604
-0.012200434 0.47423947 -0.33294198 -0.005848059 -1.4510893 -1.1817739 -0.34301117 -0.46336493
-1.2086227 -0.82283354 2.7361436 1.6766781 -0.67269886 -1.5339096 1.2024986 0.68313384
-1.3687592 -2.1743667 1.5380696 -0.62168574 -0.11871796 -2.2831614 0.66318995 -0.39694926
-0.4093908 1.6536644 0.15049267 0.1804255 0.43954518 0.68570185 0.04966992 -1.8101484
-1.6823388 -1.1666789 0.57186735 0.8743189 2.5007339 -1.380676 0.26236805 0.013371046
-0.5761853 -0.19672634 1.23183 0.34730455 -0.34301418 -2.183922 -1.4594592 4.0027294
-0.049912892 0.45822346 -1.0689027 -0.06935899 2.590379 -2.531637 -0.08337147 -0.9547849
1.5580555

head_conv.0.point_wise_1.bias f4 [9]
00000000: 3bff 2d3e ce2f 1d3e 3bba 9f3e 6728 143d
00000010: cc91 793e 4b3c 383c 99d0 d03e 6e89 77bd
00000020: 05f8 453d
0.16991894 0.15350267 0.3119677 0.036171343 0.24372023 0.011244844 0.40784147 -0.060433798
0.048332233

head_conv.0.depth_wise_1.weight f4 [9, 1, 3, 3]
00000000: b6d4 d83e 5921 303e da6c 6b3e 353f 30bd
00000010: 3bba afbf 812f 163e db69 bfbc 665b d6bc
00000020: 9ba0 713e c3c9 5a3e ea47 2dbf 2387 c03e
00000030: ffff 33bf 7e12 e1bf 2219 85bd 3c1a ea3d
00000040: 4c6b c3be 503f 513e 1ff4 673e 15fa 183f
00000050: db39 96bd 5529 5e3f d2e0 e43e 6e3d 303f
00000060: 1c45 14bd b2a4 193f b278 06bf 176d 203f
00000070: f422 8abf b19e 94be 02d2 a6bf 65a1 0e40
00000080: 661a 303f a6d6 ddbe 8f91 2c3f 70e2 0bbe
00000090: d9ff 29bd b00d a83d d3cd 18be 2b4a 9e3d
000000a0: 1039 0f40 6eed cf3d a7dd 9fbd 6bc7 583e
000000b0: bebf c1bd 2a7d 59be 5894 09bf b55a 82be
000000c0: 885b f9be 52a8 bc3d 8cf4 0bbf 2091 81be
000000d0: 9bc5 ecbe cc6e 91be a675 073d bf4a 89bf
000000e0: 1b1e 2a3f 0cbf 293f 89e9 4340 ef44 85bf
000000f0: 0c61 abbe a9e9 493e eb27 c53e 463b 0c3e
00000100: fc5f c9bb d1cb f13e c7dd 2ebf 88d9 25c0
00000110: 1a89 cb3f 5b46 603e cc23 b73e 058c 053f
00000120: a412 14bf a7c4 873d fe8b 8dbe c4f9 a9be
00000130: 93a5 1bbf 7bc7 edbe 8dc7 ce3d 1635 ddbe
00000140: aba8 473e
0.42349786 0.17200221 0.22990742 -0.04302903 -1.3728708 0.14666559 -0.023365906 -0.026166629
0.23596422 0.21366028 -0.6768786 0.376031 -0.70312494 -1.7583768 -0.06498934 0.11430785
-0.381678 0.20434308 0.22651719 0.59756595 -0.07335254 0.8678182 0.44702774 0.68843734
-0.03619872 0.6001693 -0.52527916 0.6266646 -1.0791917 -0.29027322 -1.3032839 2.2286007
0.6879028 -0.43327826 0.67409605 -0.13660598 -0.04150376 0.08205736 -0.14922266 0.0772899
2.2378578 0.10152708 -0.07805949 0.21169822 -0.094604 -0.21239153 -0.5374198 -0.2545983
-0.48702645 0.09211792 -0.54670024 -0.25306034 -0.4624451 -0.28404844 0.033071183 -1.0725936
0.6645219 0.6630714 3.0611289 -1.0411662 -0.33472478 0.1971804 0.38507017 0.13694486
-0.0061454754 0.47225812 -0.68307155 -2.591402 1.5901215 0.21901838 0.35769498 0.5216678
-0.57840943 0.06629305 -0.27645868 -0.3319837 -0.6079952 -0.46441254 0.10096655 -0.43204564
0.19497935

head_conv.0.depth_wise_1.bias f4 [9]
00000000: db21 343e 5a5f e2bc 77b4 1abd 1f52 84bd
00000010: 8d24 ba3d 10ad d1bc 7937 9e3c 9f94 dfb8
00000020: 4226 113d
0.1759104 -0.027633358 -0.03776976 -0.06460976 0.09089003 -0.025595218 0.01931356 -0.000106611515
0.035436876

head_conv.0.point_wise_2.weight f4 [9, 9, 1, 1]
00000000: 5a07 d7bf 9cd7 bc3c e1b7 083e 99f8 753e
00000010: 6327 073f e352 ac3f 8c50 47be 80bd c73e
00000020: 8a13 14bf aa1a 21bc 0a33 53bf 5ef0 5abf
00000030: 7495 6c3e 43b8 c8be 4913 df3f 2e25 dabf
00000040: 3afb 87bf 599c 2040 da20 48bd 85b1 2e40
00000050: 03ec 863f ff45 2ec0 db80 153f bb9d b43e
00000060: e178 97bd 9819 963e 388d 99be c396 113d
00000070: 67e4 8ebe 8423 1c3f 61f4 603f 6551 0bbe
00000080: 15a6 cebf d18d 343f 5c78 713f 4d8f f8bf
00000090: 886d b6b9 e298 89be d800 803f 39c8 dd3e
000000a0: 4229 41be a14c a9bf 30b2 e23f dbba 4ebf
000000b0: a907 3abf d9e6 87be b2fa 8dbd bebd 6a3f
000000c0: 8ec3 b03e c98e 83be a39d 3e3f bf35 71bf
000000d0: e5d1 c13f 5434 e9bf 2174 3fbd 1a53 c5bf
000000e0: 313c 72bf 70e5 acbf 6997 7a3e a0a6 1c40
000000f0: a00d 8d3f d563 b9be faa6 d4be 8357 b83d
00000100: 1692 1940 5239 d6bf be63 bdbe 04be da3f
00000110: b4a1 b7be 39be eabf a058 9e3f d5d4 93bf
00000120: ed7c 59bc 8a72 813f 59d5 0dbf cba3 a73e
00000130: ae08 4e40 c346 3ac0 5c3c 7c3e b9bc 91bf
00000140: 7a30 d23f
-1.6799119 0.02305203 0.13351394 0.24020614 0.52794474 1.3462795 -0.1946432 0.39011765
-0.57842314 -0.009833017 -0.82499754 -0.8552302 0.23103887 -0.3920308 1.742776 -1.7042596
-1.0623543 2.5095427 -0.048859455 2.729585 1.0540775 -2.7230222 0.5839974 0.3527659
-0.07396103 0.293164 -0.29990554 0.03554417 -0.27908632 0.6099169 0.8787289 -0.13605268
-1.6144434 0.70528895 0.9432428 -1.9418732 -0.00034795352 -0.26874453 1.0000257 0.4331682
-0.18863395 -1.322651 1.7710629 -0.8075387 -0.7266794 -0.2654331 -0.06932582 0.91695774
0.34524196 -0.25694874 0.74459285 -0.94222635 1.514218 -1.8219094 -0.04674161 -1.5415986
-0.94623095 -1.3507519 0.24471821 2.44767 1.1019783 -0.36208978 -0.41533643 0.090010665
2.3995414 -1.6736243 -0.3699016 1.7089238 -0.35865557 -1.8339301 1.2370796 -1.1549326
-0.0132744135 1.011308 -0.5540367 0.32742152 3.2192798 -2.910569 0.246324 -1.1385719
1.6421044

head_conv.0.point_wise_2.bias f4 [9]
00000000: c4ef 93bd e5e4 fc3d 543d e8bd 26f4 83bd
00000010: 0112 58bc d3ea e1bd db83 833e cabf 2c3c
00000020: d58c 0dbe
-0.07223466 0.12348346 -0.113398224 -0.06443052 -0.013187886 -0.11031117 0.25686535 0.010543773
-0.13823254

head_conv.0.depth_wise_2.weight f4 [9, 1, 3, 3]
00000000: ff33 983e dd1b 7f3e e33b 2a3e 2794 2f3e
00000010: 87e9 0a40 f79c 3e3e 9408 da3d 6901 1b3e
00000020: 8964 0e3e cc49 183f ad88 42bf 6f5d 4f3f
00000030: 659f 46bf b420 3ec0 1998 4f3f b769 043f
00000040: d14b 7cbf b77c ad3e 7890 603e aeb8 6ebf
00000050: 9754 043f f23c 51bf 8555 1bbe bd24 92bf
00000060: f9e8 93bd b695 a7bf 2ec3 4b3e a385 f9be
00000070: 83bc d2bd 9c55 533f d847 db3e 9a4f 30bf
00000080: d9e5 2c3e 7eb7 983e d7a5 01bd 4fdc 9ebe
00000090: 9c42 593e 7ec9 f5bd e4d5 a23e c1ad 48be
000000a0: 8417 8ebd 46e3 82be 1e38 143f b713 0fbf
000000b0: 125d af3e 6e11 fdbe a03d 31be 06ab 21bf
000000c0: 1d39 d73e c6bd 993f 0cb0 053f eb74 8fbe
000000d0: d0f5 65be 9ca3 0bbf d7de 01bf 3d0e f13d
000000e0: 4ff5 49be c8fb 1f3f e909 793f 382f 11bf
000000f0: 06de adbe 1108 323f 3e07 09bf 4315 48bd
00000100: 0e39 213f fbec 253d f2c7 223f 1846 3040
00000110: d753 2b3f aaeb 0e3d 072c d03e 1ab2 84be
00000120: 09c5 703f 7680 a9bd a910 98be aad4 52bf
00000130: 95ce 26c0 1ec1 31be de23 aebc 1799 cdbf
00000140: dda7 a53e
0.2972717 0.24912973 0.16624407 0.1714636 2.1705034 0.18614565 0.106461674 0.15137257
0.13905539 0.59487605 -0.759898 0.81001943 -0.77586967 -2.970746 0.8109146 0.5172381
-0.98553187 0.33884212 0.2193011 -0.9325055 0.51691574 -0.8173362 -0.15169342 -1.1417462
-0.072221704 -1.3092563 0.19898674 -0.4873477 -0.10289862 0.82552505 0.4282825 -0.6887146
0.16884555 0.29827493 -0.031652298 -0.31027457 0.21216816 -0.12001322 0.3180381 -0.19597532
-0.06938079 -0.2556402 0.5789813 -0.5588946 0.34250695 -0.4942736 -0.17308664 -0.63151586
0.4203576 1.2011039 0.5222175 -0.2801889 -0.22457051 -0.54546523 -0.5073065 0.11770294
-0.19722484 0.6249356 0.97280747 -0.56712675 -0.33958453 0.6954356 -0.53526676 -0.0488484
0.62977684 0.040509205 0.6358634 2.7542782 0.66924804 0.034892716 0.4065859 -0.2591713
0.9405065 -0.08276455 -0.2970021 -0.8235575 -2.6063588 -0.17358825 -0.021257337 -1.6062344
0.32354632

head_conv.0.depth_wise_2.bias f4 [9]
00000000: db21 343e 5a5f e2bc 77b4 1abd 1f52 84bd
00000010: 8d24 ba3d 10ad d1bc 7937 9e3c 9f94 dfb8
00000020: 4226 113d
0.1759104 -0.027633358 -0.03776976 -0.06460976 0.09089003 -0.025595218 0.01931356 -0.000106611515
0.035436876

head_conv.1.point_wise_1.weight f4 [20, 9, 1, 1]
00000000: fb9d d33e 4da3 49bf f2b6 af3f 9216 4a3e
00000010: 7370 abbe 5591 303f 48d5 e13d f004 3d3f
00000020: 2c1c 24bf 2dbf 08be 87f5 c53e dcf0 a63e
00000030: a60e c73f a911 d03e 5d23 71bd 0d99 9abd
00000040: da12 46be 3404 45be e33a 66be ef9c 603f
00000050: 3458 8fbe 25bd 51be 6353 fc3e de79 923d
00000060: aafc 04c0 a983 c5be 59f5 c3be ada5 a9be
00000070: b18e ad3f 21d3 b1be e0ee 90be 8ef3 873f
00000080: 4797 ad3d c5cc 933f 2a20 1c3d d7ea 563e
00000090: bbe8 2bbe ad2a 17bd a59f 5a3e c047 43be
000000a0: ac00 e73e 1945 31bd b7d7 4dbd 4316 653e
000000b0: bf2b 0a3f a91f 5a3e 34ac 29bf 121a 13bf
000000c0: 45a6 323f 5f3b 1abf b0bc 99bd 8aca 05bf
000000d0: ffa2 ab3f 4deb 3d3d 8fe6 85be a89d adbf
000000e0: 60ce 033e ef16 97bd ca5d d73e 0273 cdbd
000000f0: 53b8 4abe 5219 5ebf 2710 f1be 35c9 f13e
00000100: 1f6e cf3e 9568 903f a1bb 2fbf 3dcf 0ebf
00000110: 5edd 5bbd 1840 36bf 84cd 7f3f 9b95 f2bd
00000120: 888e 963e a54d a73d 5a5c 7d3f 7064 193d
00000130: e056 6dbf 6b76 d5bd 72a7 53be f49f 33bd
00000140: 964e 80bd 22d8 1ebe 7d2f 7f3d 531d b9be
00000150: 75f8 46be 0a29 73bd 52c0 91be d78a 98be
00000160: 9a63 0d3d df4d 96bc a764 ea3c 6403 ba3a
00000170: 92c1 babe 65af 7c3e 1ef2 a23e 22cc b73d
00000180: 59a8 ef3d 37fd a73d fac9 0ebf 1164 6bbe
00000190: 3c7d bdbd 021d cbbe f2be 6cbd 5ec5 293e
000001a0: 2668 d33c 64af 29be c05b 1dbf 4ce9 1bbe
000001b0: 424d 97bd 99c5 d3be ff0a 043f a3fd 90be
000001c0: 33b3 bd3d c86d fcbb ebd0 1bbf 6ce8 24bf
000001d0: da92 04bf e384 5b3e ce41 1b3f 03ad 813f
000001e0: e096 02bf 800a 9fbe bd11 86bd 335e 9d3e
000001f0: c9aa a53e 6694 afbf adf9 243d ab7e 58be
00000200: bc3c 49bf 7411 d2bd 213f 21be dd46 d8be
00000210: 89d1 a3be 781a a93e 2c6f 4dbd 6066 30bd
00000220: 3090 1b3f 3942 83bf a6d2 abbc df82 fa3d
00000230: 0e63 e1bc 72e2 c53e cc64 d33e b81c 1fc0
00000240: 31c8 9ebd 2db5 2440 71c8 82bf 9a30 4dbe
00000250: 8f84 d23e a65b 2c3b fec8 813f 0d58 b53f
00000260: 40b8 1d3f 09da 70bd 0602 173e 519d 40bd
00000270: 13ff adbe 36e2 523e 8233 7abe 5345 15be
00000280: c841 133f 0fe2 b13e aa4b 62bf 1d14 4dbe
00000290: 3643 1dbe c256 e0be 74a0 04bf 2f24 38bf
000002a0: 86bb 75be 77fb 123f 2fb2 dc3c 8c2f cb3e
000002b0: 5b71 443b bc52 3c3e 7a60 dfbc 2406 08be
000002c0: 61aa 103f dfe3 d2bd 4910 a5bd eeeb afbd
0.41331467 -0.787648 1.3727705 0.19735172 -0.3348423 0.6897176 0.11027008 0.7383566
-0.64105487 -0.13354178 0.38663885 0.32605636 1.5551345 0.40638474 -0.058871616 -0.07548723
-0.19343129 -0.19239885 -0.22483401 0.8773946 -0.2799698 -0.20482309 0.4928237 0.071521506
-2.0779214 -0.3857701 -0.38273123 -0.33134213 1.3559171 -0.3473139 -0.28307247 1.0621202
0.084761195 1.1546866 0.03811661 0.20988022 -0.16787998 -0.036905933 0.21349962 -0.19070339
0.451177 -0.043278787 -0.05025455 0.22371773 0.53973 0.2130114 -0.66278386 -0.57461655
0.6978496 -0.60246843 -0.075066924 -0.52262175 1.3409117 0.04636698 -0.26152465 -1.3563738
0.12871695 -0.07377421 0.42063743 -0.100317016 -0.19796877 -0.86757386 -0.47082636 0.4722382
0.40513703 1.1281916 -0.68645674 -0.5578497 -0.05367791 -0.7119155 0.99922967 -0.11844941
0.29405618 0.081691064 0.9896904 0.0374493 -0.92710686 -0.10422977 -0.20669344 -0.043853715
-0.06264989 -0.15512136 0.062301148 -0.36155185 -0.19430716 -0.05936531 -0.2846704 -0.29793426
0.034518816 -0.018347679 0.028612448 0.0014191684 -0.36475807 0.24676283 0.31825346 0.08974482
0.11702032 0.08202594 -0.5577694 -0.22987391 -0.09252402 -0.3967057 -0.057799287 0.16579196
0.025806498 -0.16570812 -0.61468124 -0.15225714 -0.07387783 -0.41361693 0.5157928 -0.2831851
0.09262695 -0.0077035166 -0.6086566 -0.6441715 -0.5178658 0.21437411 0.60647285 1.0130924
-0.51011467 -0.31062698 -0.06546352 0.3073593 0.3235686 -1.3717163 0.040277172 -0.2114207
-0.786083 -0.10257235 -0.15746738 -0.42241564 -0.319958 0.33028007 -0.05015485 -0.043066382
0.6076689 -1.0254585 -0.020974468 0.12231993 -0.027513053 0.38649327 0.4128784 -2.4861279
-0.07753027 2.573558 -1.021742 -0.20038071 0.4111676 0.0026299744 1.0139463 1.4167496
0.6160927 -0.058801685 0.14746866 -0.04702503 -0.3398367 0.20594105 -0.24433711 -0.14577226
0.5752225 0.34742782 -0.88396704 -0.20027204 -0.1535767 -0.4381619 -0.5180733 -0.7193021
-0.23997316 0.57414955 0.026940433 0.39684713 0.0029974792 0.18390936 -0.027267683 -0.13283592
0.5650998 -0.10297369 -0.08059747 -0.08589922

head_conv.1.point_wise_1.bias f4 [20]
00000000: c572 7fbd 8b51 ce3e c279 dc3d e519 5a3c
00000010: 7a56 d5bd c060 d03d 799f 27be 6096 e73d
00000020: f720 db3e 172e 9dbd 1cb6 bbbd de8f 06be
00000030: 32fc ca3e b9ec 503e 879a 23be 6680 1cbe
00000040: 1096 8a3c 0f05 5abe 51d6 f1bc c625 3b3d
-0.062365312 0.40296587 0.10765411 0.013311838 -0.10416885 0.101747036 -0.16369428 0.11307979
0.42798588 -0.076748066 -0.09165594 -0.13140818 0.39645535 0.20402803 -0.15976916 -0.15283355
0.016917259 -0.21290992 -0.02952114 0.04569032

head_conv.1.depth_wise_1.weight f4 [20, 1, 3, 3]
00000000: db7e c93e 6335 b0be b78d 603e 03b8 d9be
00000010: 8231 d23f 4974 29bf a701 05be 8964 97be
00000020: 52e6 943c 5780 123d 3a40 ba3e ad74 913e
00000030: d006 2b3c 9164 2a3f 2708 cbbd 0904 90be
00000040: ee39 3fbe e994 e73c d886 ee3e 97d6 f0be
00000050: 374b 62be 4e1e 613f ceb0 83bf 8a2d 4cbf
00000060: 9de7 18bf 2145 2b3f dc89 1b3f 9481 f13e
00000070: c29d 69bf fbab 07bd 83de 81be 75f0 09be
00000080: c861 45be 4333 8dbe 76d0 a23f d7fe a23e
00000090: 2450 e03e 4aec ba3e c290 71bf d4bb 213f
000000a0: 393a 653f 9872 77bf 8181 8ebf 0623 3a3e
000000b0: 5ebc e73e ff2b 843e 69e8 0cbe c55d 833e
000000c0: db97 8fbe efce 00bd 9595 a8bc 1327 053f
000000d0: 517a 973e 83dd 9c3e fbd5 7d3f 9b05 b5bc
000000e0: 452b a6be 6264 1ebe a335 2e3f 4101 02bf
000000f0: e35f 053e 3156 18be 6b02 dcbe 70c1 b23b
00000100: 82aa 4d3e 8f4a e83d f2da ad3d 774f 493f
00000110: f0ef 2dbc 33ce e8bc eaaa 84be 490f 2abd
00000120: ef72 5dbf f58c 0c3f 2aa7 52bf 444c d03e
00000130: fd6c a93f 6930 633e 7499 18bf 1e36 d03e
00000140: 0d71 60bf 0986 ffbe 8d42 a13e f87c c1be
00000150: 3440 443e 5c29 323f 4f82 a8bd 2975 7fbe
00000160: cd2f be3e ad16 d1be 503b 423d a135 fd3e
00000170: b08f 34be 31e2 cb3e 897a e83e 7e87 28bf
00000180: c159 39be bdcd a7be e945 f53b d9bf ba3e
00000190: c603 bb3e b59d 2b3e ea35 24bf 930e 9cbe
000001a0: 95ef d9be 68db e53e 25a4 67be 5d6b 113e
000001b0: 4e28 64be 53b2 403e 61eb 933e fb88 93be
000001c0: 4e4c 413f 5643 9b3e 09aa b83e 5269 57bf
000001d0: 2ad9 513b 666f dcbe 9cab 2abe 0ac2 493e
000001e0: 89f7 23bf 78ed 4abf 180c f93e da37 843e
000001f0: 19e2 083f f153 a53d 8cb9 4cbf adb0 f43d
00000200: 4ef3 b5be d3eb 303f 84fe 46be 14aa 8d3f
00000210: def4 a7be 37a8 e13e b893 64bf 3a40 a63e
00000220: ceb6 333d fc0a 51be fc77 a2be 3beb 923f
00000230: 651e 0f3f a3dd 01be 5947 1bbf dc23 4fbe
00000240: dbe8 4f3f a3b2 9ebf 3cd9 e23e 3456 673e
00000250: 8349 433e b96b 27be 7324 7abf f629 b13f
00000260: 3810 4fbf 2b27 523e d881 28be 5af8 9ebe
00000270: 6fba 813f ef5a 5d3e 659e 1e3f 8adb 51bd
00000280: 3d19 0cbf 1201 9abf fdae dcbe b38b bbbe
00000290: 0f14 c5be 0a8d b3be 1459 353f eca3 9ebe
000002a0: 114b dabe 1bfd 8ebe 2934 09bf 9a09 46be
000002b0: b03e c0be abd6 2bbe 6b92 f1be 7a62 e23f
000002c0: c83f 97be b015 e5bd 13dd debe 8d59 92bd
0.39354596 -0.3441573 0.2192906 -0.42523202 1.6421359 -0.6619306 -0.12988912 -0.2956889
0.018176232 0.035766926 0.36377126 0.2840933 0.010438636 0.665597 -0.09913664 -0.2812808
-0.18674442 0.028269248 0.46587253 -0.4703872 -0.22099005 0.87936866 -1.0288332 -0.7975699
-0.59728414 0.6690236 0.6075723 0.47169173 -0.91256344 -0.033122998 -0.25365075 -0.13470633
-0.19275582 -0.27578172 1.2719867 0.31835052 0.43811142 0.365084 -0.9436151 0.6317723
0.89541966 -0.9665923 -1.1133271 0.18177423 0.452609 0.25814816 -0.13760532 0.25657478
-0.28045544 -0.031447347 -0.020579139 0.5201275 0.29585508 0.3063775 0.99154633 -0.0220974
-0.32454887 -0.1546798 0.68050593 -0.50783163 0.13024859 -0.1487663 -0.42970595 0.0054551885
0.20084575 0.11342346 0.08489026 0.7863688 -0.010616288 -0.028418636 -0.25911647 -0.041518483
-0.865035 0.54902583 -0.8228632 0.40683186 1.3236386 0.22186436 -0.5960915 0.40666288
-0.876725 -0.49906948 0.31496087 -0.37790656 0.19165117 0.6959436 -0.082279794 -0.24947037
0.37145844 -0.40837613 0.047419846 0.49454978 -0.17632937 0.39821008 0.45405987 -0.65831745
-0.18100645 -0.32774153 0.0074851406 0.36474493 0.36526316 0.16759379 -0.64144766 -0.3047987
-0.425656 0.44893956 -0.2262121 0.14201112 -0.22281 0.18818025 0.28890517 -0.28815445
0.75507057 0.3032481 0.36067227 -0.8414508 0.003202031 -0.4305374 -0.16667026 0.19702926
-0.64049584 -0.792686 0.4864204 0.2582386 0.5347 0.08072651 -0.7997062 0.11947761
-0.3553719 0.6910984 -0.19433028 1.1067529 -0.32804006 0.4407365 -0.892879 0.32470876
0.043875508 -0.20414346 -0.31732166 1.1478037 0.55905753 -0.12682204 -0.6065574 -0.20228523
0.81214684 -1.2398266 0.44306362 0.22591478 0.19071011 -0.16349687 -0.9771187 1.384093
-0.8088412 0.20522754 -0.16455781 -0.31048852 1.013502 0.2161672 0.6196044 -0.05123476
-0.5472601 -1.2031577 -0.43102255 -0.3663002 -0.38491866 -0.35068542 0.7083905 -0.30984437
-0.42635396 -0.2792748 -0.53595215 -0.193396 -0.37547827 -0.16781108 -0.4718202 1.7686303
-0.2954085 -0.11185777 -0.4352804 -0.07145987

head_conv.1.depth_wise_1.bias f4 [20]
00000000: a021 713c 4c77 01be 626a 963c f693 6e3a
00000010: db29 8c3c 0cfa e8bd 8808 3f3c 25f7 afbc
00000020: da51 8d3d 3213 a83c 7782 013e d36d acbd
00000030: 450c 88bc 0cf6 e13c 2c73 093c 801d 213d
00000040: 44e4 5dbc f5e2 d3bc f409 813d f201 0d3e
0.0147174895 -0.12643164 0.018361274 0.00091010274 0.017109802 -0.11375818 0.011659749 -0.021480152
0.069003776 0.020516966 0.12647425 -0.08419385 -0.016607413 0.027583145 0.0083892755 0.039334774
-0.013543192 -0.025865057 0.063007265 0.13770273

head_conv.1.point_wise_2.weight f4 [20, 9, 1, 1]
00000000: 8ab3 85bd 5d3a cc3e 0ad4 91bd fa36 27be
00000010: e6e1 61be a776 c6be e039 97be f581 c0be
00000020: 6cf8 823f b814 213e dd40 7cbe 7ec3 2ebe
00000030: 1116 7d3e 9daf 6cbe b6bc f73d 46d8 ddbc
00000040: d147 773e 8d7f e5bc 59c3 d13e 2dbf c5be
00000050: 548c 0e3f 25e4 743e 1356 01bf 7503 a9bd
00000060: b959 4b3f 7c06 7c3f 2dda c9be 960c 573e
00000070: 3ba6 5b3f 6849 9d3e 5d5c 013e 8f8e 8cbe
00000080: 4dcf 0cbe 41a6 1f3e 63ef be3f 2ba0 0b3f
00000090: 305f 303e 02d3 90be b12c 09bf 4d20 dbbe
000000a0: 97de dc3d 3a41 6c3e cec3 973e 1d22 543e
000000b0: 37c2 d1be b9de 3bbe 89e8 613f 87d0 3f3f
000000c0: 31ac 58be 69ac 653f 45f9 d63e 182e d63e
000000d0: a210 9ebf 9549 b9be 3a7f 683e ad00 8ebf
000000e0: f6c1 ddbe 4b48 183f 59fe 04bf 472c 863e
000000f0: f6f3 02be 5b41 923e 77c2 56be 9d36 afbd
00000100: 8cdd 33be 691f ba3d 5136 8b3d 5db2 c73d
00000110: 26e7 a6bd 4cb3 c1bd 684b 10bf d3dd 913e
00000120: 15fe d33e becd f1be e3f5 8c3f d5b0 7b3d
00000130: bd2d 87bd 2fa4 f53d ad02 403e 14f8 9d3e
00000140: 95ad 2fbe e0df 80be 11b6 34be 0422 92bd
00000150: 8bb6 f03c a814 603f b163 63be c813 893d
00000160: 96aa a83e bf81 4d3e 588a 283f 1ceb 3f3d
00000170: c350 31bf 3352 aa3c 0594 9bbf eefb c6bb
00000180: 9524 edbd baef 08be efd5 583c 74be 6dbf
00000190: 632e d0bd dc18 9fba 7b29 883e 6b43 2b3d
000001a0: 2a55 d83f 10a4 a93e 54c6 5b3e cf0f 1f3d
000001b0: 99d1 58bc cbaf 05c0 b890 19be b295 763e
000001c0: 443c d5bd 2123 643c 5776 29bf c9cd 80be
000001d0: a938 1fbf 31ca 603d ec85 7dbd bb4f bb3f
000001e0: eafe 77be 5326 d43e 9381 07be edc4 fabd
000001f0: fcdd 393f 5a65 c3bc 6d02 6a3e 63b9 f93d
00000200: d72e 8dbe 7d19 c63f 83b7 11bf 6845 36bd
00000210: ff97 47be e45e 273e 85d9 a9be 06df 7abe
00000220: 99bf 7c3e f3a8 683d 129e edbd 9e54 4d3e
00000230: 61ac 90be c490 82be 01ca 79be 24d9 fe3d
00000240: 4593 d0be 8ccb 1cc0 795a e73e 342d 393e
00000250: 7196 253f 2d41 17bd f867 04bf 73da 0cc0
00000260: cdbb b5be cae8 49be d1d2 ac3e ea2f 0abf
00000270: c3fb 383d 92be 6e3e 58b2 a8bd 7972 3d3f
00000280: 3a5b f7bc 542b 8cbf 9e89 8e3c 7bdb c5be
00000290: 8879 f83e 35be b7be 1e1e 00bf 79bc 57bf
000002a0: d51f 43bc b70f c33e 99d3 6bbe 2448 18bf
000002b0: 717c 9abc b249 303d 964e 1fbd 8871 31bf
000002c0: 3ee4 8b3e 33d0 82bd cbad a63c 10f5 9e3c
-0.06528385 0.39888278 -0.07120521 -0.16329566 -0.2205883 -0.387624 -0.29536343 -0.3759915
1.0232062 0.1573056 -0.24634118 -0.17066762 0.24715449 -0.23113866 0.12096541 -0.027080666
0.2414849 -0.028014923 0.4096935 -0.38622418 0.55682874 0.23915155 -0.50521964 -0.082526125
0.7943378 0.98447394 -0.39424267 0.21000895 0.8580052 0.30720067 0.1263289 -0.27452514
-0.13750954 0.15590765 1.4916805 0.5454127 0.17223811 -0.28285986 -0.5358382 -0.4279808
0.10784643 0.23071757 0.29641575 0.20716138 -0.40968487 -0.1834668 0.88245445 0.7492756
-0.21159436 0.897162 0.41987053 0.41832042 -1.2348826 -0.3618895 0.22704783 -1.1093956
-0.43312043 0.5948531 -0.51950604 0.26205656 -0.12788376 0.28565487 -0.2097262 -0.085553385
-0.17564982 0.09088022 0.067974694 0.09750817 -0.08149557 -0.09458026 -0.5636506 0.2848955
0.41404787 -0.4722728 1.1012539 0.061447937 -0.06600521 0.11994206 0.1875102 0.3085333
-0.1715606 -0.25170803 -0.17647578 -0.07135394 0.029383918 0.8753152 -0.22205998 0.06693226
0.32942647 0.20069025 0.65836096 0.046855077 -0.6926386 0.020791149 -1.2154547 -0.006072513
-0.11579243 -0.13372698 0.0132345995 -0.92868733 -0.101650976 -0.0012138146 0.26594147 0.04181234
1.690099 0.33132982 0.21462375 0.038833436 -0.013233566 -2.0888546 -0.14996612 0.24080542
-0.104118854 0.013924391 -0.661962 -0.25157002 -0.6219583 0.054880325 -0.061895296 1.4633707
-0.24218336 0.4143549 -0.13233022 -0.12244592 0.72604346 -0.02385204 0.22852488 0.12193563
-0.27574798 1.5476528 -0.5692064 -0.044499785 -0.19491576 0.16344792 -0.33173767 -0.24499139
0.24682464 0.056801748 -0.11602415 0.2005181 -0.28256515 -0.25501072 -0.24393465 0.1244376
-0.40737358 -2.4499235 0.45186213 0.1808365 0.6468268 -0.03692739 -0.51721144 -2.200833
-0.35494843 -0.19717708 0.3375459 -0.5397936 0.045161974 0.23314884 -0.08237141 0.74002796
-0.030194867 -1.0950723 0.017399605 -0.38644013 0.4853022 -0.35887304 -0.50045955 -0.8427196
-0.011909445 0.38097927 -0.23029937 -0.5948508 -0.018858166 0.04303903 -0.038893305 -0.6931386
0.27322572 -0.06387367 0.020346543 0.019403964

head_conv.1.point_wise_2.bias f4 [20]
00000000: f82f 3fbd 8d60 f4bc 1af3 d63d b3d6 45bd
00000010: 61b6 d6bd 78b6 6e3d f0a5 64bd e1bf 52bd
00000020: 254d 22bd 5f81 cfbe 4891 cf3e 9bcc fa3d
00000030: d888 92be 96ce 7dbe 4a34 633e 4303 edbd
00000040: 9a74 4dbe 12a2 083c 8676 bf3d a818 ee3d
-0.046676606 -0.029831195 0.10495587 -0.048300456 -0.10484005 0.058279485 -0.055822313 -0.05145252
-0.039624352 -0.4052839 0.40540528 0.12246057 -0.28620028 -0.24785838 0.22187915 -0.11572888
-0.20064011 0.008339422 0.093487784 0.116257966

head_conv.1.depth_wise_2.weight f4 [20, 1, 3, 3]
00000000: c67b 2a3f 5058 9cbd 8df7 963e 543a c53e
00000010: e69a 07bf b545 a6be b1ed a7be c7cd 9abd
00000020: 6811 33bd 05a3 da3e 536c 17bf dbcf 25bd
00000030: 3919 e73e 7ef8 5ebe 42b5 e43e 5f48 10be
00000040: f02e 07bf cfdb 1d3e 294d 8b3e 83fe 113e
00000050: f44c 26bd 3022 e2bd 4129 0e3e df5c 29be
00000060: c7b8 133c 84b8 94bd 462c 803e 7a6e 843f
00000070: eb5f 6bbf 525b 22be 582e 063f 494e 9dbe
00000080: 0df0 28be bb22 6dbf 393d 403f 5891 d7bd
00000090: 0326 e13e 1e50 21bf 2e96 f6be aa65 a5bc
000000a0: 1d13 1cbc 182d 99be 65b9 e33e 4f55 043f
000000b0: f6ec 6b3e 8c48 c63e ddcd 8dbe 07b8 0a3e
000000c0: 492b 20be 5395 4dbf 7335 64be 315c c53e
000000d0: 876a 023e 6102 8c3e baa6 e4bd 9191 c6be
000000e0: 4b4c a6be fc8b 4e3f 37f7 8f3e ebca 513f
000000f0: 120d 953d d78a 0fbf 5ace 02bf f5ad 1a3c
00000100: dda8 0bbe 90ca aabe 7dcd 4f3c 2023 933e
00000110: b9a3 ef3e 4067 f3bd 9f66 9d3e 91d8 15bf
00000120: f361 69be 63e5 0e3f 3874 6a3b 0e42 473f
00000130: 54c9 b4bf 5c57 1b3f 6aee bdbe 5241 423f
00000140: f9a8 cd3b 9645 17bf 71a4 543f 44d3 133f
00000150: 9688 77bf 4706 823f bfe9 2c3e 6d4e a1be
00000160: 6744 10bf 94d1 43bd 532b 693e 4d8b d5bd
00000170: 987e 963e 83b5 c8bd ece6 d1bf 6c53 23bd
00000180: 7e4d b23e 5bb1 023e 2130 3e3e f75c 5c3f
00000190: d827 e0be d3a3 543f ceb5 dfbe 0328 7dbe
000001a0: c786 d6be 398f 503f c2ab debe 0ae3 513f
000001b0: 5bdc 16bf 98a2 193f 40cc ee3e 1b92 8dbe
000001c0: 638c 1abe 9c44 04bf 7a0c 91bd 27d9 183f
000001d0: d9f7 0d3f 623e 663f 04de c63d 9272 fe3d
000001e0: 6715 513f 8e5a 75bf 799b 03bf 8080 e3be
000001f0: 6a94 a73d 79f7 37be f8ef 5c3e 9a87 503f
00000200: eae1 4cbf f4ba 073f 65b9 ba3f d3c3 87bf
00000210: 1514 3dbf 1271 a6bf c049 4f3f e789 e3be
00000220: ff79 c1bc 3ce7 07be 9560 acbc 58c8 4d3f
00000230: 9891 d53d 60d7 49be 0e9e f7bc f4e0 61be
00000240: a371 76bf be9d bb3f afd8 9b3e 21aa 0d3f
00000250: ef00 04be b11a 88be 6b02 db3e 9fe3 a1bf
00000260: 119f afbe c1a2 e93e 77b5 c33d 8aec 22be
00000270: 1793 2e3f 8d09 e03d f4dc 8dbf b1d3 b33e
00000280: 1bd6 06be d667 97bd 3b99 ef3d d56d e63c
00000290: 39bf ca3e 52cc a2bd 0f2c b2bf 7f2c 083e
000002a0: 28d9 c63e 81f7 bebd 42ac d53e 6d82 473d
000002b0: 1254 88bd 7d78 f83d 2d3d 153e 249f 14c0
000002c0: 640d ffbd 8d0e 2b3d cd72 803d 175e b13d
0.66595113 -0.07634032 0.2948574 0.38521063 -0.5297073 -0.32475057 -0.32798532 -0.0755878
-0.04371777 0.427025 -0.59149665 -0.04048143 0.4513643 -0.2177448 0.4466954 -0.14090107
-0.52805996 0.15415882 0.27207306 0.14257245 -0.040600732 -0.11041677 0.13882925 -0.16539334
0.009016222 -0.07261756 0.25033778 1.0346215 -0.91943234 -0.15855148 0.52414465 -0.3072379
-0.16497822 -0.9263112 0.7509342 -0.10525769 0.43974313 -0.63012874 -0.48161453 -0.020190079
-0.009526041 -0.29917216 0.44477382 0.5169267 0.23039612 0.38727224 -0.27696124 0.13546763
-0.15641512 -0.80305976 -0.22286014 0.385469 0.1273595 0.27345565 -0.11164613 -0.38782933
-0.32480082 0.8068235 0.28118297 0.81950253 0.072778836 -0.5607123 -0.5109612 0.009440889
-0.13638635 -0.33357668 0.01268327 0.28737736 0.46804598 -0.11884928 0.30742356 -0.5853358
-0.22791271 0.55818766 0.0035774838 0.77835166 -1.412394 0.60680175 -0.37095958 0.7588092
0.0062762466 -0.59090555 0.8306342 0.5774424 -0.9669279 1.0158166 0.16886042 -0.31505147
-0.56354374 -0.04780729 0.22770433 -0.1042696 0.29393458 -0.098002456 -1.6398597 -0.03987448
0.34824747 0.12762968 0.18573047 0.86079353 -0.43780398 0.83062476 -0.43693393 -0.24722295
-0.41899702 0.8146854 -0.43490416 0.8198706 -0.58929986 0.60013723 0.46640205 -0.27650532
-0.15092616 -0.5166719 -0.07082458 0.5970635 0.5545631 0.8993894 0.09710315 0.12424196
0.8167328 -0.958413 -0.5140911 -0.44433975 0.081826046 -0.17965497 0.21575916 0.8145691
-0.8003222 0.5301964 1.4587828 -1.0606636 -0.7385877 -1.3003256 0.8097191 -0.4444115
-0.023617743 -0.13271803 -0.021042148 0.80383825 0.104281604 -0.19711065 -0.030226734 -0.22058469
-0.96267146 1.4657514 0.30438754 0.5533772 -0.12890981 -0.26582864 0.42775282 -1.264759
-0.34301046 0.45631984 0.09556096 -0.15910545 0.6819319 0.10939322 -1.1083055 0.35122445
-0.13167612 -0.07392852 0.11699148 0.028128544 0.39599016 -0.07949127 -1.3919696 0.13298224
0.38837552 -0.093245514 0.41732985 0.048708368 -0.0665666 0.12132356 0.14574118 -2.3222132
-0.12453726 0.041761924 0.062718965 0.08660524

head_conv.1.depth_wise_2.bias f4 [20]
00000000: a021 713c 4c77 01be 626a 963c f693 6e3a
00000010: db29 8c3c 0cfa e8bd 8808 3f3c 25f7 afbc
00000020: da51 8d3d 3213 a83c 7782 013e d36d acbd
00000030: 450c 88bc 0cf6 e13c 2c73 093c 801d 213d
00000040: 44e4 5dbc f5e2 d3bc f409 813d f201 0d3e
0.0147174895 -0.12643164 0.018361274 0.00091010274 0.017109802 -0.11375818 0.011659749 -0.021480152
0.069003776 0.020516966 0.12647425 -0.08419385 -0.016607413 0.027583145 0.0083892755 0.039334774
-0.013543192 -0.025865057 0.063007265 0.13770273

head_conv.2.point_wise_1.weight f4 [32, 20, 1, 1]
00000000: fc8c 383f 0d9e 043e 1706 31be a628 71bf
00000010: 7551 26bf 61fc 35bf d25d e0be afa4 60bd
00000020: 3166 603b a6a2 99bf dd8b 7ebd bafc 0440
00000030: c21c 0a3f fc84 e13f 0f54 20bf 3aec 9abf
00000040: 0a05 3c3f 75d8 ccbf c1a8 533e 9eae a2be
00000050: 8a2e 153f 6f47 9a3f d807 6fbd 21ca 363e
00000060: ebe8 0ebf fbb9 3f3f 9ea7 b7bd b151 c9bd
00000070: 74fe 74be 7615 82bd bd4d e6be 76b2 8f3d
00000080: c59a 7fbe 164e 38bd b180 68bf 7430 d23d
00000090: 3377 62bd 0314 853e 4f4a 193f d9d9 703d
000000a0: a17b dc3c 4106 48c0 02d2 553f b58c 663e
000000b0: 81a2 713d e38d 363f e40e bc3e 5024 fbbe
000000c0: 53fb 88be d3ff 3d3d f98f f1be 9fec 153e
000000d0: 4649 083e 5a02 5fbe ff6a 00bf f5f2 953e
000000e0: fb05 e8bd 6d17 a53e 3e50 3f3f 7c21 aabd
000000f0: 58a9 59be 8c3a ab3e bf05 9e3f 1c83 343d
00000100: 4390 0c3e f50a 933e c412 9abd 753d 43bf
00000110: fd32 783d 0331 ba3e 4033 cd3e 927c 9fbd
00000120: 31a7 33be bbb4 1a3e db6e be3e f392 28be
00000130: 2638 82bd 71f0 2cbd 06f0 10bf 2274 de3e
00000140: 4db6 2bbf 4828 a63d 897c 093e 3f82 03be
00000150: 369a e03d d78c 82be 7049 683e 74b1 ff3c
00000160: 55a3 58be fa15 9b3e 8500 0dbf 2911 863f
00000170: a61f 2b3e f8ee e63c 8b16 6e3e d7a6 a13e
00000180: 39f3 e13d f5ed 883f 9691 413e 2147 b6be
00000190: 8193 cc3d 09dc 06be 5ead 173e 7be9 a7bd
000001a0: 6b3f 75be 7b8e 993e 8e0f 96bf 895d 23bf
000001b0: 17a3 e2bd 9bbe 193f 393e 2fbe 6f79 283e
000001c0: 8165 61be ca36 9abf 6689 6d3e d8f7 bf3f
000001d0: 49a6 4cbf 6716 89bf 3122 d5bd 9fd6 95bc
000001e0: bbb5 64be e269 633e fe36 cbbd 4cc7 473f
000001f0: af91 f73c 9322 29bd 846c 513e 4c11 423d
00000200: db5e 9b3d 0ebc e23d 64fc e03c ee24 2dbd
00000210: 42b4 8ebd 3e47 843e ff4d 55be d7dc 213e
00000220: 19c8 bebe e2e7 2f3e 20ee 27be 1056 85bd
00000230: cbba 0f3e bb56 ebbe 3a74 59be ac1e c03d
00000240: ae2c cbbd 10ba 0bbe b7e9 a8bd 5d7a a9be
00000250: 68d3 903e c818 22be e4fe 4b3a e675 003d
00000260: 8425 a2be 897a cbbe e2ce 393e 952a edbd
00000270: 0d4d 07be 223c 45be 2020 8d3e 2cdc a63c
00000280: a8ec d53b cda1 4b3d c8ac 7ebb dcab 113e
00000290: aa67 8b3c 8d2f 913e 8b08 313e cfd4 72bd
000002a0: f5dd 143f 2d44 b43d b722 283f 7e39 45be
000002b0: 10bd 513e f7c6 a43d e794 583e 20df 74bb
000002c0: dbe0 73bd 6231 8dbd 53c5 8abd cbd4 013e
000002d0: c681 473f 0379 c5be 08be 3bbe bd4a e6be
000002e0: 6827 13bf c04c 77bf 2964 843d 05f0 80be
000002f0: 6dfb 3c3f c1af f63e f115 6ebd 85e6 3ac0
00000300: ae34 2ebd d88b 913f 0502 3cbf bb12 a43e
00000310: 2316 abbe 2a34 003f 786d b13e c909 fc3e
00000320: 00e8 2d3f 9a54 9d3e 57eb 0ebe e176 5dbe
00000330: 1021 b4bf 68b2 c93e 3996 2c3e 659c e6be
00000340: abbf 6c3e eab5 e5be 77e4 0b3d f074 4a3f
00000350: 0594 923e 83b2 a93e a5f6 bd3e dc9f 413c
00000360: 6b1e 0240 7d95 7f3d 1baa 093f fc6a a3be
00000370: 4182 4bbf 99a8 dd3e 61c8 603e 6241 063f
00000380: 9258 bcbe 75c6 42bf 6578 a9bf 232e 763e
00000390: 709b e0be d3c7 9dbd 11d3 5cbd 241b 85bd
000003a0: 2892 eabd f23e 0c3f a9b8 6abe 615f 2cbe
000003b0: 04cd 73be 34e4 11bd b5a4 7fbc 3ef5 e8bc
000003c0: 67d7 24bf 7b67 cf3e 569a 603e 5429 cb3e
000003d0: d8f9 0b3e 1342 f63e 30d3 9fbc bcd1 0cc0
000003e0: a572 2bbc ebec 6abe fefe c83f a129 a6be
000003f0: fc08 703c d621 553e 5dd6 1b3f ca6a 3bbd
0.72090125 0.12950917 -0.1728748 -0.9420265 -0.64968044 -0.71088225 -0.4382158 -0.054844555
0.0034240598 -1.2002761 -0.062145103 2.0779252 0.5395013 1.7618709 -0.62628263 -1.2103341
0.7344519 -1.6003557 0.20669843 -0.31773847 0.5827414 1.205305 -0.05835709 0.17850544
-0.55824155 0.7489316 -0.08967517 -0.098300345 -0.23925191 -0.063517496 -0.44981185 0.070164606
-0.24961384 -0.044996344 -0.9082137 0.10263148 -0.05528946 0.2599183 0.5987901 0.058801506
0.02691442 -3.1253817 0.8352357 0.22514613 0.058992866 0.7131025 0.3673011 -0.49051142
-0.26754245 0.04638655 -0.47180155 0.14641045 0.13309202 -0.21778241 -0.50163263 0.29286924
-0.11329266 0.32244435 0.74731815 -0.08307168 -0.21256006 0.33443105 1.2345504 0.04407035
0.13726906 0.28719297 -0.075231105 -0.7626565 0.0605955 0.36365518 0.40078163 -0.07787432
-0.17544247 0.15108006 0.3719395 -0.16462307 -0.06358366 -0.04222149 -0.56616247 0.43447977
-0.67075044 0.08113152 0.13426413 -0.12842654 0.109669134 -0.25498077 0.22684264 0.031212546
-0.21156056 0.30290204 -0.5507892 1.0473987 0.16711292 0.028190121 0.23250787 0.315726
0.11032719 1.0697619 0.18903193 -0.35601142 0.09989072 -0.13169874 0.14812228 -0.0819883
-0.23949973 0.29991516 -1.1723497 -0.638146 -0.11066263 0.60056466 -0.1711358 0.16452573
-0.22011377 -1.204797 0.23196945 1.4997511 -0.7994123 -1.0709962 -0.10406912 -0.018290816
-0.2233495 0.2220836 -0.09922598 0.7803848 0.030220835 -0.04129274 0.20451552 0.047379777
0.075864516 0.11071025 0.0274641 -0.042271547 -0.06967975 0.25835603 -0.20830534 0.158069
-0.37262037 0.171783 -0.16399431 -0.06510556 0.140361 -0.45964608 -0.21235743 0.0938085
-0.09920631 -0.13645196 -0.082477026 -0.33101168 0.2828629 -0.15829766 0.0007781817 0.031362437
-0.31669247 -0.39741924 0.18145326 -0.115803875 -0.13212986 -0.1926122 0.27563572 0.020368658
0.0065284558 0.049714852 -0.003886031 0.14225715 0.017017204 0.2835659 0.17288415 -0.05928498
0.5815118 0.08802066 0.6567797 -0.19260213 0.20482278 0.08045762 0.21150552 -0.0037364438
-0.05954061 -0.06894185 -0.06775918 0.1267883 0.77932394 -0.38568887 -0.1833421 -0.44978896
-0.57482004 -0.96601486 0.064644165 -0.2518312 0.73821145 0.48180965 -0.058126394 -2.9203198
-0.042530708 1.1370802 -0.7344058 0.3204554 -0.33415326 0.50079596 0.3465383 0.49226215
0.6793213 0.30728608 -0.13956963 -0.2162738 -1.407259 0.39393926 0.1685418 -0.45041195
0.2311999 -0.44865352 0.034153428 0.7908468 0.28628555 0.33144006 0.37102237 0.011817899
2.0331066 0.062398423 0.53775185 -0.3191756 -0.79495627 0.43292692 0.21951438 0.52443516
-0.36786324 -0.7608407 -1.3239866 0.24041037 -0.4386859 -0.07704129 -0.053912226 -0.06499317
-0.11453658 0.54783547 -0.22922005 -0.16833259 -0.23808676 -0.035618022 -0.015603234 -0.028437253
-0.6439118 0.40508637 0.21933874 0.39679968 0.13669527 0.48097286 -0.019509882 -2.2003012
-0.010464345 -0.2294194 1.5702817 -0.32453635 0.01465058 0.20813689 0.6087397 -0.04575614

head_conv.2.point_wise_1.bias f4 [32]
00000000: 91b2 db3d ebfa c73d f90f a6bf 4ae9 4c3d
00000010: bde3 d13d bda2 7c3e 3a68 bebd 5cf8 223e
00000020: 2817 dbbd 298f 043f fb34 2e3e 2ae9 ddbb
00000030: 56ff 963f 4bd2 58bf b622 64be e02a b53d
00000040: a8e1 b93e 940f 2abf 9a99 963f eec2 f93e
00000050: 12eb 253f 6ae2 3cbe 60f7 493f 4e25 86be
00000060: 29b5 933c e1ce 8ebe 3177 07be d1de 85be
00000070: 82ec 8abd 18e4 5a3e c9f8 72c0 a0fe d73c
0.10727418 0.09764656 -1.2973624 0.05002717 0.10248516 0.24671455 -0.092972234 0.15915054
-0.10697776 0.51780945 0.17012398 -0.00677218 1.1796672 -0.8469588 -0.22278866 0.088460684
0.36304975 -0.6643002 1.1765625 0.48781532 0.64811814 -0.18445745 0.7889309 -0.26200336
0.01803072 -0.2789221 -0.13229062 -0.26146558 -0.067833915 0.21376073 -3.7964346 0.026366532

head_conv.2.depth_wise_1.weight f4 [32, 1, 3, 3]
00000000: d47c af3e 1ac7 133e de0a 603d d14c 17bf
00000010: cedd d43d 1dd4 0abe 4933 023e c089 d6be
00000020: efa2 73be a131 e33e 76de 4c3e f8d9 dc3d
00000030: 213b b53d f974 25bf 78d1 c3be df24 dd3e
00000040: 2869 8d3e 940a f13c a1a6 8dbe 2962 37be
00000050: 8df5 8bbe 60ff bc3d 9e69 b33f a8a0 2fbe
00000060: 08bc 1f3e 2ecc 603e 1e9e b0bb ea9d 613e
00000070: 37f1 813e 30f8 d4bc f15e c1be d311 8cbf
00000080: 8522 8c3e 8d28 d1bd 1304 1dbe 2e25 ce3d
00000090: aab0 463e 076e d03c fe93 023f 3522 3abd
000000a0: 0914 d8bc 3ab7 a53c d746 803e 7307 283e
000000b0: 21c9 9f3e fc9e 383e 9924 f13d 2735 39bd
000000c0: 9a04 a13d 8c50 52be 23cb 86be 6674 40bf
000000d0: 351c c2bc 3331 f83e 354e acbe d48d 02be
000000e0: 335a b83d a0df a0bd f782 f63e c92d 2bbe
000000f0: 2a73 443b f448 78bd f3e2 473e 1672 ebbc
00000100: 6658 0cbf f49a ce3d b52f 87be 4645 d83e
00000110: fa57 973d 254e 843b 48db b23e 21fe 89bd
00000120: ed74 f3bd f7da abbe 5199 bfbd 6732 aabe
00000130: 3f8c 943f d0e5 aebe 17cb 62be 09cb 3bbe
00000140: b9e5 29be 478e 78bf 919e 163f eed6 073f
00000150: 16e2 7bbf 2785 82be 2f9d 733f 06ce 603e
00000160: d46b a7be 34cd 0cbe 5ccb 9bbe c4ca 2cbf
00000170: 245d 2bbf 149e b8bd 76e2 e3be a0e8 babe
00000180: d60a d33e fa2a 823f efcb 413f 93d6 dd3e
00000190: 5003 e4bc f33c 503c 11b1 4e3c 165c c0be
000001a0: 62ce e0bd 8f43 f73e 1bdd 49bd 9c14 fabe
000001b0: adec b13f b54b 79bf 38af e03d 1be8 26bf
000001c0: 749b fabe 3732 2abf 996a 393f 1310 cebe
000001d0: a7ea 853f 19fe ba3e 9567 8b3e a5ed ab3d
000001e0: 8bb3 f63e 168f 503f 7d34 aabd 8173 b1bd
000001f0: bdab 0fbe e12c c0bc 0c12 6d3d 5b77 98bd
00000200: ab8b 04be a1a8 f83d 1a4c 013d a5e3 923d
00000210: 5daf f6bc 4658 6b3d c131 803c 361f 62be
00000220: 627a d1bd f0bf e9bc 633e 8bbb 70da 853f
00000230: 62ac 41be 99c9 adbe 5516 fdbb d791 0dbe
00000240: 63c9 343e c067 bb3c 84b3 093e 20c5 4cbd
00000250: c6b5 593f 5702 88bc e37e 863d 30a9 fd3b
00000260: 1e74 3c3e 5223 e7bd 38e1 b6be df0e 4f3d
00000270: c383 33bd 77b6 0840 312d 94be 612a 37bd
00000280: 6a59 68be 952b 863d 4dba c1c0 9315 ca3d
00000290: 6c55 e13e a0da a5c0 a721 d53e 7f07 6a3e
000002a0: 655c 87c0 be51 bdbd caed 093f 76b8 1cbb
000002b0: bdcb 30be dfb8 26be 2ae1 d03e b05f 06bf
000002c0: 0356 823e db53 97be d992 163e e588 c6c0
000002d0: b47e 383f 00a1 6d3e 19fd 19be 3e22 05bf
000002e0: 9eb8 11be 6c82 603e c15a 1dbe ce9c dbbd
000002f0: b481 95be 3b04 1fbf f908 4bbe 8f26 c3bd
00000300: 28cf 51bc fa21 0a3e ee1d cbbd 923e acbe
00000310: 1797 da3c ab97 dbbc 1eb1 8ebd 1d3d 3e3e
00000320: ef56 a9bd 7699 803e f192 9dbf 0e18 e13c
00000330: b2e4 21bd a037 b23d e381 f43b b2af a73d
00000340: 7b77 ffbc 9742 f13d fe1e 833d a839 443e
00000350: 9caf 5cbd af7b 763d 31d6 653c 60dd 7ebd
00000360: ce69 353c 65bd 92bc eb1d aabe a20f f43d
00000370: 8a19 2fbe ad32 45bd 41f0 d03d 3789 cdbd
00000380: 11b3 e8bd e226 e23d 8ddf d03c bd81 e73d
00000390: 6849 163d 5c39 f23c 38bd 84bd fdc4 a1bc
000003a0: 963a 1dbd 9fa9 003d adda 8b3c 16ae a73e
000003b0: 1a59 ba3d d437 b9bd 5aaf 87be 3497 51be
000003c0: 4b15 d73e 4193 63bd 0171 423e 783d 9ebf
000003d0: a6b3 82bf fea3 1c3f 2177 3e3f b24b 95be
000003e0: a66b 273e 5e6e 083f 6006 2b3f ee69 ac3e
000003f0: b090 193e e5df adbd 29a1 5c3e 25c4 0dbe
0.34274924 0.1443142 0.054697864 -0.5910159 0.103938684 -0.13557477 0.12714876 -0.4190197
-0.23792623 0.443738 0.20006737 0.10783762 0.088491686 -0.6463161 -0.3824575 0.43192193
0.2761929 0.02942399 -0.2766619 -0.17908539 -0.27335778 0.092283964 1.4016607 -0.17151129
0.15599072 0.21952888 -0.005389943 0.22032896 0.25379345 -0.025997251 -0.37767747 -1.094294
0.27370086 -0.102128126 -0.15333585 0.10065685 0.1940333 0.02544309 0.5100707 -0.04544278
-0.026376741 0.02022897 0.25054047 0.16409092 0.31208137 0.18029398 0.117745586 -0.045216706
0.07862206 -0.20538539 -0.26326856 -0.7517761 -0.02369509 0.48475036 -0.33653417 -0.12749416
0.09001579 -0.07855153 0.48146793 -0.16716684 0.002997587 -0.06061645 0.19520168 -0.028740924
-0.54822385 0.10088149 -0.26403585 0.4224035 0.07389827 0.004037636 0.34932923 -0.06737924
-0.11887536 -0.33565494 -0.09355415 -0.3324158 1.16053 -0.34159708 -0.22147785 -0.1833917
-0.16591538 -0.970921 0.58835703 0.5306233 -0.98391855 -0.25492212 0.9516172 0.21953592
-0.32699454 -0.13750154 -0.30428588 -0.67496896 -0.66938996 -0.09014526 -0.44508713 -0.36505604
0.41219205 1.0169365 0.757018 0.4332777 -0.02783361 0.012709844 0.012615458 -0.37570256
-0.109768644 0.4829373 -0.04928313 -0.4884385 1.3900353 -0.97381145 0.1097092 -0.65197915
-0.48946726 -0.6648287 0.7242828 -0.4024664 1.0462235 0.36521986 0.27227464 0.083949365
0.48183855 0.8146833 -0.083107926 -0.08664609 -0.14030357 -0.0234589 0.05787854 -0.0744464
-0.12943904 0.121415384 0.031566717 0.07172326 -0.030112917 0.05745723 0.015648725 -0.22082219
-0.10228421 -0.028533906 -0.0042493804 1.0457287 -0.18913415 -0.3394287 -0.0077236095 -0.13825165
0.17654948 0.02287662 0.13447386 -0.04999268 0.8504299 -0.016602678 0.065671705 0.007741116
0.1840367 -0.11286034 -0.35718703 0.05055129 -0.04382683 2.1361368 -0.28940728 -0.04471815
-0.22690359 0.06551281 -6.053992 0.09867396 0.44010484 -5.1829376 0.41627237 0.22854422
-4.2300286 -0.09244107 0.5387846 -0.0023913658 -0.1726522 -0.1628146 0.40796787 -0.5248976
0.25456247 -0.29556164 0.14704455 -6.2042108 0.72068334 0.23205948 -0.15037955 -0.52005374
-0.14230582 0.21924752 -0.15366651 -0.107232675 -0.29200518 -0.6211583 -0.19827642 -0.09528839
-0.012805738 0.13489524 -0.09917818 -0.33641487 0.026683373 -0.02680572 -0.06967376 0.18578
-0.082685344 0.2511708 -1.2310468 0.02747729 -0.03952474 0.08702016 0.0074617728 0.08187808
-0.031184902 0.11780279 0.06402396 0.19162619 -0.05387841 0.060176548 0.014028118 -0.06222284
0.011072589 -0.017912576 -0.3322595 0.11917044 -0.17099586 -0.04814403 0.10202075 -0.10035937
-0.11362279 0.110425726 0.025497222 0.113040425 0.0366911 0.029568367 -0.06481403 -0.019747252
-0.03838595 0.031411763 0.017072046 0.32750005 0.09099026 -0.090438515 -0.2650097 -0.20467836
0.42008433 -0.055560354 0.1898842 -1.2362509 -1.0211074 0.6118773 0.74400526 -0.29159313
0.16349658 0.53293407 0.668066 0.33674568 0.149966 -0.0848997 0.21545853 -0.13844354

head_conv.2.depth_wise_1.bias f4 [32]
00000000: e81c 513d cd4f 693e 2f23 7cbc 50ae 9a3e
00000010: 07ba 123f 2709 053c b6af 3d3e d547 a93e
00000020: f7e8 343f 950b 113d 9680 a9bc 4f77 af3d
00000030: 3ce4 7b3e 1def 0d3b 980f 8bbe e716 203f
00000040: 061b d03d 875c 02be 39d2 e23e 534b ba3e
00000050: cc96 86bd affb 133f ef43 093e 0e25 0fbf
00000060: 2b45 063f 3f80 03bf 6814 60bd 67dd 503d
00000070: 630d 473f 36ca 00bd 0ce0 15c0 669d ba3c
0.051052958 0.22784348 -0.015389248 0.30211115 0.57315105 0.008119858 0.1852406 0.33062616
0.70667976 0.035411436 -0.020691197 0.08567678 0.24598783 0.0021657415 -0.27160335 0.62534946
0.10161404 -0.12730609 0.44301012 0.36385593 -0.06571731 0.57805914 0.13404821 -0.55915916
0.5244929 -0.51367563 -0.05470696 0.050992396 0.777548 -0.031442843 -2.3417997 0.022780132

head_conv.2.point_wise_2.weight f4 [32, 20, 1, 1]
00000000: 026f c73e e7a5 8c3d 1a50 913d 6c5d 36bf
00000010: 9033 5bbf b6d0 23be 8c8f bbbe a5a6 04bf
00000020: 71d0 e1be 35cd 103d 0c44 4ebf f50f 083f
00000030: 782b acbd bb7a 32be 50ee 403e 42e7 be3f
00000040: 18af 6d3e f02a 85bf 9e29 1bbe bbd6 a0be
00000050: 3101 43be b047 b43f 58c2 cabe 3adc ccbe
00000060: e077 153f 5ff2 34bf a646 bc3c 509b 3cbd
00000070: 2b12 2f3e e34c 50be 07b1 fa3c 2f08 dfbd
00000080: 8288 db3c 2d35 d03c 6e99 403f 82d3 d9bc
00000090: 5304 2a3e 39a5 4abe eb1b d1be e529 23be
000000a0: f189 203f 1859 0040 9642 06be ee00 aa3e
000000b0: 62f7 c2be 57d3 1e3f 67c3 b93b 1b05 3ebf
000000c0: 285c 61be 9aa5 55bb 48e8 d0be e17d ab3d
000000d0: 650b 5ebe 452c e2bd 767e 5bbf 6520 8a3d
000000e0: b3ff 66be 60c9 a73e a0e8 ea3e 6bbd 993c
000000f0: aa2e 7abe 94b2 d4be 99e9 50be 24e7 88be
00000100: 9c1c 223d 7aa1 c9bd edf7 153e 2ca4 ac3e
00000110: 89be fdbe b577 b53c 4a51 8abb 71e1 81bd
00000120: 2fb0 553e 0f83 823e 04c8 b03e 10ab de3d
00000130: 8bc5 e63d f5fe 5b3d 7c0f c4be 00b9 943e
00000140: dee7 bbbe 68e1 7e3e 8ae1 563e 8aa4 9c3e
00000150: 0ad5 b2be b224 403e ac4e f73b a3c9 213e
00000160: b113 07bd 57ae df3e cade c33e 6f46 773e
00000170: 1330 bc3d 4f94 e93d 619b 18be 8312 e83e
00000180: a022 c0bd 41fa c83e 219e 26be d115 843d
00000190: b021 02bf 8784 f0be 242f 253e 8cc7 70bf
000001a0: 776b d0be f313 47bd 70e8 b73e 1041 39bf
000001b0: b8f2 84bd 53c4 a4bd 876c 293f bbbd 46bf
000001c0: c27c c33d 274b b3bf 7545 233e 5330 b93e
000001d0: f4f2 c63e 1c9a 8e3e d256 e0bd a0fd 893e
000001e0: d31a 44be d5a1 15be 21c2 33bd 9adf 49bd
000001f0: 2f8a 303e 53e5 b0bd 1476 3c3c 3651 03be
00000200: a5d7 8c3d 0985 8b3d ac0c f8be b735 95bd
00000210: 93c9 9fbc 3d4a 803c 95e3 a73c 9194 033e
00000220: c0eb aa3d ef22 163e 4db9 5c3c 16bb 78bf
00000230: 6f22 4d3e 70e0 cbbe ba62 7cbc 04fd 00bb
00000240: c99b 693e de8a bdbe 5833 4cbe fc30 7b3e
00000250: 57f8 79bd 5cb3 a9bd 030d ca3e db89 253e
00000260: 1eea febe c7ca 9fbe ed5a 99be 284a 5f3d
00000270: 5806 183d d3a6 23be 308a 243e a6dd 443f
00000280: 61a8 d4bd 3db3 c7bc 0aba 58bd 2b6c 53bc
00000290: ef3d 20bd 0513 41bd 20a1 90bd e9fe 34bd
000002a0: b779 5a3d 142a c13b d958 b1be c06d 01bd
000002b0: b935 aabd 49a2 343d 8287 c8bd 7fc5 d23c
000002c0: 1bb8 7b3c 0c6f 803d 9f62 453d 2d82 79bf
000002d0: d69c 90be ad89 04be 97be 203f c2c8 7fbf
000002e0: 8c62 a0bf 77c5 c5bc 44d9 d7bd a155 ecbe
000002f0: a694 53bf b43b 203f 0be5 4d3f c9c7 3540
00000300: 70f9 643e d177 223f db75 133f bb0e 0440
00000310: 1ede 293f a0e8 5d3f b448 73be 37be 92be
00000320: c3b2 1a3f 3154 c73d c232 a73d f97e 31be
00000330: 835f 14bf f80a 1c3f bb73 4dbf f525 8abe
00000340: ec0d b03d 8fb3 92bd 11f8 96bc 5d29 bdbc
00000350: 3f27 d53f 4083 2bbe eb5e a3bf 8c85 c7be
00000360: efc3 7f3f 0165 4f3f 0994 ae3f bb36 ce3d
00000370: a745 b7bd 7e84 e7be bacc 933e a8bb 9f3e
00000380: 45bd 4ebe b5fe f4bf 14e4 4dbf 24a1 9dbf
00000390: 889d 08be a6dc 8d3b 1ccc fe3d 8329 93be
000003a0: be39 373f fa89 c53e a9d2 833d eb61 863d
000003b0: 1502 5ebe 9eb1 9b3e 7688 803f b266 873d
000003c0: 7271 3bbd e002 b13e ac0f 1e3e 847d 80bf
000003d0: 9b1f 52bd fe67 9bbf c85a 643e d9c1 683f
000003e0: 0a51 73bf 4ef5 89bf c7d7 76bf 998d ecbe
000003f0: 4dc5 cb3e 0296 8b3e 768f 053f b913 c73e
0.3895188 0.06867581 0.07095356 -0.712363 -0.85625553 -0.15997586 -0.36632955 -0.5181678
-0.4410434 0.03535195 -0.8057258 0.5314935 -0.084067285 -0.1742963 0.18840909 1.4914324
0.23211324 -1.0403728 -0.15152594 -0.31413826 -0.19043423 1.4084377 -0.39601398 -0.4001177
0.5838604 -0.7068233 0.022982907 -0.046046555 0.17096774 -0.2034183 0.030601991 -0.10890233
0.02679849 0.025415981 0.75234115 -0.026590113 0.16603212 -0.1978959 -0.40841612 -0.1593395
0.6271048 2.0054379 -0.13111338 0.33203834 -0.38079363 0.6204123 0.0056690457 -0.7422654
-0.22007811 -0.0032599927 -0.40802217 0.08373619 -0.21684034 -0.110436 -0.8573984 0.0674446
-0.22558479 0.32770824 0.45880604 0.01876708 -0.24431863 -0.41542494 -0.2040161 -0.26738846
0.039578065 -0.09845252 0.14645357 0.33719003 -0.4955943 0.022151807 -0.004221116 -0.06341828
0.2086799 0.25490615 0.345276 0.10872471 0.11268147 0.053709943 -0.38293064 0.29047394
-0.36700338 0.24890673 0.20984474 0.30594283 -0.3492816 0.18763998 0.00754722 0.15799575
-0.032977764 0.43687698 0.38255912 0.24147962 0.09188857 0.11405241 -0.14903022 0.45326623
-0.09381604 0.3925343 -0.16271259 0.06449474 -0.50832653 -0.4697611 0.16131264 -0.94054484
-0.4070699 -0.04860301 0.35919523 -0.723649 -0.064916074 -0.080452584 0.66181225 -0.77633256
0.0954528 -1.400731 0.15944465 0.3616968 0.38857234 0.2785195 -0.1095406 0.26951313
-0.19150858 -0.14612515 -0.043886308 -0.04928551 0.17240213 -0.0863749 0.011502761 -0.12823948
0.068770684 0.06812484 -0.48447168 -0.07285636 -0.019505298 0.0156604 0.020494262 0.12849642
0.08345747 0.14661764 0.0134719135 -0.9716047 0.20032667 -0.3981967 -0.015404398 -0.001968206
0.22813334 -0.3702001 -0.19941461 0.24530405 -0.06102785 -0.08286163 0.39463052 0.16165869
-0.49787992 -0.31209394 -0.29952183 0.05451408 0.037115425 -0.15981607 0.1606834 0.7690071
-0.10383678 -0.02437746 -0.052911796 -0.012904207 -0.039121564 -0.04713728 -0.07061982 -0.044188414
0.053338733 0.0058949087 -0.34638098 -0.031598806 -0.08311028 0.04410008 -0.09791471 0.02572894
0.015363718 0.062711805 0.048189756 -0.9746426 -0.28244656 -0.12943144 0.6279082 -0.9991571
-1.2530074 -0.02414201 -0.10539487 -0.4615908 -0.82648695 0.625911 0.80427617 2.840319
0.22360778 0.63464075 0.5760171 2.063399 0.6635455 0.8668308 -0.23758203 -0.28660747
0.6042902 0.09732855 0.08163978 -0.17333592 -0.5795824 0.60954237 -0.80254716 -0.26982084
0.085964054 -0.07163154 -0.018428834 -0.023091013 1.6652602 -0.16749287 -1.2763342 -0.38969076
0.99908346 0.81013495 1.3638927 0.10069033 -0.08948832 -0.4521827 0.2886713 0.31197858
-0.20189388 -1.914023 -0.80426145 -1.2314801 -0.13341343 0.004329282 0.124412745 -0.28742608
0.7157248 0.3858183 0.064366646 0.06561645 -0.21680482 0.3040895 1.0041645 0.066113845
-0.045762487 0.34572506 0.15435666 -1.0038304 -0.051299673 -1.2141111 0.22300255 0.9092079
-0.9504553 -1.0777986 -0.96423 -0.4620178 0.39798966 0.27262884 0.5217203 0.38882235

head_conv.2.point_wise_2.bias f4 [32]
00000000: f7bf 283e 17ce 7a3e c4e1 a93e cb2b 893e
00000010: d969 b5bd e34f e33d 0d5f e4be 4935 ff3d
00000020: e591 fe3e 6495 ccbe d674 94bd 4217 e4be
00000030: 6166 0340 e6ac dabc 8cae c23d 1ea8 363e
00000040: 0259 58bd 6b99 a8be c5ae 33bf ddc9 5e3f
00000050: 5021 4b3f 9a78 983b 6d27 b2be da56 863e
00000060: a115 10bd efc1 de3d 931f ad3d 0c01 6bbe
00000070: 025e 1c3e c2e1 693b 5448 413f 9829 1cbf
0.16479479 0.2449268 0.33180058 0.26791224 -0.088580795 0.110992216 -0.44603768 0.12461335
0.49720684 -0.39957726 -0.07248847 -0.44548994 2.0531237 -0.026693773 0.095059484 0.17837569
-0.05281926 -0.3292955 -0.7018855 0.8702677 0.79347706 0.0046530487 -0.34795704 0.26238137
-0.035176877 0.10876834 0.08453288 -0.22949618 0.15270236 0.003568754 0.7550099 -0.6100097
