codes/Weights/wv3/weight-660.pth (torch, 92405 bytes, 80 tensors)

head_conv.0.point_wise_1.weight f4 [9, 9, 1, 1]
0	0x3ec95431	0.39322045
1	0xbf3f0fe5	-0.7463363
2	0x3f65dc53	0.89789313
3	0xbeec84df	-0.46195123
4	0xbd3d2ce6	-0.046185397
5	0xbf702d68	-0.93819284
6	0x3caeeedd	0.021354133
7	0xbf339794	-0.70153165
8	0x3e8d3352	0.27578217
9	0xba9cb1c0	-0.0011954829
10	0xbde16cd3	-0.11007085
11	0xbe9c9d74	-0.30588877
12	0x3e62ad41	0.22136404
13	0xbf07b11e	-0.53004634
14	0x3fdb1b94	1.7117791
15	0xc01d8d25	-2.4617398
16	0xbf8f0318	-1.1172819
17	0x400c97da	2.1967683
18	0x3dcafaef	0.09911143
19	0xc00acc23	-2.1687095
20	0xc008e6c6	-2.1390853
21	0x3fe12558	1.7589521
22	0xbf867611	-1.0504781
23	0xbebac353	-0.36477146
24	0xbca68012	-0.02032474
25	0x3ef2ad14	0.47397673
26	0xbeadb29c	-0.3392533
27	0xbc156ee5	-0.009120678
28	0xbfba47d4	-1.455317
29	0xbf946794	-1.159411
30	0xbea978cd	-0.33099976
31	0xbef5860c	-0.47953832
32	0xbf9d56ec	-1.2292151
33	0xbf52a71a	-0.82286227
34	0x402f55a6	2.7396026
35	0x3fd94d08	1.6976633
36	0xbf298088	-0.6621175
37	0xbfc58d91	-1.5433828
38	0x3f983e79	1.1894065
39	0x3f2d9f9c	0.6782167
40	0xbfb0fb17	-1.3826627
41	0xc00b94f7	-2.180967
42	0x3fc7e731	1.5617429
43	0xbf23d762	-0.64000523
44	0xbe02e043	-0.12780862
45	0xc013598b	-2.3023403
46	0x3f2450d4	0.64185834
47	0xbebf125d	-0.37318698
48	0xbed5d722	-0.41765696
49	0x3fd6e602	1.6788943
50	0x3e12c54d	0.14333077
51	0x3e1e1b52	0.1544011
52	0x3ee8cd3d	0.45469084
53	0x3f2dd5cb	0.6790435
54	0x3d4c1a15	0.04982956
55	0xbfed6fb8	-1.8549719
56	0xbfd9dcb0	-1.7020473
57	0xbf993294	-1.196856
58	0x3f12534c	0.5715835
59	0x3f621ef5	0.88328487
60	0x401f5ad0	2.4899178
61	0xbfafbd21	-1.3729593
62	0x3e893363	0.26797017
63	0x3cc2a015	0.023757974
64	0xbf3672f0	-0.7126913
65	0xbe94e726	-0.29082602
66	0x3fa7423c	1.3067088
67	0x3eafcf8a	0.34338027
68	0xbec1155e	-0.37711614
69	0xc009bb5b	-2.1520603
70	0xbfc10504	-1.5079656
71	0x408117ef	4.0341716
72	0xbd45f472	-0.048328824
73	0x3ee58ab4	0.44832385
74	0xbf893f7c	-1.0722499
75	0xbd65b674	-0.056082204
76	0x40277c97	2.6169794
77	0xc023ec3f	-2.5612943
78	0xbdf06f42	-0.11739971
79	0xbf73aa52	-0.95181763
80	0x3fc87af4	1.5662522

head_conv.0.point_wise_1.bias f4 [9]
0	0x3e29bee2	0.16576722
1	0x3e18d414	0.14924651
2	0x3e9f77ed	0.31146184
3	0x3d0b825a	0.03405986
4	0x3e77e119	0.24206962
5	0x3c505098	0.012714528
6	0x3ed66821	0.4187632
7	0xbd2e269e	-0.042517297
8	0x3d4c3fea	0.04986564

head_conv.0.depth_wise_1.weight f4 [9, 1, 3, 3]
0	0x3ee1d6f2	0.44109303
1	0x3e30ac26	0.1725317
2	0x3e670e9c	0.22564167
3	0xbcf4b97f	-0.029873608
4	0xbfad110d	-1.3520828
5	0x3e1a54e3	0.15071444
6	0xbd01dc78	-0.031704396
7	0xbcd70005	-0.026245127
8	0x3e6ef487	0.23335467
9	0x3e5bc052	0.21460083
10	0xbf323600	-0.6961365
11	0x3ed0564e	0.40690845
12	0xbf356e1e	-0.7087115
13	0xbfdea1d1	-1.7393132
14	0xbd9cd1a3	-0.076571725
15	0x3dd911c1	0.105990894
16	0xbec62e9a	-0.3870743
17	0x3e57baeb	0.21067397
18	0x3e5f4da4	0.21806961
19	0x3f1c2b53	0.6100361
20	0xbd81a08a	-0.063294485
21	0x3f5dc0b5	0.8662217
22	0x3ef86010	0.4851079
23	0x3f300038	0.68750334
24	0xbd456b9a	-0.04819832
25	0x3f105093	0.56372947
26	0xbf09cf18	-0.53831625
27	0x3f224fbe	0.63402927
28	0xbf8bcf41	-1.0922624
29	0xbe8ca4e2	-0.27469546
30	0xbfa71181	-1.3052217
31	0x400fe35c	2.248252
32	0x3f27b998	0.6551757
33	0xbed7cc31	-0.42147973
34	0x3f2568a3	0.6461279
35	0xbe00b8f9	-0.12570561
36	0xbd31ce0c	-0.043409392
37	0x3dabe427	0.08393126
38	0xbe1c7975	-0.15280707
39	0x3d855beb	0.065116726
40	0x400f56c2	2.2396703
41	0x3db7f28c	0.08981809
42	0xbd8f8ebf	-0.070096485
43	0x3e4f8809	0.20266737
44	0xbdc5d73a	-0.09660192
45	0xbe5c8306	-0.21534356
46	0xbf0987a0	-0.5372257
47	0xbe7d78f0	-0.24753165
48	0xbef1ce28	-0.47227597
49	0x3db9c389	0.090704985
50	0xbf095780	-0.5364914
51	0xbe7d5372	-0.24738863
52	0xbeedf783	-0.464779
53	0xbe91953d	-0.28434172
54	0x3d59a8ae	0.05313938
55	0xbf89a26e	-1.0752695
56	0x3f2b80ae	0.66993225
57	0x3f23a9c7	0.63930935
58	0x404535cb	3.0814083
59	0xbf868eb8	-1.0512304
60	0xbeaa1b4b	-0.33223948
61	0x3e1cf1cd	0.15326615
62	0x3ec6a802	0.38800055
63	0x3df78939	0.1208672
64	0xbcd8284b	-0.0263864
65	0x3ee8dad0	0.4547944
66	0xbf3a84a0	-0.7285862
67	0xc02589b3	-2.5865295
68	0x3fd445af	1.6583766
69	0x3e6690e7	0.22516213
70	0x3ece9cc2	0.40353972
71	0x3efd634e	0.49489826
72	0xbf14a4ad	-0.58063775
73	0x3da6e1b9	0.08148522
74	0xbe9955ff	-0.29948422
75	0xbeb68bb7	-0.3565347
76	0xbf1bfe64	-0.60935044
77	0xbed72953	-0.42023715
78	0x3e05778e	0.13033888
79	0xbed10ccd	-0.4083008
80	0x3e3e7691	0.18599917

head_conv.0.depth_wise_1.bias f4 [9]
0	0x3e36dac2	0.17856887
1	0xbcce476e	-0.025180545
2	0xbd190fef	-0.03736871
3	0xbd856a99	-0.065144725
4	0x3dc29f55	0.095030464
5	0xbcd41d92	-0.025893006
6	0x3c81ff6f	0.01586887
7	0x3ae677e5	0.0017583339
8	0x3d0b4936	0.034005366

head_conv.0.point_wise_2.weight f4 [9, 9, 1, 1]
0	0xbfd8c3b1	-1.693472
1	0x3d20bc1b	0.03924189
2	0x3df6fab4	0.120595366
3	0x3e7ed30b	0.24885194
4	0x3f04f029	0.51928955
5	0x3facecd2	1.3509772
6	0xbe2d9a46	-0.16953382
7	0x3ec45046	0.38342494
8	0xbf136698	-0.5757842
9	0xbc4b6954	-0.012415249
10	0xbf4f7b04	-0.8104708
11	0xbf5b0961	-0.85561186
12	0x3e7bf02f	0.24603342
13	0xbed09389	-0.4073756
14	0x3fdea1a7	1.7393082
15	0xbfdbcc15	-1.7171656
16	0xbf88178d	-1.0632187
17	0x40234921	2.5513384
18	0xbd34214a	-0.04397706
19	0x40302de5	2.7528012
20	0x3f8a85fb	1.0822138
21	0xc02eda3e	-2.7320704
22	0x3f163d10	0.58686924
23	0x3eb53c76	0.3539769
24	0xbda8338d	-0.082129575
25	0x3e8ccdc7	0.27500746
26	0xbea4199c	-0.32050788
27	0x3ce5f055	0.0280687
28	0xbed2dc55	-0.41183725
29	0x3f1e5d88	0.6186147
30	0x3f6578ad	0.8963726
31	0xbdef6084	-0.11688331
32	0xbfd536c5	-1.6657339
33	0x3f3b18b1	0.7308455
34	0x3f6e7a70	0.93155575
35	0xbff701c6	-1.9297416
36	0x3c550134	0.013000775
37	0xbe90cf50	-0.28283167
38	0x3f84f264	1.0386472
39	0x3ec96c8e	0.39340633
40	0xbe4e15fc	-0.20125574
41	0xbfaaa3cc	-1.3331237
42	0x3fe941ef	1.8223246
43	0xbf52018e	-0.8203362
44	0xbf270cef	-0.6525411
45	0xbe89fb8e	-0.26949733
46	0xbdc3bb0d	-0.095571615
47	0x3f6d3eb6	0.92673814
48	0x3ea1fb8f	0.31637236
49	0xbe695df2	-0.22789744
50	0x3f3d1c81	0.7387162
51	0xbf6915d8	-0.91048956
52	0x3fc33b66	1.5252502
53	0xbfef8cb3	-1.8714813
54	0xbd32bdf0	-0.04363817
55	0xbfd1d46e	-1.6392953
56	0xbf678da0	-0.9045048
57	0xbfac4008	-1.3457041
58	0x3e4bd81b	0.19906656
59	0x401eb721	2.4799273
60	0x3f8bfad0	1.0935917
61	0xbec36961	-0.38166335
62	0xbed21134	-0.4102875
63	0x3dc0d484	0.09415534
64	0x401beaef	2.4362142
65	0xbfd84b0d	-1.6897904
66	0xbebde28a	-0.37086898
67	0x3fdb998a	1.7156231
68	0xbeb2b000	-0.34899902
69	0xbfec246d	-1.8448616
70	0x3f9db48d	1.2320725
71	0xbf950321	-1.164158
72	0xbc43d2f2	-0.011952149
73	0x3f80e030	1.0068417
74	0xbf0f794f	-0.5604448
75	0x3e9d2543	0.3069249
76	0x4050a673	3.2601593
77	0xc03beb82	-2.9362493
78	0x3e8d5793	0.27605876
79	0xbf91fdad	-1.1405541
80	0x3fd158d2	1.6355231

head_conv.0.point_wise_2.bias f4 [9]
0	0xbda0bd84	-0.07848647
1	0x3defcefe	0.117094025
2	0xbde3a8a0	-0.11116147
3	0xbd5f4c83	-0.054516327
4	0xbc928762	-0.017886821
5	0xbdda671b	-0.10664197
6	0x3e871d22	0.26389414
7	0x3c4f5c5b	0.012656297
8	0xbe0d256c	-0.13783807

head_conv.0.depth_wise_2.weight f4 [9, 1, 3, 3]
0	0x3e94fc83	0.290989
1	0x3e8571a6	0.2606327
2	0x3e2218a6	0.15829715
3	0x3e3198ab	0.17343394
4	0x400c0e1d	2.1883614
5	0x3e32d040	0.17462254
6	0x3dc9ee37	0.09859889
7	0x3e12d127	0.14337598
8	0x3e0367ef	0.12832616
9	0x3f1f6fd7	0.6228003
10	0xbf45b108	-0.77223253
11	0x3f3c6b80	0.7360153
12	0xbf46cf23	-0.77659816
13	0xc03c72b4	-2.944501
14	0x3f60a7fb	0.8775632
15	0x3f0616cb	0.5237853
16	0xbf82a5b3	-1.0206817
17	0x3ea0f14c	0.31434095
18	0x3e61c3cb	0.22047345
19	0xbf6c4058	-0.9228568
20	0x3f05c4ab	0.52253217
21	0xbf531047	-0.8244671
22	0xbdea17e9	-0.11430342
23	0xbf8c6a6d	-1.0969979
24	0xbda7221d	-0.081608035
25	0xbfa3626b	-1.276441
26	0x3e3e0f81	0.18560602
27	0xbf0068d4	-0.50159955
28	0xbde29bd8	-0.11064881
29	0x3f506acc	0.8141296
30	0x3eea817e	0.4580192
31	0xbf362677	-0.7115244
32	0x3e363f93	0.17797689
33	0x3ea01fb6	0.31274194
34	0xbdbdfb3e	-0.09276436
35	0xbe86a0ca	-0.26294547
36	0x3e5d7632	0.21627119
37	0xbe072c18	-0.13200414
38	0x3eb0a7bb	0.34502968
39	0xbe4dd894	-0.20102149
40	0xbdb8b5a5	-0.09019021
41	0xbe8c48c3	-0.27399263
42	0x3f15205d	0.5825251
43	0xbf11c064	-0.5693419
44	0x3eb9b7f8	0.3627317
45	0xbeff5c52	-0.49875122
46	0xbe240a17	-0.16019474
47	0xbf26a20b	-0.6509101
48	0x3ed5c56e	0.4175219
49	0x3f9baeb2	1.2162688
50	0x3f079d2d	0.52974206
51	0xbe94930b	-0.29018435
52	0xbe72e92b	-0.23721759
53	0xbf0f57a3	-0.559931
54	0xbf050c0e	-0.5197152
55	0x3de677e5	0.11253337
56	0xbe5185d5	-0.20461209
57	0x3f2104a4	0.62897706
58	0x3f81c2de	1.0137594
59	0xbf14cc0c	-0.5812385
60	0xbeb409f2	-0.35163838
61	0x3f2f63c1	0.6851159
62	0xbefcc58f	-0.49369475
63	0xbd939d4a	-0.07207735
64	0x3f219da3	0.6313116
65	0x3b6c8964	0.0036092633
66	0x3f1f9578	0.62337446
67	0x4030b1c8	2.760851
68	0x3f24e44d	0.6441086
69	0x3c80ac75	0.015707234
70	0x3ec55717	0.38543007
71	0xbe8e96af	-0.27849337
72	0x3f751537	0.95735496
73	0xbda36dc9	-0.07979924
74	0xbe9bbf31	-0.30419305
75	0xbf458575	-0.77156764
76	0xc0272c33	-2.6120727
77	0xbe413004	-0.18865973
78	0xbd2b8aa2	-0.041880257
79	0xbfcbc9cb	-1.5920957
80	0x3e917ea9	0.28416947

head_conv.0.depth_wise_2.bias f4 [9]
0	0x3e36dac2	0.17856887
1	0xbcce476e	-0.025180545
2	0xbd190fef	-0.03736871
3	0xbd856a99	-0.065144725
4	0x3dc29f55	0.095030464
5	0xbcd41d92	-0.025893006
6	0x3c81ff6f	0.01586887
7	0x3ae677e5	0.0017583339
8	0x3d0b4936	0.034005366

head_conv.1.point_wise_1.weight f4 [20, 9, 1, 1]
0	0x3ec676fe	0.3876266
1	0xbf49e39d	-0.78862935
2	0x3fb051a9	1.3774921
3	0x3e3730ce	0.17889711
4	0xbeadfa74	-0.33980143
5	0x3f2f2e55	0.6843007
6	0x3dc83290	0.09775269
7	0x3f47065c	0.7774408
8	0xbf243bb2	-0.6415359
9	0xbdfe314a	-0.12411745
10	0x3ec4942d	0.383943
11	0x3ea9db15	0.3317496
12	0x3fc6226f	1.5479258
13	0x3ecf72c3	0.40517244
14	0xbd2c7133	-0.042100143
15	0xbd944cac	-0.072411865
16	0xbe67731b	-0.22602503
17	0xbe39f94f	-0.1816151
18	0xbe5a21c7	-0.21301948
19	0x3f5da8f4	0.86585927
20	0xbe9f51d2	-0.3111711
21	0xbe4401c4	-0.19141299
22	0x3eef5926	0.46747702
23	0x3d93e18f	0.07220756
24	0xc007c062	-2.121117
25	0xbebabec0	-0.36473656
26	0xbecfa68d	-0.40556756
27	0xbea47544	-0.32120717
28	0x3faae9df	1.3352622
29	0xbea97039	-0.33093432
30	0xbe8ad1f5	-0.2711331
31	0x3f879a76	1.0594013
32	0x3d9623e3	0.073310636
33	0x3f92a5f2	1.1456892
34	0xbc471083	-0.012149933
35	0x3e58f7c4	0.21188265
36	0xbe217f05	-0.1577111
37	0xbcaa6c3c	-0.020803563
38	0x3e64f7d7	0.22360168
39	0xbe323aaa	-0.17405191
40	0x3ee3c130	0.44483328
41	0xbd01d851	-0.031700436
42	0xbd172dc8	-0.036908895
43	0x3e5ddeb4	0.21666986
44	0x3f0c2afa	0.5475308
45	0x3e50eef0	0.20403647
46	0xbf26a07a	-0.6508862
47	0xbf16bba8	-0.5888009
48	0x3f3ba127	0.73292774
49	0xbf178b8f	-0.59197325
50	0xbd6f4a8c	-0.058420703
51	0xbf0192f9	-0.5061489
52	0x3facb2a6	1.3492019
53	0x3d93e132	0.07220687
54	0xbe850a61	-0.2598448
55	0xbfadbed4	-1.3573861
56	0x3e022bfb	0.1271209
57	0xbdc7d8dc	-0.097581595
58	0x3eda1af2	0.42598683
59	0xbdc4014f	-0.09570562
60	0xbe6d7e54	-0.23192722
61	0xbf55c72d	-0.83507043
62	0xbef546da	-0.47905618
63	0x3ef5d36a	0.4801286
64	0x3ecf8d02	0.40537268
65	0x3f90c406	1.1309822
66	0xbf334cc4	-0.7003901
67	0xbf0ad972	-0.54238045
68	0xbd2ec68b	-0.042669814
69	0xbf2fe95c	-0.68715453
70	0x3f807e6f	1.0038584
71	0xbde0c48d	-0.10974989
72	0x3e93c294	0.2885939
73	0x3d8c109a	0.06839104
74	0x3f796bea	0.9743029
75	0x3cd33339	0.02578126
76	0xbf6c38eb	-0.9227435
77	0xbdbb2d6e	-0.091395244
78	0xbe588bbc	-0.21147054
79	0xbd092b48	-0.03348854
80	0xbd9a9c5d	-0.07549355
81	0xbe233483	-0.15938
82	0x3da3198a	0.079638556
83	0xbec58f96	-0.3858611
84	0xbe3d9fc8	-0.18517983
85	0xbd147e23	-0.036253106
86	0xbe8fa44b	-0.28055033
87	0xbe8744a0	-0.26419544
88	0x3bed1889	0.007235591
89	0xbd0ba558	-0.03409323
90	0x3d19898f	0.0374847
91	0xbc842815	-0.016132394
92	0xbec3618c	-0.3816036
93	0x3e805842	0.25067335
94	0x3e9aa464	0.30203545
95	0x3dc08b21	0.09401537
96	0x3dda74a9	0.106667824
97	0x3d4ef0c6	0.05052259
98	0xbf0a4ac8	-0.5402036
99	0xbe7361a3	-0.23767714
100	0xbddac32f	-0.106817596
101	0xbebe8428	-0.37210202
102	0xbd5a0c21	-0.053234223
103	0x3e141415	0.14460786
104	0x3cb8f9b1	0.02258
105	0xbe36a192	-0.17835072
106	0xbf1dab73	-0.61589736
107	0xbe15aebf	-0.14617442
108	0xbd971de7	-0.0737875
109	0xbedda659	-0.43290976
110	0x3f0a416a	0.54006064
111	0xbe95de45	-0.2927114
112	0x3d79917f	0.06092977
113	0xbb14bec7	-0.002269672
114	0xbf02ef4a	-0.51146376
115	0xbf22df8a	-0.63622344
116	0xbf0487fd	-0.5177
117	0x3e6607c7	0.22463904
118	0x3f17264b	0.59042805
119	0x3f80376a	1.0016911
120	0xbefd72f7	-0.49501774
121	0xbea71c8a	-0.3263896
122	0xbd93dc63	-0.0721977
123	0x3e97a3f6	0.2961728
124	0x3ea580ca	0.3232482
125	0xbfb02b2a	-1.3763173
126	0x3d4383e0	0.047733188
127	0xbe537738	-0.20650947
128	0xbf44a7eb	-0.7681872
129	0xbdb01868	-0.08598405
130	0xbe1c1bff	-0.15245055
131	0xbed248dc	-0.41071212
132	0xbea50aaa	-0.322347
133	0x3eace606	0.33769244
134	0xbcbf0919	-0.023319768
135	0xbd5be605	-0.05368616
136	0x3f1a8a9b	0.60367745
137	0xbf83cc47	-1.0296715
138	0xbc9b0795	-0.018924514
139	0x3de9f41e	0.11423515
140	0xbd0f5e8d	-0.03500228
141	0x3eb6665e	0.35624975
142	0x3ebd57f9	0.3698118
143	0xc01e1df0	-2.4705772
144	0xbdb2b63c	-0.08726165
145	0x4023e2b8	2.5607128
146	0xbf816afd	-1.0110775
147	0xbe293972	-0.1652582
148	0x3ee2dd74	0.4430958
149	0xbc01ea5c	-0.007929411
150	0x3f802d87	1.0013894
151	0x3fb0be63	1.3808101
152	0x3f17fc45	0.5936931
153	0xbda51355	-0.08060328
154	0x3e3260e6	0.17419776
155	0xbd28993b	-0.041161757
156	0xbea166d9	-0.3152378
157	0x3e6b6785	0.22988708
158	0xbe7a72bc	-0.2445783
159	0xbddecacc	-0.10878524
160	0x3f0c9a6a	0.5492312
161	0x3eb1f693	0.34758434
162	0xbf694162	-0.9111539
163	0xbe3c18e6	-0.18368873
164	0xbe1ad424	-0.15119988
165	0xbedd37d5	-0.4320666
166	0xbf06b0a4	-0.5261328
167	0xbf3b0bb8	-0.73064756
168	0xbe74cfcf	-0.23907398
169	0x3f11aa42	0.5690042
170	0x3d0a1f41	0.033721212
171	0x3ec8c13d	0.3920993
172	0x3c0859e3	0.008322212
173	0x3e2fa3c0	0.1715231
174	0xbd0770bb	-0.033066493
175	0xbe0c2ab0	-0.13688159
176	0x3f0ef808	0.55847216
177	0xbdc95e26	-0.098324105
178	0xbdc8a871	-0.09797753
179	0xbdba83a0	-0.09107137

head_conv.1.point_wise_1.bias f4 [20]
0	0xbdb36737	-0.08759921
1	0x3ed28ea7	0.4112446
2	0x3df4bc4a	0.11949976
3	0x3c38dbcd	0.011282873
4	0xbdce9ed7	-0.1008889
5	0x3dd9ac69	0.10628588
6	0xbe32bf4c	-0.17455786
7	0x3e001593	0.1250823
8	0x3ed8ed4e	0.4236855
9	0xbdb7c410	-0.08972943
10	0xbdbc10d9	-0.09182901
11	0xbdf96710	-0.12177861
12	0x3ecf7790	0.40520906
13	0x3e54f545	0.20796688
14	0xbe26e2a3	-0.16297393
15	0xbe106bc7	-0.14103614
16	0xbb54995f	-0.003244005
17	0xbe50f3ea	-0.20405546
18	0xbcdc8531	-0.02691898
19	0x3d54d014	0.05195625

head_conv.1.depth_wise_1.weight f4 [20, 1, 3, 3]
0	0x3ed0714c	0.4071144
1	0xbeadd878	-0.33954215
2	0x3e5c7d59	0.21532191
3	0xbed81dd3	-0.42210254
4	0x3fd232e0	1.6421776
5	0xbf266aef	-0.6500692
6	0xbe07e0ef	-0.13269399
7	0xbe9c2c28	-0.3050244
8	0x3d1418f5	0.036156613
9	0x3cd84f7a	0.026405085
10	0x3eb8ecc9	0.36118153
11	0x3e96a42c	0.29422128
12	0x3c139fc6	0.009010261
13	0x3f2d5f06	0.6772312
14	0xbdddefbf	-0.108367436
15	0xbe90a6c3	-0.2825223
16	0xbe373a3d	-0.1789331
17	0x3cbb0687	0.02283026
18	0x3eee41b6	0.46534508
19	0xbef3dbba	-0.47628576
20	0xbe64b129	-0.22333206
21	0x3f6528ba	0.8951527
22	0xbf851565	-1.0397154
23	0xbf45c713	-0.7725689
24	0xbf1c4947	-0.6104931
25	0x3f3152f6	0.69267213
26	0x3f17913f	0.59206
27	0x3eed385e	0.46332067
28	0xbf69fb03	-0.9139864
29	0xbca01123	-0.019539421
30	0xbe73093a	-0.23733988
31	0xbdcda64b	-0.100414835
32	0xbe4c6e7b	-0.1996402
33	0xbe93df25	-0.28881183
34	0x3fa23977	1.2673787
35	0x3e9cf720	0.3065729
36	0x3eed924d	0.4640068
37	0x3eb77cb7	0.35837337
38	0xbf70e510	-0.9409952
39	0x3f27e58d	0.6558464
40	0x3f5c82c4	0.8613703
41	0xbf78b9c7	-0.97158474
42	0xbf8f2bdf	-1.1185263
43	0x3e2e82f2	0.17042139
44	0x3eec4904	0.46149457
45	0x3e8383e2	0.25686556
46	0xbde8699b	-0.11348268
47	0x3e817717	0.2528617
48	0xbe768b94	-0.24076682
49	0xbd63bf8c	-0.055602595
50	0xbd2ff5f8	-0.042959183
51	0x3ef0b5ca	0.47013694
52	0x3e9bef40	0.3045597
53	0x3e93f536	0.2889802
54	0x3f7c3858	0.98523474
55	0xbcf614a8	-0.030039147
56	0xbeacd05b	-0.33752713
57	0xbe200e9b	-0.15630572
58	0x3f359421	0.7092915
59	0xbf07cf37	-0.5305056
60	0x3db3987b	0.08769318
61	0xbe01f483	-0.1269093
62	0xbeebe4ad	-0.46072903
63	0x3c08e327	0.008354939
64	0x3e49abb9	0.19694413
65	0x3df965fd	0.12177656
66	0x3dd5eadd	0.10445187
67	0x3f41fc1a	0.757753
68	0xbbb2944a	-0.0054498063
69	0xbd4da5de	-0.05020701
70	0xbe5f2e32	-0.21794966
71	0xbd445167	-0.047929194
72	0xbf5f727e	-0.87284076
73	0x3f094fcb	0.5363738
74	0xbf50aa6f	-0.8151006
75	0x3ed104ba	0.4082392
76	0x3fa9dd2a	1.3270619
77	0x3e3e4199	0.18579711
78	0xbf192827	-0.5982689
79	0x3ee575d9	0.44816473
80	0xbf63ba70	-0.88956356
81	0xbefe65f6	-0.49687165
82	0x3e8b64a7	0.2722523
83	0xbeb524da	-0.35379678
84	0x3e1f94ae	0.1558406
85	0x3f3db997	0.7411131
86	0xbdc6243d	-0.09674881
87	0xbe7555ba	-0.23958483
88	0x3eb3cf80	0.35119247
89	0xbec99c79	-0.39377192
90	0x3d64417e	0.05572652
91	0x3efef811	0.49798635
92	0xbe210705	-0.15725334
93	0x3ed35df9	0.41282633
94	0x3ee3edcb	0.4451736
95	0xbf2083cd	-0.6270111
96	0xbe47ef43	-0.19524865
97	0xbeb61b1b	-0.35567555
98	0x3bb07a60	0.005385682
99	0x3ec68890	0.38776064
100	0x3eaf4721	0.34233955
101	0x3e3ae90e	0.18252966
102	0xbf1f55e8	-0.6224046
103	0xbe9a64f8	-0.30155158
104	0xbeddccfd	-0.43320456
105	0x3ee6b595	0.4506041
106	0xbe740811	-0.23831202
107	0x3e2c0183	0.16797452
108	0xbe6cfc84	-0.23143202
109	0x3e3217f5	0.17391951
110	0x3ea5184e	0.32245106
111	0xbe84f4cc	-0.25968015
112	0x3f394d5f	0.72383684
113	0x3ea17005	0.31530777
114	0x3ebff9ba	0.37495214
115	0xbf5e87a9	-0.8692575
116	0xbcfabce3	-0.030607646
117	0xbed6ce1b	-0.4195412
118	0xbe2aabb5	-0.16667064
119	0x3e427e4a	0.18993488
120	0xbf267cd4	-0.6503422
121	0xbf481e82	-0.7817155
122	0x3f0230d4	0.50855756
123	0x3e7c5330	0.24641109
124	0x3f0a5ece	0.5405091
125	0x3da80f4f	0.08206045
126	0xbf4eda1e	-0.8080157
127	0x3dffd987	0.12492662
128	0xbec0f775	-0.37688795
129	0x3f267d3f	0.6503486
130	0xbe3e79f3	-0.18601207
131	0x3f903471	1.1266004
132	0xbe992ff5	-0.299194
133	0x3eeb80f6	0.45996827
134	0xbf65e3d2	-0.8980075
135	0x3ea8e73d	0.3298892
136	0x3d272dde	0.040815227
137	0xbe593004	-0.21209723
138	0xbea2033a	-0.31643087
139	0x3f926954	1.1438394
140	0x3f0ee455	0.5581716
141	0xbde51966	-0.11186485
142	0xbf190d59	-0.5978599
143	0xbe3c3342	-0.18378928
144	0x3f539c00	0.8265991
145	0xbf9f82ab	-1.2461752
146	0x3ee7b885	0.45257965
147	0x3e6f7bcf	0.23387073
148	0x3e3c969e	0.18416831
149	0xbe3139d8	-0.17307222
150	0xbf79feff	-0.9765472
151	0x3fb3946a	1.4029667
152	0xbf4f8a2b	-0.810702
153	0x3e700b28	0.23441756
154	0xbe2cfb85	-0.16892822
155	0xbea3d8df	-0.32001397
156	0x3f7a09f6	0.9767145
157	0x3e6d5817	0.23178135
158	0x3f219e62	0.631323
159	0xbd2ba13a	-0.041901805
160	0xbf0a86ac	-0.5411174
161	0xbf9e35eb	-1.2360204
162	0xbedabcf4	-0.42722285
163	0xbec3f8e3	-0.38275823
164	0xbeb790aa	-0.35852557
165	0xbeb7463a	-0.35795766
166	0x3f32a380	0.6978073
167	0xbe9b6c87	-0.30356237
168	0xbedaf4a8	-0.42764783
169	0xbe94b82d	-0.29046765
170	0xbf0863b6	-0.53277147
171	0xbe43334a	-0.19062534
172	0xbec68c3d	-0.38778868
173	0xbe29702c	-0.16546696
174	0xbef007c8	-0.46880937
175	0x3fe41ad5	1.7820688
176	0xbe999d0d	-0.30002633
177	0xbddb757e	-0.10715769
178	0xbedd3a03	-0.43208322
179	0xbd7a0c88	-0.061047107

head_conv.1.depth_wise_1.bias f4 [20]
0	0x3c83d61f	0.016093312
1	0xbdff10f7	-0.12454408
2	0x3c99599f	0.018719492
3	0xbbbcedb0	-0.0057656392
4	0x3cbfaa27	0.023396565
5	0xbde9633b	-0.1139588
6	0x3c41e39e	0.011834053
7	0xbcce79ce	-0.025204565
8	0x3d8cf39c	0.06882402
9	0x3c9d407c	0.019195788
10	0x3e01b502	0.12666705
11	0xbdae38ac	-0.08506903
12	0xbcad9a18	-0.021191642
13	0x3cd4ad10	0.025961429
14	0x3c23c9bd	0.009996829
15	0x3d0bfd15	0.034176905
16	0xbc019bc1	-0.00791067
17	0xbcbf3250	-0.02333942
18	0x3d9fea8a	0.07808407
19	0x3e117b0e	0.14207098

head_conv.1.point_wise_2.weight f4 [20, 9, 1, 1]
0	0xbd7973a2	-0.06090129
1	0x3ed02473	0.4065281
2	0xbc672e6a	-0.014110187
3	0xbe1eceda	-0.15508595
4	0xbe638dff	-0.22222136
5	0xbed24951	-0.4107156
6	0xbe94d1d7	-0.29066345
7	0xbeacadb9	-0.3372629
8	0x3f83ce25	1.0297285
9	0x3e21b827	0.15792905
10	0xbe8638a9	-0.26215103
11	0xbe3c9ea8	-0.18419898
12	0x3e8634a6	0.26212043
13	0xbe744082	-0.23852733
14	0x3e04e3fc	0.12977594
15	0xbd018300	-0.031619072
16	0x3e6faf09	0.23406614
17	0xbcf785f5	-0.030215243
18	0x3ed46285	0.41481414
19	0xbeaf564a	-0.3424552
20	0x3f06bbc9	0.5263029
21	0x3e62b98f	0.22141097
22	0xbef95c45	-0.4870321
23	0xbd55186b	-0.05202524
24	0x3f4ca919	0.7994552
25	0x3f7b9230	0.9826994
26	0xbec4963a	-0.38395864
27	0x3e58a23d	0.21155639
28	0x3f57c5f5	0.84286433
29	0x3e99e18a	0.30054885
30	0x3e031755	0.12801869
31	0xbe9506e7	-0.2910683
32	0xbe0ff27b	-0.14057343
33	0x3e0d684d	0.13809319
34	0x3fc2a8d6	1.5207775
35	0x3f1029d9	0.56313854
36	0x3e4090fc	0.18805307
37	0xbe8ab5c2	-0.27091795
38	0xbf0beace	-0.5465516
39	0xbed9afe4	-0.42517006
40	0x3de363ca	0.11103018
41	0x3e608136	0.2192429
42	0x3e937ee0	0.28807735
43	0x3e6b9c93	0.23008947
44	0xbed57532	-0.41690975
45	0xbe19fd4f	-0.15038036
46	0x3f61d0cd	0.8820923
47	0x3f39c3f3	0.7256462
48	0xbe6363c2	-0.22206023
49	0x3f5c99db	0.86172265
50	0x3ee293a0	0.44253254
51	0x3ec7579a	0.38934022
52	0xbf9b17f9	-1.2116691
53	0xbed477f1	-0.41497758
54	0x3e793131	0.24335171
55	0xbf924369	-1.1426822
56	0xbeddfc7e	-0.433567
57	0x3f16f513	0.58967704
58	0xbf0517a6	-0.5198921
59	0x3e8addd5	0.2712237
60	0xbe08db6f	-0.13364957
61	0x3e7f853a	0.24953166
62	0xbe624a3c	-0.2209863
63	0xbda400cf	-0.08007967
64	0xbe450579	-0.19240369
65	0x3e4a1c18	0.1973728
66	0x3cde1317	0.027108712
67	0x3ded6f64	0.11593512
68	0xbdc17477	-0.09446042
69	0xbd9296a6	-0.0715764
70	0xbf166bca	-0.58758223
71	0x3e9ff1da	0.31239206
72	0x3ed15c94	0.40890944
73	0xbee48e6d	-0.44639912
74	0x3f8d465a	1.1037095
75	0x3d751721	0.05983651
76	0xbda66602	-0.08124925
77	0x3dfd2e86	0.12362389
78	0x3e2c1557	0.16805016
79	0x3e9533d3	0.291411
80	0xbe194ace	-0.14969942
81	0xbe82626d	-0.25465718
82	0xbe2a9306	-0.16657647
83	0xbdb3bf66	-0.08776741
84	0x3d0b5aa9	0.034022007
85	0x3f62de6f	0.88620657
86	0xbe5f59cc	-0.21811599
87	0x3d8cc880	0.0687418
88	0x3ea04d80	0.31309128
89	0x3e37c817	0.17947422
90	0x3f26f24e	0.6521348
91	0x3d081c48	0.033230096
92	0xbf239538	-0.63899565
93	0x3c879a85	0.016553173
94	0xbf9d7d89	-1.2303935
95	0x3a0508ee	0.0005074878
96	0xbdea4ee6	-0.1144083
97	0xbe034fab	-0.1282336
98	0x3c3fedac	0.01171438
99	0xbf696c1f	-0.91180605
100	0xbdc73d99	-0.09728546
101	0xbc132661	-0.008981318
102	0x3e8280b1	0.2548881
103	0x3d28e747	0.04123619
104	0x3fd60e47	1.6723107
105	0x3ea05d93	0.3132139
106	0x3e6d9377	0.23200785
107	0x3d04d97b	0.032433968
108	0xbc97e41b	-0.018541386
109	0xc0066549	-2.099932
110	0xbe1959be	-0.1497564
111	0x3e6ed14f	0.23322032
112	0xbda3807c	-0.07983491
113	0xbbc791f7	-0.0060903984
114	0xbf2924b1	-0.6607161
115	0xbe71a788	-0.23599064
116	0xbf22e2c0	-0.63627243
117	0x3d5aa021	0.053375367
118	0xbd766d5a	-0.06016288
119	0x3fb886d3	1.4416145
120	0xbe7dc4cd	-0.24782105
121	0x3ede085a	0.43365747
122	0xbe07fa5f	-0.13279103
123	0xbdcd86d1	-0.1003548
124	0x3f36797b	0.71279114
125	0xbd0fd119	-0.03511152
126	0x3e78c1f4	0.24292737
127	0x3dfda1d5	0.12384383
128	0xbe89081c	-0.26764
129	0x3fc5b1d9	1.54449
130	0xbf149a08	-0.58047533
131	0xbd375d6f	-0.04476684
132	0xbe48db8e	-0.19615003
133	0x3e368e86	0.17827806
134	0xbea0ab92	-0.31380898
135	0xbe883b36	-0.26607674
136	0x3e6f26ad	0.23354597
137	0x3d95531f	0.07291245
138	0xbddc39fe	-0.10753249
139	0x3e51618e	0.2044737
140	0xbe941cf3	-0.28928337
141	0xbe6dd8d9	-0.23227252
142	0xbe156f49	-0.14593233
143	0x3e1eeeb4	0.15520746
144	0xbecc89a6	-0.39948767
145	0xc0200f1e	-2.5009227
146	0x3ef4a7d0	0.4778428
147	0x3e41534d	0.18879433
148	0x3f228e13	0.6349804
149	0xbcea42a2	-0.028596226
150	0xbf0aa70c	-0.54161143
151	0xc00e1e8a	-2.220614
152	0xbeb063a1	-0.3445101
153	0xbe476384	-0.19471556
154	0x3ea4e847	0.32208464
155	0xbf0e8b0a	-0.55680907
156	0x3d299a0e	0.041406684
157	0x3e4e2c76	0.20134148
158	0xbdc695c7	-0.096965365
159	0x3f395ee1	0.724104
160	0xbbfc8ea8	-0.0077074356
161	0xbf9049c9	-1.1272517
162	0x3c43cbf7	0.0119504845
163	0xbecc5027	-0.399049
164	0x3efc6385	0.49294677
165	0xbeb92141	-0.36158183
166	0xbf018937	-0.506
167	0xbf5d0840	-0.86340714
168	0xbab4fb47	-0.0013807797
169	0x3ebb4406	0.36575335
170	0xbe839114	-0.25696623
171	0xbf17ea42	-0.59341824
172	0xbcca7548	-0.024714127
173	0x3d1dfdae	0.038572006
174	0xbd33edfc	-0.04392813
175	0xbf2f916e	-0.68581283
176	0x3e8a825a	0.27052575
177	0xbd8619fe	-0.06547926
178	0x3cce76ea	0.025203187
179	0x3cc4a680	0.024005175

head_conv.1.point_wise_2.bias f4 [20]
0	0xbd0c60c5	-0.034271974
1	0xbcd01269	-0.025399404
2	0x3de79717	0.11308115
3	0xbd834b8f	-0.06410896
4	0xbde6be6d	-0.112667896
5	0x3d9aad21	0.07552553
6	0xbd6b8930	-0.05750388
7	0xbd326fb0	-0.043563545
8	0xbd4bed95	-0.049787123
9	0xbed5d580	-0.4176445
10	0x3ecf3c3a	0.40475637
11	0x3dfd5415	0.12369553
12	0xbe94eb19	-0.29085615
13	0xbe7ec000	-0.2487793
14	0x3e7351f3	0.2376173
15	0xbde9de49	-0.11419351
16	0xbe3bab88	-0.18327153
17	0x3a9aa812	0.0011799356
18	0x3dcd594e	0.10026799
19	0x3deca969	0.1155575

head_conv.1.depth_wise_2.weight f4 [20, 1, 3, 3]
0	0x3f2a288a	0.6646811
1	0xbdc22f58	-0.09481686
2	0x3e8d2618	0.27568126
3	0x3ecd7e80	0.40135574
4	0xbf096d0e	-0.5368203
5	0xbe9bfd03	-0.3046647
6	0xbea6406f	-0.32471034
7	0xbdf6adb2	-0.120448485
8	0x3c4a190a	0.012335071
9	0x3edd9f89	0.43285778
10	0xbf1692b6	-0.58817613
11	0xba58f524	-0.0008276275
12	0x3eef72c4	0.46767247
13	0xbe8b4d95	-0.27207628
14	0x3ee104c4	0.43948948
15	0xbe0c8c9c	-0.13725513
16	0xbefb1c6f	-0.4904513
17	0x3e138c57	0.14409004
18	0x3e9a59b5	0.30146566
19	0x3dc8bee7	0.09802037
20	0xbd432c0e	-0.047649436
21	0xbdae2c28	-0.08504516
22	0x3e0a1524	0.13484627
23	0xbe2de2c2	-0.16981032
24	0x3b127fad	0.0022353933
25	0xbd511e15	-0.05105408
26	0x3e817e23	0.25291547
27	0x3f844540	1.0333633
28	0xbf6863b3	-0.9077713
29	0xbe446708	-0.19179928
30	0x3f0c1a21	0.5472737
31	0xbea9d5e7	-0.33171007
32	0xbe4910b5	-0.1963528
33	0xbf6ccbd7	-0.92498535
34	0x3f3f9cd9	0.74848706
35	0xbdac5ddd	-0.084163405
36	0x3ee3cbe5	0.44491497
37	0xbf1d7f9d	-0.6152285
38	0xbefab98f	-0.48969695
39	0xbc3e8574	-0.011628497
40	0xbc8e8ec5	-0.017402062
41	0xbe934ee2	-0.2877112
42	0x3ed83f4b	0.4223579
43	0x3f0f1039	0.5588413
44	0x3e73e1c8	0.23816597
45	0x3ed014aa	0.40640765
46	0xbe8c3fe0	-0.27392483
47	0x3e1d9f33	0.15392761
48	0xbe112139	-0.1417283
49	0xbf4daf52	-0.8034564
50	0xbe7d0f18	-0.24712789
51	0x3ec77cc3	0.38962373
52	0x3e09a3bf	0.1344137
53	0x3e928916	0.28620213
54	0xbdf3cbde	-0.11904119
55	0xbed1b109	-0.4095538
56	0xbe9ac08c	-0.30225027
57	0x3f4d9d73	0.80318373
58	0x3e883e92	0.26610237
59	0x3f5f19db	0.8714883
60	0x3dc415da	0.0957448
61	0xbf0f3c2a	-0.5595118
62	0xbf0d2f92	-0.5515071
63	0xbd25bbb1	-0.0404622
64	0xbe1ea67b	-0.15493195
65	0xbe8a8f13	-0.27062282
66	0x3c8a2eff	0.016868113
67	0x3ea2a1a6	0.31763953
68	0x3eee6c05	0.46566787
69	0xbe342f57	-0.17596184
70	0x3eb5cb95	0.35506883
71	0xbf15bd9e	-0.5849246
72	0xbe714920	-0.23563051
73	0x3f0c1c3d	0.5473059
74	0x3c136b68	0.008997776
75	0x3f478844	0.779423
76	0xbfb51c67	-1.4149293
77	0x3f1e9267	0.6194214
78	0xbec530d2	-0.3851381
79	0x3f40ed99	0.75362545
80	0xbbdf4356	-0.006813447
81	0xbf16fe9c	-0.58982253
82	0x3f58a991	0.8463374
83	0x3f0ef3ae	0.55840576
84	0xbf807067	-1.0034302
85	0x3f8404e8	1.0313997
86	0x3e294444	0.16529948
87	0xbe9784b9	-0.29593447
88	0xbf0d8ff3	-0.55297774
89	0xbd65ee40	-0.056135416
90	0x3e676277	0.22596155
91	0xbdbb6fe5	-0.091522016
92	0x3e983966	0.29731292
93	0xbdcf6092	-0.10125841
94	0xbfd37f39	-1.65232
95	0xbd074c4f	-0.033031758
96	0x3eb28871	0.34869722
97	0x3e02c6cb	0.12771146
98	0x3e33d810	0.1756289
99	0x3f5b6f93	0.85717124
100	0xbee20152	-0.44141632
101	0x3f5356a7	0.82554096
102	0xbee67f83	-0.4501916
103	0xbe529076	-0.2056292
104	0xbed16325	-0.40895954
105	0x3f4ffb62	0.81242955
106	0xbee35d5f	-0.44407174
107	0x3f51949a	0.81867373
108	0xbf1a3e41	-0.6025124
109	0x3f1b6ed1	0.6071597
110	0x3ee991da	0.45619088
111	0xbe6a17c3	-0.22860627
112	0xbe2b5f6c	-0.1673562
113	0xbf045dbc	-0.5170553
114	0xbdb1850e	-0.08667956
115	0x3f1a6506	0.603104
116	0x3f18b403	0.59649676
117	0x3f662ddf	0.89913744
118	0x3df578af	0.11985909
119	0x3e1375fb	0.14400475
120	0x3f55a0f2	0.8344871
121	0xbf7449eb	-0.9542529
122	0xbf09b155	-0.5378621
123	0xbedfd676	-0.43718308
124	0x3d8c22ab	0.0684255
125	0xbe460712	-0.19338635
126	0x3e5d043b	0.21583645
127	0x3f4a6fa7	0.7907662
128	0xbf4b7d1c	-0.79487777
129	0x3f03c36d	0.5147007
130	0x3fbe969e	1.4889715
131	0xbf89e5dd	-1.0773274
132	0xbf3bc80b	-0.73352116
133	0xbfa92f8f	-1.3217639
134	0x3f4e8382	0.80669415
135	0xbf01716c	-0.50563693
136	0x390e6665	0.0001358032
137	0xbdf764f7	-0.120798044
138	0xbb7128a5	-0.0036797908
139	0x3f479b45	0.779713
140	0x3e2058b6	0.1565884
141	0xbe57979e	-0.21053931
142	0x3aaaecfd	0.0013040599
143	0xbe87cc84	-0.2652322
144	0xbf76f9b7	-0.96474785
145	0x3fb9ba01	1.4509889
146	0x3eafb38c	0.3431667
147	0x3f115296	0.5676664
148	0xbe0d948d	-0.13826199
149	0xbe931b8c	-0.28731954
150	0x3ee5b218	0.44862437
151	0xbfa318b5	-1.2741915
152	0xbeb226da	-0.34795266
153	0x3ee22e95	0.44176164
154	0x3dc5672d	0.0963882
155	0xbe0909cd	-0.13382645
156	0x3f2fbf4c	0.6865127
157	0x3dedb1a9	0.116061516
158	0xbf92039c	-1.1407351
159	0x3eae8b93	0.34090862
160	0xbe314bf1	-0.17314126
161	0xbd9cc495	-0.076546825
162	0x3ded882c	0.11598238
163	0x3d641f40	0.055693865
164	0x3ec10e18	0.37706065
165	0xbda4b88f	-0.08043014
166	0xbfb4c32a	-1.4122059
167	0x3e18805b	0.14892714
168	0x3ecb12d8	0.39662814
169	0xbdaf7d88	-0.08568865
170	0x3edb5c1e	0.42843717
171	0x3d4d315c	0.0500959
172	0xbd48ce4c	-0.049024865
173	0x3e0569d1	0.13028647
174	0x3e1b6592	0.15175465
175	0xc0163f43	-2.3476112
176	0xbdf2443b	-0.1182942
177	0x3d41986b	0.047264498
178	0x3d87df5d	0.066344
179	0x3db80717	0.08985727

head_conv.1.depth_wise_2.bias f4 [20]
0	0x3c83d61f	0.016093312
1	0xbdff10f7	-0.12454408
2	0x3c99599f	0.018719492
3	0xbbbcedb0	-0.0057656392
4	0x3cbfaa27	0.023396565
5	0xbde9633b	-0.1139588
6	0x3c41e39e	0.011834053
7	0xbcce79ce	-0.025204565
8	0x3d8cf39c	0.06882402
9	0x3c9d407c	0.019195788
10	0x3e01b502	0.12666705
11	0xbdae38ac	-0.08506903
12	0xbcad9a18	-0.021191642
13	0x3cd4ad10	0.025961429
14	0x3c23c9bd	0.009996829
15	0x3d0bfd15	0.034176905
16	0xbc019bc1	-0.00791067
17	0xbcbf3250	-0.02333942
18	0x3d9fea8a	0.07808407
19	0x3e117b0e	0.14207098

head_conv.2.point_wise_1.weight f4 [32, 20, 1, 1]
0	0x3f419663	0.75620097
1	0x3e08ea06	0.13370523
2	0xbe438282	-0.19092754
3	0xbf770ac3	-0.96500796
4	0xbf232463	-0.63727397
5	0xbf3833e8	-0.719542
6	0xbede1ad9	-0.43379858
7	0xbddbc799	-0.107314296
8	0xbb8ffc9a	-0.004394126
9	0xbf97a810	-1.1848164
10	0xbd59684c	-0.05307798
11	0x400688e3	2.102105
12	0x3f085d89	0.53267723
13	0x3fe41a01	1.7820436
14	0xbf13bd5c	-0.57710814
15	0xbf9b5b47	-1.2137231
16	0x3f40f46b	0.7537295
17	0xbfc51f61	-1.5400201
18	0x3e85cbe5	0.26132122
19	0xbea86e18	-0.32896495
20	0x3f0e6ab9	0.55631596
21	0x3f9c00a1	1.2187692
22	0xbd05bd6a	-0.032651342
23	0x3e3b0366	0.18263015
24	0xbf0f1d2b	-0.5590388
25	0x3f43873d	0.7637823
26	0xbd9098f8	-0.070604265
27	0xbd884a46	-0.066547915
28	0xbe8006ed	-0.25005284
29	0xbd97eae6	-0.0741785
30	0xbeeaba94	-0.45845473
31	0x3d88cba0	0.066794634
32	0xbe75c932	-0.24002531
33	0xbcf1c3eb	-0.029512366
34	0xbf66dfa2	-0.90184987
35	0x3dd6f93c	0.104967564
36	0xbd3e85cc	-0.046514317
37	0x3e77129a	0.2412819
38	0x3f10783a	0.5643345
39	0x3d961286	0.07327752
40	0x3cb1d021	0.021705689
41	0xc048e28d	-3.1388276
42	0x3f51770c	0.81822276
43	0x3e682689	0.2267095
44	0xbc06e316	-0.008232852
45	0x3f3d073b	0.7383916
46	0x3eb94162	0.36182696
47	0xbf028da9	-0.50997406
48	0xbe9a4db6	-0.30137414
49	0x3d1805fc	0.037115082
50	0xbefc1dc1	-0.4924145
51	0x3e1f1dcb	0.15538709
52	0x3e1e5582	0.15462306
53	0xbe4a211a	-0.1973919
54	0xbf0669dd	-0.52505285
55	0x3e973c8b	0.29538378
56	0xbdf03034	-0.11727944
57	0x3eab07ae	0.33404297
58	0x3f3e465c	0.7432611
59	0xbda84c79	-0.08217711
60	0xbe4fdb40	-0.20298481
61	0x3eac87e6	0.33697432
62	0x3f9f816e	1.2461374
63	0x3d2596df	0.040427085
64	0x3e0cf409	0.13764967
65	0x3e8e1d55	0.27756754
66	0xbd82947f	-0.0637598
67	0xbf40e8bb	-0.7535512
68	0x3d4873b6	0.048938476
69	0x3eaabc88	0.33346963
70	0x3ec297fd	0.38006583
71	0xbdb1dd2f	-0.086847655
72	0xbe1fe932	-0.156163
73	0x3e188bc0	0.1489706
74	0x3eb6c361	0.35695937
75	0xbe2b43a8	-0.16725028
76	0xbd56e9e1	-0.052469138
77	0xbd059d0e	-0.032620482
78	0xbf0f3f54	-0.55956006
79	0x3ee3e7be	0.44512743
80	0xbf23ba5b	-0.6395623
81	0x3dc9cc77	0.09853452
82	0x3e03553b	0.12825482
83	0xbdd5bc06	-0.10436253
84	0x3dbc3b11	0.091909535
85	0xbe858043	-0.26074418
86	0x3e509e4c	0.20372885
87	0x3ca2cbb2	0.01987252
88	0xbe532960	-0.20621252
89	0x3e9c854d	0.3057045
90	0xbf1166bf	-0.56797403
91	0x3f83e7a5	1.0305067
92	0x3e191ac5	0.14951618
93	0x3d87597e	0.06608866
94	0x3e70afa1	0.23504497
95	0x3ea61253	0.32435855
96	0x3dd4c4b7	0.10389083
97	0x3f8ae684	1.0851598
98	0x3e529916	0.2056621
99	0xbeb739e2	-0.3578635
100	0x3df69cdd	0.12041638
101	0xbe13b628	-0.14424956
102	0x3e30df5c	0.17272705
103	0xbdbf33d2	-0.09336056
104	0xbe725467	-0.2366501
105	0x3e9f63ca	0.3113082
106	0xbf91f7be	-1.140373
107	0xbf253cf2	-0.6454612
108	0xbd1bb23a	-0.038011767
109	0x3f1c5be9	0.61077744
110	0xbe409863	-0.18808131
111	0x3e26950e	0.16267797
112	0xbe706823	-0.23477225
113	0xbf9e5da0	-1.2372322
114	0x3e630a8b	0.2217199
115	0x3fc24f8e	1.5180528
116	0xbf4b1486	-0.7932819
117	0xbf86c49f	-1.0528754
118	0xbe01ed3c	-0.12688154
119	0x3c6caf87	0.014446146
120	0xbe7f1dcc	-0.2491371
121	0x3e7dc9a9	0.24783958
122	0xbd9ce3f8	-0.07660669
123	0x3f410b79	0.7540813
124	0x3d32e899	0.043678854
125	0xbc7f94a7	-0.015599406
126	0x3e297b70	0.16550994
127	0x3da0bcbc	0.07848498
128	0x3dc3afdf	0.09555029
129	0x3dfeb658	0.12437123
130	0x3d081f6d	0.033233095
131	0xbd59aba7	-0.053142216
132	0xbd9242f0	-0.071416736
133	0x3e6812ee	0.22663471
134	0xbe3edc91	-0.18638827
135	0x3e188f7f	0.1489849
136	0xbec23d3f	-0.37937352
137	0x3e26c7cb	0.16287152
138	0xbe4ba4ca	-0.19887081
139	0xbd8ed14b	-0.06973513
140	0x3e0c7756	0.13717398
141	0xbeeae30a	-0.45876342
142	0xbe4d449c	-0.20045704
143	0x3dbc16b1	0.091840155
144	0xbdc3c15b	-0.09558364
145	0xbe0dfd47	-0.13866149
146	0xbdba363d	-0.090923764
147	0xbe8f010f	-0.27930495
148	0x3e91d29d	0.28480998
149	0xbe1c7625	-0.15279444
150	0x3c3e3d3d	0.01161128
151	0x3d02214b	0.031770032
152	0xbea76ea5	-0.32701603
153	0xbecc79f4	-0.39936793
154	0x3e204218	0.15650213
155	0xbdccc2db	-0.09998103
156	0xbdefdc2e	-0.11711918
157	0xbe2f57c4	-0.17123324
158	0x3e8b5335	0.2721192
159	0x3c9b50a6	0.018959355
160	0x3c302a6e	0.0107523035
161	0x3d0933a2	0.033496507
162	0xbbc95a9e	-0.0061448356
163	0x3e0f69f1	0.14005257
164	0x3cf1e8c7	0.029529942
165	0x3e94e1d7	0.29078552
166	0x3e3b4293	0.18287115
167	0xbd8fb21a	-0.07016392
168	0x3f0fb4d7	0.56135315
169	0x3dad4530	0.08460462
170	0x3f2b1c4f	0.6684007
171	0xbe47eea1	-0.19524623
172	0x3e49d3ce	0.19709703
173	0x3d80d696	0.06290929
174	0x3e6194c2	0.22029403
175	0xbc849731	-0.016185375
176	0xbd575756	-0.052573524
177	0xbd8cd832	-0.068771735
178	0xbd90b0cd	-0.07064972
179	0x3e0b50bd	0.13605018
180	0x3f43746e	0.7634953
181	0xbec95e19	-0.39329603
182	0xbe2bf719	-0.16793479
183	0xbed5e4d9	-0.4177616
184	0xbf032c36	-0.51239336
185	0xbf80e8eb	-1.0071081
186	0x3d613f57	0.054992046
187	0xbe895b99	-0.26827696
188	0x3f3ba533	0.7329895
189	0x3eea43c1	0.45754817
190	0xbd8b8b04	-0.068136245
191	0xc03b094d	-2.9224427
192	0xbdb57c50	-0.08861601
193	0x3f957849	1.1677333
194	0xbf3d1062	-0.73853123
195	0x3eb9e392	0.36306435
196	0xbec5046d	-0.3847994
197	0x3edefc10	0.43551683
198	0x3ea16d80	0.31528854
199	0x3f07087d	0.5274733
200	0x3f2f4ae8	0.6847367
201	0x3e96ae13	0.29429683
202	0xbe1af77f	-0.15133475
203	0xbe9420f5	-0.28931394
204	0xbfb5899f	-1.4182624
205	0x3ed2c1cc	0.4116348
206	0x3e055924	0.13022286
207	0xbef3909c	-0.47571266
208	0x3e79b61a	0.24385872
209	0xbf005840	-0.5013466
210	0x3c3d531d	0.01155546
211	0x3f497a01	0.7870179
212	0x3e74c4b5	0.23903163
213	0x3e943dbe	0.28953356
214	0x3ecdd653	0.4020258
215	0x3cd2d469	0.02573605
216	0x4003d6e3	2.0599906
217	0x3d11d8e4	0.035607234
218	0x3f0c41d5	0.5478795
219	0xbe966c4f	-0.29379508
220	0xbf544363	-0.82915324
221	0x3eee6bbe	0.46566576
222	0x3e7844b5	0.2424496
223	0x3f15e6d3	0.58555335
224	0xbebe1dad	-0.37132016
225	0xbf46bf23	-0.776354
226	0xbfa46223	-1.2842449
227	0x3e91b1a9	0.28455856
228	0xbeee6aa0	-0.46565723
229	0xbd5c5886	-0.05379536
230	0xbd44b5d9	-0.048024986
231	0xbd6fe4d2	-0.05856783
232	0xbdd74872	-0.10511865
233	0x3f0c5f5d	0.5483301
234	0xbe5c4a21	-0.21512653
235	0xbe305621	-0.17220356
236	0xbe8a20b4	-0.26978076
237	0xbbb1dbac	-0.0054277983
238	0x3c7c1fbc	0.015388425
239	0xbd1e6e35	-0.03867932
240	0xbf2d0adf	-0.6759471
241	0x3ee394f5	0.44449583
242	0x3e853c7a	0.26022702
243	0x3ed9d2de	0.4254369
244	0x3e223970	0.15842223
245	0x3ef228c4	0.47296727
246	0xbd44a54d	-0.048009206
247	0xc0084069	-2.1289313
248	0x3d0116d7	0.031515922
249	0xbe8054b4	-0.25064623
250	0x3fcae84c	1.5852141
251	0xbeb45d82	-0.3522759
252	0x3ac80f5c	0.0015263367
253	0x3e3e52b3	0.18586235
254	0x3f125650	0.5716295
255	0xbd7ecd1c	-0.062207326

head_conv.2.point_wise_1.bias f4 [32]
0	0x3dcef31f	0.101049654
1	0x3de45ce0	0.11150527
2	0xbfa8133d	-1.3130871
3	0x3d28283e	0.041054003
4	0x3e07fd55	0.13280232
5	0x3e7c5b7c	0.24644274
6	0xbdd85b77	-0.105643205
7	0x3e3f7f60	0.18700933
8	0xbde682e4	-0.11255434
9	0x3f019c4e	0.5062913
10	0x3e3aec36	0.1825417
11	0xbcaf595e	-0.021404918
12	0x3f96fc8a	1.1795819
13	0xbf580789	-0.843865
14	0xbe6422b6	-0.22278866
15	0x3dd48e21	0.103786714
16	0x3ebdd4f9	0.37076548
17	0xbf2b36bf	-0.6688041
18	0x3f936745	1.151589
19	0x3ee5e307	0.4489977
20	0x3f2c54ee	0.6731709
21	0xbe3990aa	-0.18121591
22	0x3f4d5cbb	0.8021962
23	0xbe86254e	-0.26200336
24	0x3c38e704	0.011285547
25	0xbe8ecee1	-0.2789221
26	0xbdf7296e	-0.12068449
27	0xbe87a8f2	-0.26496083
28	0xbd4b58e0	-0.049645305
29	0x3e679bf7	0.2261809
30	0xc071f64d	-3.780658
31	0x3cdb8128	0.026794985

head_conv.2.depth_wise_1.weight f4 [32, 1, 3, 3]
0	0x3eb5c8d5	0.35504785
1	0x3e15be62	0.14623407
2	0x3d458a73	0.04822774
3	0xbf1941bf	-0.59865946
4	0x3dd838df	0.10557722
5	0xbde8bd50	-0.113642335
6	0x3dd45b1f	0.103689425
7	0xbedb465d	-0.4282712
8	0xbe7cbcd2	-0.24681404
9	0x3ed7b1ba	0.42127782
10	0x3e4dc740	0.20095539
11	0x3dc8933e	0.09793709
12	0x3dbed936	0.093187734
13	0xbf283442	-0.6570474
14	0xbeb8779f	-0.36028764
15	0x3edc4656	0.43022412
16	0x3e9304dd	0.28714648
17	0x3ca01afe	0.01954412
18	0xbe88e4f8	-0.2673719
19	0xbe344ddf	-0.1760783
20	0xbe8d52d5	-0.27602258
21	0x3d945ad6	0.07243888
22	0x3fb5283d	1.4152905
23	0xbe24c185	-0.16089447
24	0x3e1ec960	0.15506506
25	0x3e611873	0.21981983
26	0xbce952e7	-0.028481914
27	0x3e6dabb1	0.23210026
28	0x3e83caf7	0.25740787
29	0xbd00c20f	-0.03143507
30	0xbec2f088	-0.38074136
31	0xbf8d3349	-1.1031276
32	0x3e8e738c	0.2782253
33	0xbdcb138f	-0.0991584
34	0xbe13df19	-0.14440574
35	0x3dc815bd	0.09769771
36	0x3e4ad780	0.19808769
37	0x3ce5163c	0.027964704
38	0x3f05a5dd	0.5220621
39	0xbd36cd45	-0.044629354
40	0xbcf8527d	-0.030312771
41	0x3c544621	0.012956173
42	0x3e8307d5	0.25591913
43	0x3e1e5db0	0.15465426
44	0x3ea0fa83	0.31441125
45	0x3e40be5c	0.18822616
46	0x3dbb2d31	0.09139479
47	0xbd57d2d5	-0.0526913
48	0x3d842549	0.06452424
49	0xbe444c00	-0.19169617
50	0xbe97e787	-0.2966883
51	0xbf3ff87d	-0.7498854
52	0xbd4538cc	-0.04814987
53	0x3efaf110	0.4901204
54	0xbeb539ca	-0.35395652
55	0xbdf1152b	-0.117716156
56	0x3da4790b	0.080308996
57	0xbdaf9386	-0.0857306
58	0x3ef188ba	0.47174627
59	0xbe21851a	-0.1577343
60	0xbbe6cd47	-0.007043514
61	0xbdb20ac9	-0.08693463
62	0x3e5e2750	0.21694684
63	0xbd2bc136	-0.041932307
64	0xbf01bd61	-0.50679594
65	0x3dca4e1e	0.09878181
66	0xbe7d01cf	-0.24707721
67	0x3ec4ce4a	0.38438636
68	0x3d955e3c	0.072933644
69	0x3c804017	0.01565556
70	0x3ec0c7b8	0.37652373
71	0xbd8eb870	-0.069687724
72	0xbdec1b76	-0.11528675
73	0xbea9b207	-0.33143637
74	0xbddb2019	-0.106994815
75	0xbeaa4348	-0.33254457
76	0x3f931b87	1.1492776
77	0xbeaba34e	-0.3352303
78	0xbe6326a7	-0.22182713
79	0xbe2842bb	-0.16431706
80	0xbe37c63b	-0.17946713
81	0xbf7b7946	-0.98231924
82	0x3f1e5bbe	0.6185874
83	0x3f064772	0.52452767
84	0xbf76f06b	-0.964606
85	0xbe7c6bee	-0.24650547
86	0x3f71a8c1	0.94398123
87	0x3e734d1a	0.2375988
88	0xbea3319f	-0.31873795
89	0xbe0ca2f0	-0.1373403
90	0xbe9ff6b5	-0.3124291
91	0xbf2bc4c4	-0.67097116
92	0xbf2e6086	-0.68116033
93	0xbdc96d95	-0.09835354
94	0xbee64619	-0.44975355
95	0xbeb8114b	-0.35950693
96	0x3ed27199	0.41102293
97	0x3f814d3c	1.0101695
98	0x3f4108e9	0.7540422
99	0x3ee75232	0.45179898
100	0xbce64f6c	-0.028114043
101	0xbcd1e578	-0.025622115
102	0xb9b0533a	-0.00033631345
103	0xbeb90972	-0.3614002
104	0xbde1f638	-0.110332906
105	0x3efb5072	0.49084812
106	0xbdca7813	-0.098861836
107	0xbef36ef1	-0.4754558
108	0x3fad7fea	1.3554661
109	0xbf736152	-0.95070374
110	0x3de6a588	0.11262041
111	0xbf2ee309	-0.6831518
112	0xbeeb5b30	-0.45968008
113	0xbf2ef27f	-0.6833877
114	0x3f3d8119	0.7402511
115	0xbee36ef2	-0.44420582
116	0x3f8905ab	1.0704855
117	0x3eba690d	0.36408272
118	0x3e888db4	0.2667061
119	0x3da6e898	0.081498325
120	0x3eefdd20	0.46848392
121	0x3f49f177	0.7888407
122	0xbd95bfa8	-0.07311946
123	0xbdafb033	-0.08578529
124	0xbdfaf59e	-0.12253879
125	0xbcea367e	-0.028590437
126	0x3d6d120c	0.05787854
127	0xbd98775b	-0.0744464
128	0xbe048bab	-0.12943904
129	0x3df8a8a1	0.121415384
130	0x3d014c1a	0.031566717
131	0x3d92e3a5	0.07172326
132	0xbcf6af5d	-0.030112917
133	0x3d6b5846	0.05745723
134	0x3c8031c1	0.015648725
135	0xbe632375	-0.22181495
136	0xbdd8859f	-0.10572361
137	0xbd1c6bc8	-0.038188726
138	0xba26a2ff	-0.0006356686
139	0x3f84d5f9	1.0377799
140	0xbe342792	-0.1759322
141	0xbea99dd5	-0.3312823
142	0xbca23900	-0.01980257
143	0xbe0f711b	-0.1400799
144	0x3e4042b5	0.18775447
145	0x3cfade4c	0.030623578
146	0x3e0f0e28	0.13970244
147	0xbd685170	-0.05671829
148	0x3f599c4b	0.8500411
149	0xbc7f0d34	-0.015567113
150	0x3d8a6991	0.067584164
151	0x3bb50f69	0.0055255187
152	0x3e43b60c	0.19112414
153	0xbdf65a32	-0.12028922
154	0xbeb2a9ab	-0.3489507
155	0x3d377c72	0.044796415
156	0xbd162ce8	-0.03666392
157	0x40087a9b	2.1324832
158	0xbe8fec61	-0.2811003
159	0xbd4d8945	-0.05017974
160	0xbe757fdb	-0.23974554
161	0x3d62b74b	0.055350583
162	0xc0c37660	-6.1082
163	0x3dc045c0	0.09388304
164	0x3edd11c5	0.4317762
165	0xc0abc81f	-5.368179
166	0x3ed281fd	0.41114798
167	0x3e60bbf5	0.219467
168	0xc083712c	-4.107565
169	0xbdc8490d	-0.09779558
170	0x3f04c977	0.5186991
171	0xbcd60ea7	-0.026130034
172	0xbe1e54ff	-0.15462111
173	0xbe533702	-0.20626453
174	0x3ed1729c	0.40907753
175	0xbeff448f	-0.49856994
176	0x3e8b7571	0.27238038
177	0xbeaac018	-0.3334968
178	0x3e1173cb	0.14204328
179	0xc0c55344	-6.1664143
180	0x3f34ddcc	0.70650935
181	0x3e8945ff	0.26811215
182	0xbe207711	-0.1567042
183	0xbf03a7c3	-0.5142786
184	0xbe3cca45	-0.18436535
185	0x3e807c3d	0.25094786
186	0xbe1e9de9	-0.15489925
187	0xbde143fd	-0.10999296
188	0xbe9ed9fe	-0.3102569
189	0xbf1c9d66	-0.6117767
190	0xbe5123b3	-0.20423774
191	0xbdeb47a8	-0.11488277
192	0xbc9ba0c5	-0.01899756
193	0x3e21bd83	0.15794949
194	0xbdcf84c9	-0.10132749
195	0xbea851c4	-0.32874882
196	0x3c96434f	0.018342642
197	0xbcb7be75	-0.022429684
198	0xbdbcee81	-0.092251785
199	0x3e48de08	0.19615948
200	0xbdcd73f2	-0.100318804
201	0x3e8e6d4f	0.2781777
202	0xbf9daf93	-1.2319206
203	0x3d0c9ab5	0.034327228
204	0xbd4e1251	-0.050310437
205	0x3dcf4f03	0.10122492
206	0xbb4db76a	-0.003138984
207	0x3da7afb2	0.08187808
208	0xbcff777b	-0.031184902
209	0x3df14297	0.11780279
210	0x3d831efe	0.06402396
211	0x3e4439a8	0.19162619
212	0xbd5caf9c	-0.05387841
213	0x3d767baf	0.060176548
214	0x3c65d631	0.014028118
215	0xbd7edd60	-0.06222284
216	0x3c89d96e	0.016827311
217	0xbc0fc56a	-0.0087750945
218	0xbeaa6254	-0.33278143
219	0x3e01ca7e	0.12674901
220	0xbe441cd7	-0.19151627
221	0xbcf28174	-0.029602744
222	0x3dd7f66d	0.10545049
223	0xbd864a2d	-0.06557117
224	0xbe04d6e3	-0.12972598
225	0x3de226e2	0.110425726
226	0x3cd0df8d	0.025497222
227	0x3de781bd	0.113040425
228	0x3d164968	0.0366911
229	0x3cf2395c	0.029568367
230	0xbd84bd38	-0.06481403
231	0xbca1c4fd	-0.019747252
232	0xbd1d3a96	-0.03838595
233	0x3d00a99f	0.031411763
234	0xbae6ec65	-0.0017618058
235	0x3ea83e3c	0.3285998
236	0x3d96e949	0.07368714
237	0xbdb2a8c5	-0.087235965
238	0xbe82d657	-0.25554153
239	0xbe5fa0b6	-0.2183865
240	0x3ed710e3	0.4200507
241	0xbda389b9	-0.07985253
242	0x3e5b4923	0.21414618
243	0xbf9cc225	-1.2246748
244	0xbf8889e0	-1.0667076
245	0x3f22be6a	0.635718
246	0x3f45494d	0.77064973
247	0xbe91f963	-0.2851058
248	0x3e2bd590	0.16780686
249	0x3efb742c	0.4911207
250	0x3f2c954e	0.6741532
251	0x3ea9f2e3	0.3319312
252	0x3e1f013a	0.15527812
253	0xbdac091e	-0.084001765
254	0x3e59df17	0.21276508
255	0xbe1282d6	-0.14307722

head_conv.2.depth_wise_1.bias f4 [32]
0	0x3d646f6c	0.055770323
1	0x3e589300	0.21149826
2	0xbbf2c9c0	-0.0074093044
3	0x3e991ab5	0.29903188
4	0x3f0fe37a	0.56206477
5	0x3c881cab	0.016615232
6	0x3e45b3e1	0.193069
7	0x3ea8b019	0.32946852
8	0x3f33d137	0.7024111
9	0x3d164ee0	0.036696315
10	0xbc5d3afb	-0.013502832
11	0x3db9c718	0.09071177
12	0x3e885820	0.26629734
13	0x3bb44e4f	0.005502499
14	0xbe8b0f98	-0.27160335
15	0x3f233210	0.63748264
16	0x3dbadb6c	0.09123883
17	0xbdef26d0	-0.11677325
18	0x3eeab15b	0.45838436
19	0x3eb79cf3	0.3586193
20	0xbdb00962	-0.0859554
21	0x3f1713cb	0.59014577
22	0x3e0d4b4a	0.13798252
23	0xbf0f250e	-0.55915916
24	0x3f0815bf	0.5315818
25	0xbf03803f	-0.51367563
26	0xbd49c023	-0.0492555
27	0x3d56b4fb	0.05241869
28	0x3f474422	0.7783834
29	0xbcef2fd8	-0.029197618
30	0xc01703dc	-2.3596106
31	0x3ca02472	0.019548628
